weights/_norm_ltc_mlp.pth (torch_old, 164819 bytes, 11 tensors)

layer1.weight f4 [130, 161]
0.08196633 0.04626995 -0.023557955 0.041461974 -0.058790732 -0.032658137 -0.018875677 -0.042851977
0.031185796 -0.03447153 -0.024852553 -0.022436408 -0.013375039 -0.018376429 0.028894244 -0.063963525
-0.07003271 0.02081444 0.05443554 -0.03679167 0.0012182217 -0.0130490465 -0.0686143 0.07536708
0.08516947 0.06555112 0.031269554 0.034907296 -0.052841544 0.01178694 0.01432156 -0.058519453
0.05927364 0.041821674 -0.02527299 0.07591208 0.05481133 -0.05498922 -0.022206638 0.06584709
-0.062067218 0.012518696 -0.013310687 -0.030859036 0.054724216 -0.04354056 0.054373465 -0.01880856
0.08147049 0.03821481 -0.019324789 -0.07599967 -0.05571842 0.048115358 -0.0680081 -0.026181396
0.06290808 -0.063378036 -0.0096156625 -0.045258198 -0.012093771 0.040529046 0.08002233 0.012422227
-0.02320977 0.002854071 -0.03599899 0.05884173 0.008880397 -0.015026417 -0.038800173 0.04873468
0.069073245 -0.062678054 -0.07876222 0.046484526 0.012553924 0.06726593 -0.062429834 0.0464029
-0.019191286 -0.050344627 0.03729835 -0.02390331 0.028436568 -0.027471755 -0.03484717 -0.015583481
0.017515613 0.04605583 -0.04409107 0.03445299 0.059539475 -0.03216651 0.0740906 -0.0041410546
0.0005073307 -0.06223297 0.08745991 -0.04936212 -0.021160671 0.065151565 0.067318656 0.00395695
0.06805853 0.019165464 -0.06812487 0.03689635 -0.06444593 0.052810136 -0.080688156 0.042528495
0.031349886 -0.034660533 0.06944226 0.027011434 0.03295151 0.051797386 -0.060959935 0.016002234
0.060297582 0.0341776 -0.08149949 0.017583081 -0.0024056209 0.09387036 -0.059663333 0.04080047
-0.01311476 -0.02913237 0.030919738 -0.004125609 0.05244744 -0.054832857 -0.09182833 -0.04815131
0.0493343 0.068503164 -0.021246528 0.038213108 -0.009750292 -0.056208674 0.01119175 0.029133482
-0.039244723 0.026606133 0.05616923 -0.0467117 -0.025203746 -0.046740294 0.032454748 -0.030395454
-0.055023275 -0.023845213 -0.03552166 0.043218054 -0.03801863 -0.07911379 0.02977678 0.017393675
0.047129575 0.053942677 0.005274934 0.05255048 0.0054277964 0.0015393671 -0.042060103 -0.018161155
0.06026463 -0.053654004 -0.0016930192 0.019329255 -0.035780348 -0.027841404 -0.0019859774 0.056731343
0.023439452 -0.0038674497 -0.024147581 0.0015742767 0.031088483 0.034336254 -0.015242737 -0.043138847
-0.03773019 0.040602945 -0.025317427 0.0020843311 0.0009324377 -0.041812196 -0.026116734 0.05724089
-0.019398956 0.047705412 0.018451773 -0.021378197 -0.040229864 -0.029818233 -0.0032656733 0.045693688
-0.04594334 0.042317025 -0.037734684 -0.030072331 0.026244814 0.010729812 0.056636356 -0.041543886
0.031017063 -0.000469966 0.0049208896 -0.007226055 -0.03846356 -0.028025942 0.014742577 0.021792669
0.052152533 0.008360331 0.022202507 0.03233012 -0.0308707 -0.052251704 -0.008276359 0.04261731
0.0240426 -0.026161244 -0.03643447 0.01807149 -0.023624336 -0.009650238 -0.045542628 0.019964976
0.018343637 -0.002495116 0.0028881873 -0.035630997 -0.012479647 0.057142332 -0.058558237 0.034498636
0.0069375094 0.02658051 -0.0041052806 -0.009917084 0.02374946 0.03977044 -0.040619656 -0.040138867
0.015952457 -0.009988126 0.031285867 -0.0010761782 -0.029169662 -0.0081442045 0.023286015 -0.010250523
00000000: f7dd a73d 8f85 3d3d 9dfc c0bc 08d4 293d
00000010: 8dce 70bd 8ac4 05bd 2aa1 9abc 8e85 2fbd
00000020: 5b79 ff3c 0532 0dbd 9597 cbbc 8fcc b7bc
00000030: fb22 5bbc 2a8a 96bc 9fb3 ec3c 4fff 82bd
00000040: 4f6d 8fbd 0b83 aa3c cdf7 5e3d ddb2 16bd
00000050: bdac 9f3a abcb 55bc a785 8cbd 0e5a 9a3d
00000060: 556d ae3d aa3f 863d 8114 003d f4fa 0e3d
00000070: 6070 58bd 021e 413c faa4 6a3c 18b2 6fbd
00000080: ebc8 723d 344d 2b3d 4d09 cfbc cb77 9b3d
00000090: d881 603d 603c 61bd b2ea b5bc d7da 863d
000000a0: 323a 7ebd 371b 4d3c 1115 5abc 17cc fcbc
000000b0: 8026 603d 9657 32bd b6b6 5e3d 6914 9abc
000000c0: 00da a63d 2287 1c3d 054f 9ebc b7a5 9bbd
000000d0: ff38 64bd 9c14 453d d547 8bbd 5e7a d6bc
000000e0: f4d5 803d 58cc 81bd 038b 1dbc a960 39bd
000000f0: f424 46bc c901 263d bfe2 a33d 9986 4b3c
00000100: 6a22 bebc 5e0b 3b3b ad73 13bd 0704 713d
00000110: 167f 113c 5c31 76bc eeec 1ebd 049e 473d
00000120: 4676 8d3d 5a5d 80bd 164e a1bd 8f66 3e3d
00000130: f9ae 4d3c b8c2 893d 6db6 7fbd f810 3e3d
00000140: 0b37 9dbc 2b36 4ebd 28c6 183d e0d0 c3bc
00000150: cef3 e83c 720c e1bc e8bb 0ebd db51 7fbc
00000160: e77c 8f3c 0aa5 3c3d d698 34bd 941e 0d3d
00000170: aadf 733d 08c1 03bd d0bc 973d afb1 87bb
00000180: 63fe 043a 00e8 7ebd 2e1e b33d ef2f 4abd
00000190: 2559 adbc 2f6e 853d 5dde 893d 4da9 813b
000001a0: 4562 8b3d e400 9d3c 0d85 8bbd a120 173d
000001b0: 3afc 83bd 714f 583d d53f a5bd 5c32 2e3d
000001c0: bd68 003d 34f8 0dbd be37 8e3d 1547 dd3c
000001d0: 2af8 063d 7f29 543d 20b1 79bd 1e17 833c
000001e0: 99fa 763d d0fd 0b3d 34e9 a6bd 650a 903c
000001f0: 9fa7 1dbb 1a3f c03d 8a61 74bd 651e 273d
00000200: 4adf 56bc 02a7 eebc 644b fd3c 1e30 87bb
00000210: 20d3 563d 6b98 60bd 7e10 bcbd 4f3a 45bd
00000220: c312 4a3d 634b 8c3d 330d aebc 5985 1c3d
00000230: b0bf 1fbc 113b 66bd 9a5d 373c 57a9 ee3c
00000240: 13bf 20bd 1bf5 d93c b511 663d c454 3fbd
00000250: 1678 cebc c072 3fbd 45ef 043d e3ff f8bc
00000260: 1660 61bd 0957 c3bc 297f 11bd 6a05 313d
00000270: 6cb9 1bbd 6906 a2bd 6fee f33c 2e7d 8e3c
00000280: f10a 413d fff2 5c3d 5bd9 ac3b 2c3f 573d
00000290: a8db b13b 97c4 c93a 3747 2cbd b4c6 94bc
000002a0: 0bd8 763d 4dc4 5bbd 4ce8 ddba 6358 9e3c
000002b0: 6a8e 12bd a813 e4bc 2c27 02bb 205f 683d
000002c0: 1804 c03c 0a75 7dbb 26d1 c5bc f657 ce3a
000002d0: 46ad fe3c 2ca4 0c3d acbc 79bc 5cb2 30bd
000002e0: f98a 1abd 464f 263d 7e66 cfbc 4699 083b
000002f0: d66e 743a 4443 2bbd c3f2 d5bc 6c75 6a3d
00000300: 8fea 9ebc c066 433d 2c28 973c 5421 afbc
00000310: 12c8 24bd 5e45 f4bc e804 56bb 4e29 3b3d
00000320: 152f 3cbd 9e54 2d3d af8f 1abd 405a f6bc
00000330: 5dff d63c 18cc 2f3c 86fb 673d ec29 2abd
00000340: 7f17 fe3c c565 f6b9 6a3f a13b 8bc8 ecbb
00000350: f78b 1dbd a996 e5bc da8a 713c 8a86 b23c
00000360: e59d 553d c5f9 083c 08e2 b53c 976c 043d
00000370: 8de4 fcbc e205 56bd 9199 07bc 7d8f 2e3d
00000380: fdf4 c43c 1b50 d6bc 503c 15bd a90a 943c
00000390: d387 c1bc 081c 1ebc e88a 3abd 978d a33c
000003a0: 6545 963c 1a85 23bb be47 3d3b cff1 11bd
000003b0: 6f77 4cbc 140e 6a3d c3da 6fbd 714e 0d3d
000003c0: 0c54 e33b 5fbf d93c 9785 86bb 447b 22bc
000003d0: 3a8e c23c 54e6 223d cc60 26bd a768 24bd
000003e0: baae 823c 3da5 23bc 9c25 003d 8c0e 8dba
000003f0: 37f5 eebc 456f 05bc 50c2 be3c cff1 27bc

layer1.bias f4 [130]
-3.5985064e-05 0.0092064 0.06743792 -0.05856777 -0.073547184 -0.053728342 0.09579479 0.031919982
-0.016808555 0.001048499 -0.037966885 0.036579654 0.057313103 -0.048186224 0.077260815 -0.00629847
0.047206596 -0.055961665 -0.0021338335 -0.03626233 0.0074580563 -0.020102223 0.090014465 0.04034394
-0.017758377 0.044957895 -0.005601934 -0.008572257 0.01946183 0.05514616 0.035522852 0.07605456
0.035324425 -0.061750606 -0.0076081287 0.022607118 0.062302597 0.05134442 0.080552526 -0.064675085
0.025886374 -0.027452359 -0.04738137 -0.0145187685 0.010355995 0.04141147 0.031958334 0.05768972
-0.055605404 0.0544845 0.036099352 -0.054565515 0.05910172 0.004007065 0.01112646 -0.025569564
0.006541731 0.055998094 -0.003833537 -0.012935809 0.070152305 -0.014277072 -0.0686943 -0.061480366
-0.006445887 0.044553448 0.008425569 0.047831878 0.023809949 0.024919353 0.005490139 -0.026540235
-0.039357893 -0.022747105 -0.014853828 -1.148e-39 0.0053806435 0.074067414 0.060377803 0.04555423
-0.067494094 0.009824124 0.061300434 -0.08346097 0.03202674 0.011271997 0.0050651166 0.0154716335
0.043876622 -0.027707744 -0.0736573 0.063867554 0.02759156 -0.0072306646 -0.021326495 -0.03544676
-0.0072904234 -0.032041978 0.025559274 -0.030742776 -0.023951298 -0.040673617 0.07349644 0.05003908
0.04261925 -0.018422956 0.0038373515 0.05932855 0.0062623215 0.023448218 -0.002378064 -0.048912026
0.0022779563 -0.058576033 -0.065879054 0.031461794 -0.018023057 -0.042592518 -9.5782916e-36 0.063180335
0.0406747 0.07810123 -0.020456744 0.02753601 0.045799587 0.058741894 -0.0007595214 -0.06771224
-0.022551788 0.03567116
00000000: abee 16b8 71d6 163c e41c 8a3d c2e4 6fbd
00000010: e89f 96bd 4012 5cbd 0f30 c43d 87be 023d
00000020: 18b2 89bc ca6d 893a 2a83 1bbd 8cd4 153d
00000030: 25c1 6a3d eb5e 45bd eb3a 9e3d 6563 cebb
00000040: b45b 413d 0f38 65bd c9d7 0bbb cf87 14bd
00000050: b662 f43b 6bad a4bc 8159 b83d b03f 253d
00000060: 047a 91bc c525 383d 6e90 b7bb a772 0cbc
00000070: 6a6e 9f3c f1e0 613d 6980 113d 7ec2 9b3d
00000080: 58b0 103d 34ee 7cbd 9c4d f9bb 9032 b93c
00000090: 0231 7f3d 874e 523d b9f8 a43d 5f74 84bd
000000a0: a90f d43c c5e3 e0bc f812 42bd 21e0 6dbc
000000b0: 31ac 293c 139f 293d bee6 023d 0e4c 6c3d
000000c0: 7ec2 63bd 242b 5f3d eadc 133d 1780 5fbd
000000d0: a514 723d b34d 833b c14b 363c 4377 d1bc
000000e0: 045c d63b 425e 653d 143c 7bbb b7f0 53bc
000000f0: 03ac 8f3d 61ea 69bc 99af 8cbd d6d2 7bbd
00000100: 0538 d3bb ad7d 363d 660b 0a3c 5ceb 433d
00000110: 150d c33c ac23 cc3c a0e6 b33b e86a d9bc
00000120: be35 21bd 2358 babc 785d 73bc 2880 0c80
00000130: 1c50 b03b a8b0 973d b74e 773d 1397 3a3d
00000140: 583a 8abd 5df5 203c 2a16 7b3d 96ed aabd
00000150: 792e 033d 2fae 383c 47f9 a53b bc7c 7d3c
00000160: f9b7 333d 5afb e2bc a3d9 96bd fecc 823d
00000170: b207 e23c 36ef ecbb e7b4 aebc 9f30 11bd
00000180: 81e4 eebb 733e 03bd af61 d13c 46d8 fbbc
00000190: 8335 c4bc 6199 26bd 4d85 963d c7f5 4c3d
000001a0: 8691 2e3d bdeb 96bc 137c 7b3b 7e02 733d
000001b0: 2934 cd3b 7a16 c03c 4bd9 1bbb fa57 48bd
000001c0: c449 153b 6ced 6fbd 99eb 86bd 15de 003d
000001d0: 17a5 93bc 7e75 2ebd 2eb5 4b85 b164 813d
000001e0: 849a 263d 8af3 9f3d e794 a7bc 3393 e13c
000001f0: 5998 3b3d 579b 703d 9e1a 47ba b7ac 8abd
00000200: 87be b8bc ec1b 123d

layer2.weight f4 [100, 130]
0.01882499 -0.0006802264 -0.08405689 -0.02046773 0.015105769 0.088987686 -0.018899197 -0.0983391
-0.012548153 -0.01259346 0.04527009 -0.06706917 0.09631348 0.1058463 -0.13221642 -0.001372717
0.028021883 0.07101353 -0.05218823 -0.065575756 0.023009412 -0.07373233 -0.08812744 -0.020356596
0.08980772 -0.025922298 -0.056121692 -0.06566565 0.09860176 0.08893048 -0.0082362415 0.043876104
-0.05672432 -0.06029959 0.0457273 -0.03630698 -0.011367792 -0.0067402907 -0.0076135155 0.014786138
0.08392205 0.046920814 -0.03528359 0.09804633 -0.050499976 0.09517647 0.014954977 0.09486926
0.04793592 -0.081447184 0.060486402 -0.023548445 0.057004195 0.021792497 0.10132438 -0.075801894
-0.048186198 0.02976716 -0.039643105 0.10785217 0.08322968 0.0996635 -0.037781987 -0.07611382
-0.050222974 -0.023867784 -0.011432681 0.064651206 0.030615244 -0.059082948 -0.0026759075 0.03959995
0.07441524 0.030429794 0.08903007 1.66048e-40 -0.012595988 0.039762724 0.053288255 0.02754094
-0.102580115 0.050920706 -0.05733079 0.07516406 0.06949147 -0.08510194 -0.03414789 -0.06079337
0.0336703 0.03380017 -0.013229661 0.09296698 0.034366746 0.008840901 0.078080215 -0.011545563
-0.010455097 0.020915862 0.093870565 -0.0284534 -0.0025601836 0.018010652 -0.024524016 0.01351153
-0.020087074 0.03801956 0.03785046 -0.06982767 0.045350965 -0.011462302 0.06733183 -0.0031698288
0.03154983 -0.04206682 0.057758085 0.013455988 -0.078212574 0.0047902046 -1.0045202e-35 -0.03408853
-0.068716444 -0.021001903 -0.052252606 -0.0645586 -0.06399196 0.08194452 0.057038028 0.10719269
0.068807244 0.040935196 0.0032565284 -0.009060805 0.008654586 0.0014031364 0.0003833143 -0.0002665366
0.0048467596 0.0017801843 0.011412326 0.0036299024 -0.0066122427 -0.018105289 -0.0053062807 0.0023333575
0.026052967 0.00272552 0.013464922 0.0020888126 -0.0015332795 0.0029382925 -0.0013827569 0.0030453487
0.003200161 0.012602204 -0.0012608351 0.04145269 0.0012188129 0.008741422 0.036912024 0.0043346044
-0.010131932 0.010808493 0.0033854186 0.029850312 0.0016886118 0.03743382 0.025040813 -0.011044628
0.010021288 -0.0055036866 0.0024463185 0.0039670966 0.008486553 0.001743727 0.012978961 -0.017752185
0.0005641102 0.029084373 0.0029607548 0.0071875867 0.0013092916 0.0014794563 0.0012697283 -0.01743726
-0.008085487 0.01273968 -0.029442288 -0.024329528 0.010080669 -0.0016694146 -0.01615167 0.00989273
0.013750136 0.0075055985 -0.0023508936 0.014644599 -0.00054408755 0.015165706 -0.03988855 0.0023490444
0.00018567532 -0.0050246166 0.0002258388 -0.0063202805 -0.021431291 3.74113e-40 0.004916034 -0.0020411494
-0.013160099 0.0022841827 0.0104457 0.0019162106 0.004726786 0.0011371823 0.0029399348 0.010024572
0.0016219893 0.0005458689 -0.03390027 0.008719997 -0.04021688 0.0125903385 -8.611424e-05 0.013092661
-0.008469155 0.02566717 0.010920952 0.010878213 0.0019457453 0.0017227881 -0.0063105403 0.0006346763
-0.0032706647 0.0017544148 -0.0266094 0.037874393 0.0016014235 0.019023063 -0.019026963 0.008913562
-0.004396083 0.006327685 -0.010037529 0.00019539814 -0.0028948165 0.0016955397 0.00073161774 -0.0070443405
3.309132e-36 0.0022926426 -0.0027238033 0.0011726827 -0.0012053514 0.002633664 0.0009362961 -0.020297358
00000000: de36 9a3c 3951 32ba 0526 acbd f1ab a7bc
00000010: 307e 773c 2d3f b63d 7dd2 9abc 0366 c9bd
00000020: c596 4dbc cd54 4ebc 216d 393d 905b 89bd
00000030: 0040 c53d f2c5 d83d be63 07be bdec b3ba
00000040: 268e e53c 8b6f 913d 53c3 55bd 954c 86bd
00000050: 3c7e bc3c fa00 97bd 297c b4bd e0c2 a6bc
00000060: 1ced b73d 005b d4bc dcdf 65bd b67b 86bd
00000070: b8ef c93d 2f21 b63d 4df1 06bc 6eb7 333d
00000080: c357 68bd b4fc 76bd 8d4c 3b3d a1b6 14bd
00000090: fa3f 3abc a8dd dcbb cc7a f9bb 8f41 723c
000000a0: 53df ab3d 0a30 403d 8785 10bd 84cc c83d
000000b0: 10d9 4ebd e2eb c23d b805 753c d14a c23d
000000c0: 7558 443d c8cd a6bd 97c0 773d abe8 c0bc
000000d0: 3b7d 693d 2e86 b23c 2883 cf3d 063e 9bbd
000000e0: e45e 45bd 42da f33c cf60 22bd 99e1 dc3d
000000f0: 5374 aa3d 611c cc3d 49c1 1abd 90e1 9bbd
00000100: 9bb6 4dbd 5f86 c3bc 2450 3bbc da67 843d
00000110: d2cc fa3c f600 72bd 475e 2fbb 8f33 223d
00000120: 0467 983d e747 f93c 6655 b63d e0ce 0100
00000130: 675f 4ebc 3dde 223d c944 5a3d 8a9d e13c
00000140: 8615 d2bd 3b92 503d b1d3 6abd 9def 993d
00000150: 8b51 8e3d ed49 aebd a8de 0bbd 7802 79bd
00000160: dee9 093d 0c72 0a3d 38c1 58bc 7965 be3d
00000170: 25c4 0c3d 6dd9 103c 85e8 9f3d 9a29 3dbc
00000180: db4b 2bbc be57 ab3c 363f c03d 1b17 e9bc
00000190: c1c8 27bb 138b 933c 97e6 c8bc 775f 5d3c
000001a0: a68d a4bc 66ba 1b3d 1509 1b3d cf01 8fbd
000001b0: efc1 393d 61cc 3bbc 45e5 893d e7bc 4fbb
000001c0: 653a 013d 424e 2cbd be93 6c3d 8176 5c3c
000001d0: ea2d a0bd 26f7 9c3b 48a3 5585 6aa0 0bbd
000001e0: 35bb 8cbd 2f0c acbc d406 56bd 4d37 84bd
000001f0: 370e 83bd 87d2 a73d b5a0 693d d787 db3d
00000200: d0ea 8c3d aaab 273d 7b6b 553b c573 14bc
00000210: f7cb 0d3c 72e9 b73a 93f7 c839 f0bd 8bb9
00000220: 91d1 9e3b 1355 e93a c4fa 3a3c a8e3 6d3b
00000230: 83ab d8bb 8b51 94bc 4fe0 adbb 3eeb 183b
00000240: 086d d53c a39e 323b fa9b 5c3c 76e4 083b
00000250: 53f8 c8ba 5e90 403b 9f3d b5ba 7994 473b
00000260: cbb9 513b 7a79 4e3c 9b42 a5ba 4cca 293d
00000270: 93c0 9f3a 2e38 0f3c 1031 173d 4c09 8e3b
00000280: 6700 26bc 1b16 313c e6dd 5d3b a488 f43c
00000290: 6954 dd3a 3554 193d 6422 cd3c 87f4 34bc
000002a0: 5430 243c 4558 b4bb 6a52 203b 6bfe 813b
000002b0: 2f0b 0b3c c58d e43a b5a5 543c 086d 91bc
000002c0: cbe0 133a 5a42 ee3c 3909 423b d985 eb3b
000002d0: 899c ab3a 51ea c13a 036d a63a 96d8 8ebc
000002e0: fe78 04bc 17ba 503c f430 f1bc b84e c7bc
000002f0: 6429 253c 42d0 daba 8250 84bc 1e15 223c
00000300: 4048 613c 86f1 f53b 7311 1abb e6ef 6f3c
00000310: 19a1 0eba 9579 783c 2d62 23bd 6df2 193b
00000320: d7b1 4239 8aa5 a4bb 24cf 6c39 5b1a cfbb
00000330: ad90 afbc e012 0400 af16 a13b cec4 05bb
00000340: 759d 57bc 3ab2 153b 7124 2b3c 5c29 fb3a
00000350: 28e3 9a3b 820d 953a ecab 403b 1a3e 243c
00000360: ee98 d43a a418 0f3a 02db 0abd 51de 0e3c
00000370: 75ba 24bd b547 4e3c 3b98 b4b8 9a82 563c
00000380: 36c2 0abc f543 d23c cbed 323c 883a 323c
00000390: 6108 ff3a 2dcf e13a a6c8 cebb 6860 263a
000003a0: a658 56bb 64f4 e53a f5fb d9bc 2e22 1b3d
000003b0: dbe6 d13a 41d6 9b3c 6fde 9bbc 300a 123c
000003c0: 040d 90bb 7858 cf3b 7374 24bc cae3 4c39
000003d0: f6b6 3dbb df3c de3a 09ca 3f3a 36d4 e6bb
000003e0: 42c1 8c04 2940 163b d681 32bb b4b4 993a
000003f0: e2fc 9dba 8d99 2c3b c571 753a a546 a6bc

layer2.bias f4 [100]
0.033144936 -0.003133487 -0.08916759 -0.06709007 0.015547569 0.08031481 0.061655924 -0.015389604
0.06479784 0.05709211 -0.07694634 -0.00992504 0.06654755 -0.108229615 0.0125164185 -0.008358353
-0.0915358 -0.03444062 -0.075362734 -6.349508e-39 -0.013678371 0.0028977243 -0.033562705 -0.029424854
-8.300986e-31 -0.057446502 -0.07568409 -0.011180719 0.0034106642 0.0678119 -0.022763908 0.048036333
0.045718115 0.05269986 -7.6466e-41 -0.059493538 0.06810251 0.05134455 0.058305833 -0.0030260053
-0.0049695102 0.018318122 0.041792125 -0.010834643 -0.02879723 -0.0024576248 -0.045483153 0.03148816
0.033659555 -0.04818012 -0.025961706 -0.0131072225 -0.007594377 -0.079207815 -0.070933945 0.08373824
0.057381526 -1.350706e-39 -0.080057785 -0.043940004 -0.070891194 -5.9058585e-31 -0.029453585 -0.021706203
-8.61451e-40 -8.550353e-39 -0.006596655 -0.028299488 -0.0035251738 -2.1079576e-38 -1.4714419e-38 -0.02895146
0.06844766 0.03432242 0.00799264 -0.03107226 2.15822e-40 0.03495765 0.062664226 -0.0127916485
0.04629357 -0.06459034 0.04346011 0.023476768 -0.06570931 0.005363004 -0.0046470063 0.055730585
-3.514109e-39 -0.021163719 0.060064647 -0.077027515 0.038890216 -0.080183074 0.0065466654 0.03351748
-0.08355224 0.044163678 -0.0012770279 -0.011167544
00000000: fcc2 073d 305b 4dbb 7f9d b6bd 8566 89bd
00000010: 3bbb 7e3c 177c a43d ec8a 7c3d ad24 7cbc
00000020: bbb4 843d 6bd9 693d 0b96 9dbd a39c 22bc
00000030: 154a 883d 7da7 ddbd aa11 4d3c 79f1 08bc
00000040: 1f77 bbbd 9c11 0dbd c757 9abd d823 4580
00000050: 3f1b 60bc bfe7 3d3b 0c79 09bd 640c f1bc
00000060: f2b0 868d 064d 6bbd 4300 9bbd 562f 37bc
00000070: 7385 5f3b f7e0 8a3d 607b babc bfc1 443d
00000080: eb42 3b3d cfdb 573d 28d5 0080 7faf 73bd
00000090: 5479 8b3d aa4e 523d 19d2 6e3d f24f 46bb
000000a0: 46d7 a2bb e30f 963c 382e 2b3d c983 31bc
000000b0: 2be8 ebbc 1a10 21bb 8b4c 3abd bbf9 003d
000000c0: 9ade 093d 8458 45bd a5ad d4bc adbf 56bc
000000d0: 40da f8bb b537 a2bd d145 91bd f47e ab3d
000000e0: e408 6b3d 38b5 0e80 56f5 a3bd 6ffa 33bd
000000f0: 672f 91bd f4a7 3f8d a548 f1bc 35d1 b1bc
00000100: 6061 0980 e81a 5d80 c128 d8bb 54d4 e7bc
00000110: 9a06 67bb 4889 e580 d039 a080 9d2b edbc
00000120: 492e 8c3d aa95 0c3d 90f3 023c 418b febc
00000130: a059 0200 c12f 0f3d 1a56 803d 1094 51bc
00000140: 549e 3d3d f147 84bd 3a03 323d 5a52 c03c
00000150: 9a92 86bd 23bc af3b ea45 98bb c145 643d
00000160: e843 2680 895f adbc 5906 763d 9ac0 9dbd
00000170: 594b 1f3d 0637 a4bd 6985 d63b a049 093d
00000180: 701d abbd f9e4 343d f261 a7ba 13f8 36bc

layer3.weight f4 [50, 100]
0.11618036 -0.007864087 -0.07482119 0.094856866 0.012599648 0.041682485 0.06908236 -0.035817407
0.029862741 0.003617565 -0.0063499296 -0.00070157077 0.11421526 0.045379806 0.03902465 -0.033218052
-0.007695507 0.011734847 -0.03611863 -3.137451e-39 0.074290805 -0.059800856 0.056882 0.06530784
-4.4764514e-30 0.06437576 0.10164661 -0.11484841 0.006899154 0.000962896 -0.1196382 -0.038276456
0.020874452 -0.008301497 -5.47157e-40 -0.06328695 -0.041739605 0.018769575 0.020834088 0.018256769
-0.01348244 -0.08091302 -0.05929398 0.078994505 -0.014258099 0.008572848 0.11126543 -0.0040750853
-0.029873172 -0.07161002 0.022684585 0.010809357 0.0045337575 -0.08825401 0.10296704 0.025651129
-0.04844185 1.02508e-40 -0.048843347 -0.03127226 0.053449605 1.241784e-30 -0.050630976 -0.06833156
-5.385325e-39 -9.48253e-40 -0.082499854 -0.010585873 0.039790962 5.727572e-38 5.9155e-40 0.021765295
-0.051795155 -0.045527484 -0.024020614 -0.08556623 1.061e-42 -0.022801824 0.050876807 0.010603541
-0.008804245 -0.09244864 0.029366909 0.013219791 -0.054907713 0.0064452067 0.01505446 0.108750746
-7.88153e-39 0.0070384894 0.08228319 -0.00501998 0.107723065 -0.0029200227 0.013380344 -0.022557218
0.030189648 -0.04667598 0.07523375 -0.04685211 0.09261387 -0.012890997 0.11709672 0.088056386
0.013112017 0.105028816 0.0013320087 -0.0034588221 0.05284259 -0.039336868 -0.0022105428 0.016491236
0.030673899 -0.002710704 -0.115239665 0.02917274 0.027684024 -0.01910764 -0.10946936 -1.641133e-39
0.036475655 -0.012583102 0.042546578 0.09664754 -2.8983164e-30 -0.0342076 -0.054638457 0.0012973701
-0.027856007 0.10879505 -0.1232 0.056746945 0.006397927 0.056459803 -2.91874e-40 0.008849861
-0.068085924 0.056110874 -0.039862067 -0.0019977835 -0.012368054 0.08814606 0.06705928 0.07050481
-0.015187445 -0.04704635 -0.04525424 0.07199084 0.005384563 0.08285398 0.019049248 -0.040053938
-0.09293889 0.001669498 0.07219679 -0.014496095 -0.053839564 -2.27986e-40 -0.025404563 -0.08450895
0.08697554 1.1943877e-30 0.009646724 -0.11334847 -3.279778e-39 -1.99253e-40 0.062486403 -0.07042353
0.029658994 3.6950626e-38 5.83209e-40 0.019994209 -0.010734675 -0.0057217274 -0.024951791 -0.11323023
1.97596e-40 -0.074538514 0.05606602 0.08895 0.021000499 -0.08273537 0.05819549 0.0085454555
0.08151498 0.006890574 0.013204728 0.09200166 -5.038811e-39 0.055073034 0.103008546 -0.007495336
0.08818524 0.09199103 0.012421879 0.103116125 -0.08777763 0.029576013 -0.015686344 0.11119084
0.0032395027 -0.00955232 0.046955258 0.059728615 0.013611757 0.047567416 -0.0019138646 -0.09561307
-0.028790265 0.039787706 0.1045338 0.10479614 -0.020075332 0.028503144 -0.058021575 0.056606263
0.043359287 0.11300208 0.012457218 -3.025785e-39 0.065152325 -0.04858748 -0.06666483 0.104072176
-4.7526324e-30 0.0024027033 0.0798117 0.021063954 0.010100432 -0.058461748 -0.092372045 -0.031875525
0.014834562 -0.02715753 -5.72369e-40 -0.09545029 -0.049886234 0.011911215 0.010511934 -0.027070181
-0.012768816 0.05957714 -0.063565515 -0.02574326 -0.05210265 -0.023672143 0.07291871 0.021065785
0.09853376 0.08517568 0.022309987 0.046838548 -0.083035186 -0.079338364 -0.044449408 0.08005401
00000000: f8ef ed3d 5fd8 00bc da3b 99bd 5144 c23d
00000010: c16e 4e3c 41bb 2a3d 0d7b 8d3d 46b5 12bd
00000020: b5a2 f43c ab14 6d3b 1213 d0bb 9ee9 37ba
00000030: b1e9 e93d 2de0 393d 50d8 1f3d a70f 08bd
00000040: 972a fcbb 8443 403c 21f1 13bd f029 2280
00000050: c725 983d bef1 74bd 1afd 683d 1ec0 853d
00000060: 2196 b58e 70d7 833d 192c d03d a535 ebbd
00000070: 4c12 e23b db6a 7c3a df04 f5bd c6c7 1cbd
00000080: e600 ab3c 0103 08bc 40f5 0580 979c 81bd
00000090: 26f7 2abd a7c2 993c 40ac aa3c 388f 953c
000000a0: 74e5 5cbc bab5 a5bd 3fde 72bd dfc7 a13d
000000b0: cd9a 69bc 2175 0c3c 21df e33d 4b88 85bb
000000c0: 95b8 f4bc 46a8 92bd 06d5 b93c bb19 313c
000000d0: ea8f 943b 85be b4bd 62e0 d23d 5122 d23c
000000e0: f66a 46bd c01d 0100 f60f 48bd 5717 00bd
000000f0: f9ed 5a3d b07d c90d 6d62 4fbd 6bf1 8bbd
00000100: 18a4 3a80 5853 0a80 aff5 a8bd 5f70 2dbc
00000110: d9fb 223d 5aeb 9b01 0071 0600 224d b23c
00000120: 2827 54bd 077b 3abd e1c6 c4bc 593d afbd
00000130: f502 0000 e4ca babc 3364 503d 79ba 2d3c
00000140: ae3f 10bc b655 bdbd df92 f03c d397 583c
00000150: e9e6 60bd 5032 d33b fba6 763c b6b8 de3d
00000160: 80d2 5580 21a3 e63b 1784 a83d a57e a4bb
00000170: e99d dc3d da5d 3fbb 3b39 5b3c eac9 b8bc
00000180: 4850 f73c 502f 3fbd 2714 9a3d 00e8 3fbd
00000190: 57ac bd3d c334 53bc 68d0 ef3d e856 b43d
000001a0: c9d3 563c 5919 d73d cc96 ae3a 68ad 62bb
000001b0: 7971 583d b21f 21bd c1de 10bb a118 873c
000001c0: d447 fb3c 11a6 31bb c602 ecbd acfb ee3c
000001d0: 9bc9 e23c a087 9cbc 7931 e0bd d0de 1180
000001e0: 7f67 153d 5b29 4ebc 5245 2e3d 25ef c53d
000001f0: ad23 6b8e 451d 0cbd 93cc 5fbd 840c aa3a
00000200: 4832 e4bc f0cf de3d 4850 fcbd 7c6f 683d
00000210: b4a5 d13b 6542 673d a02d 0380 02ff 103c
00000220: a270 8bbd 84d4 653d 6846 23bd 3fed 02bb
00000230: 61a3 4abc ec85 b43d 6056 893d d364 903d
00000240: c3d4 78bc acb3 40bd 835c 39bd ef6f 933d
00000250: fd70 b03b 59af a93d 2b0d 9c3c 990f 24bd
00000260: bf56 bebd 0fd3 da3a e9db 933d 0781 6dbc
00000270: e086 5cbd 887b 0280 3b1d d0bc 0713 adbd
00000280: 3b20 b23d edcc c10d 4b0d 1e3c 3e23 e8bd
00000290: b0b6 2380 702b 0280 bef1 7f3d 363a 90bd
000002a0: 6bf7 f23c a82d 4901 c059 0600 e5ca a33c
000002b0: 7ee0 2fbc 547d bbbb b367 ccbc 40e5 e7bd
000002c0: d126 0200 a6a7 98bd 7ca5 653d 6b2b b63d
000002d0: 3d09 ac3c 2971 a9bd 655e 6e3d 3d02 0c3c
000002e0: 53f1 a63d 53ca e13b a558 583c 5e6b bc3d
000002f0: 28de 3680 4394 613d 25f6 d23d 6f9b f5bb
00000300: 779a b43d cb65 bc3d 2385 4b3c 8c2e d33d
00000310: c2c4 b3bd 6549 f23c a680 80bc 06b8 e33d
00000320: d64d 543b 5681 1cbc 2854 403d fea5 743d
00000330: d903 5f3c 0dd6 423d a4da faba c9d0 c3bd
00000340: 90d9 ebbc 6ff8 223d d115 d63d 5c9f d63d
00000350: 0675 a4bc 6d7f e93c 08a8 6dbd f8db 673d
00000360: 8299 313d a26d e73d 5c19 4c3c a8f2 2080
00000370: 956e 853d aa03 47bd 9287 88bd cb23 d53d
00000380: 28ca c08e ac76 1d3b 5174 a33d 508e ac3c
00000390: 487c 253c 9675 6fbd 8e2d bdbd e98f 02bd
000003a0: aa0c 733c 7879 debc 883b 0680 717b c3bd
000003b0: 8255 4cbd 4227 433c 3f3a 2c3c 49c2 ddbc
000003c0: 4c34 51bc 2907 743d a32e 82bd 87e3 d2bc
000003d0: 9769 55bd 15ec c1bc 6856 953d 2792 ac3c
000003e0: 11cc c93d 9670 ae3d 6fc3 b63c c7d9 3f3d
000003f0: 5a0e aabd 277c a2bd 9510 36bd 5bf3 a33d

layer3.bias f4 [50]
-0.055582978 0.079513825 0.022298189 0.07526284 0.0018461186 0.066187695 -2.27436e-40 0.024865082
-0.087852366 0.039632432 0.07910111 -0.10106851 0.11324138 -3.9495017e-37 -0.06684468 -0.0022856141
-0.07819081 -0.018273516 -7.802161e-39 -8.80531e-40 -8.572416e-34 -2.4709072e-36 -8.65949e-35 0.037489098
-2.2698357e-35 0.08426169 -1.9334895e-35 -1.8892964e-31 0.063999675 0.0059709223 -1.004348e-39 0.021085918
0.023229262 -0.07374227 -0.016800256 -0.00022017887 -0.010492034 -0.007089989 -3.285552e-39 0.114763565
-0.0020260725 -0.06578109 -0.08843987 -3.0375889e-37 -0.0071013547 0.03747736 -6.921168e-38 0.057468563
-9.307944e-39 0.08935312
00000000: faaa 63bd 25d8 a23d b1aa b63c 6723 9a3d
00000010: 76f9 f13a 6a8d 873d 007a 0280 dbb1 cb3c
00000020: f1eb b3bd 9e55 223d c3ff a13d 02fd cebd
00000030: 19eb e73d 0365 0683 dde5 88bd 3eca 15bb
00000040: 8122 a0bd 57b2 95bc 40f5 5480 9096 0980
00000050: 066f 8e88 9833 5284 6f35 e686 2b8e 193d
00000060: ce5e f185 6591 ac3d 979a cd85 a43e 758c
00000070: 4312 833d baa7 c33b b7ef 0a80 60bc ac3c
00000080: 4b4b be3c 3006 97bd b1a0 89bc d1df 66b9
00000090: c8e6 2bbc 2353 e8bb c8c6 2380 2909 eb3d
000000a0: dbc7 04bb 3cb8 86bd f61f b5bd 43ba ce82
000000b0: 7bb2 e8bb dc81 193d 8069 bc81 2864 6b3d
000000c0: c35a 6580 c5fe b63d

layer4.weight f4 [25, 50]
0.038485404 -0.056106187 -0.070707075 -0.072337516 0.005311838 0.014010647 -3.91063e-40 -0.12127572
0.0031213602 -0.111879356 0.1524165 0.059688773 0.019239321 4.3352e-41 0.0868125 0.11162898
0.10822293 0.017497223 -1.18696e-40 2.5364946e-37 2.67659e-40 -3.3202045e-37 -5.6867e-40 -0.008569941
1.25074e-40 -0.11249046 -2.28367e-40 2.81549e-40 -0.10304864 -0.0032758762 5.5108e-40 -0.028733617
-0.023255011 -0.016602015 -0.14911851 0.00014018263 0.066489935 0.089912795 -5.61629e-40 -0.022515284
-0.012133394 -0.08850368 0.086323634 -4.89176e-40 -0.049850747 0.1217562 -5.7171935e-38 0.109807536
1.47955e-40 0.020050561 -7.702414e-05 0.044264093 0.15802972 -0.07768711 -0.041009814 -0.00449184
1.2893e-40 -0.0879454 0.0787028 -0.0920481 0.07606233 0.019812983 -0.13853098 -1.4733891e-37
0.0055364124 0.07240146 0.123000994 -0.12347963 6.729349e-39 -8.5536996e-38 3.2346644e-33 -5.42143e-37
7.6661913e-35 0.007855366 -1.6703099e-34 0.047882676 -2.5839343e-35 -2.5711137e-31 -0.08409176 0.0073556695
7.0099e-41 0.006366317 0.16152602 0.017757284 0.11147771 0.00012875286 -0.05546517 -0.13598098
2.57973e-40 -0.09996381 0.012851774 0.05523376 0.0088998005 -4.146464e-37 0.07828801 0.13576764
2.819824e-38 0.08876642 -1.1174544e-38 0.07701637 -9.415493e-39 -3.6534362e-38 -1.9669096e-38 -4.60994e-40
-3.53721e-40 -6.43207e-40 -5.76512e-40 -6.651807e-39 4.01e-41 -1.451743e-38 2.26102e-40 -2.2118925e-38
-2.034102e-39 2.35582e-40 -1.077655e-39 -1.6424238e-38 -1.8752871e-38 -1.7423129e-38 4.1524e-40 -4.60597e-40
-8.4865e-41 -2.89653e-40 -2.10219e-40 4.5188e-40 7.6631e-41 -2.1308245e-38 5.20215e-40 -3.86072e-40
-4.3984e-40 -5.6052e-40 -2.16146e-40 -1.386658e-39 -5.81864e-40 5.998e-42 -2.1348502e-38 -6.34158e-40
-1.5131938e-38 -3.10505e-40 4.38276e-40 -1.924319e-39 6.07334e-40 -2.3427659e-38 -1.9519067e-38 -6.00135e-40
-3.2353538e-38 -3.6535035e-38 -4.90234e-40 -2.3054902e-38 4.53207e-40 -1.4791221e-38 0.11136614 0.031720605
-0.009181053 0.014201841 -0.009176173 -0.014878349 6.27871e-40 0.046256434 0.029456245 0.14801262
-0.090352505 0.11640347 -0.13346839 -5.503962e-37 -0.07775297 0.012051799 0.007297899 0.1073984
2.529975e-38 -3.5944608e-37 1.2069987e-32 -2.2774398e-36 1.5969082e-34 0.014307073 -6.2560213e-34 0.015635539
-9.654787e-35 -9.603833e-31 -0.020347774 0.0070151645 5.6951e-40 -0.045617864 0.008758422 -0.02018789
-0.0602424 -0.001020578 -0.009653766 -0.13636962 -6.27445e-40 -0.12581912 0.025347983 0.141165
-0.05398234 -1.5495665e-36 0.1460224 0.118159235 1.052113e-37 0.12891307 -4.178323e-38 -0.029083295
-0.0372819 -0.105300926 -0.06661539 0.045932796 0.006939758 -0.0071899453 2.2469e-40 -0.008541595
0.06923313 0.10225015 -0.078935325 -0.12268186 0.12879778 2.4468328e-37 -0.04197774 0.04823416
-0.031670135 0.045333296 -1.1260588e-38 5.22841e-40 -5.3675258e-33 -2.27773e-40 -8.996341e-35 -0.01777141
-1.648499e-36 0.06913825 4.3035586e-35 4.281883e-31 -0.10267873 0.01365891 -5.9112e-41 0.1289502
-0.13625963 -0.0057821395 0.089395694 5.615185e-36 -0.14772783 -0.003846973 6.3305e-41 0.16752088
-0.010054436 -0.10521868 0.08581251 6.906045e-37 0.089843415 -0.039547864 -4.6804736e-38 0.11753402
1.8616708e-38 0.04303452 0.11503691 0.10217899 -0.032024905 -0.07261122 -0.0060233385 0.03744093
00000000: dfa2 1d3d 9acf 65bd dfce 90bd b125 94bd
00000010: ed0e ae3b ea8c 653c 2042 0480 685f f8bd
00000020: bc8f 4c3b 0121 e5bd 1213 1c3e 377c 743d
00000030: c89b 9d3c d978 0000 c1ca b13d bc9d e43d
00000040: fca3 dd3d 5656 8f3c e04a 0180 f89f ac02
00000050: 20ea 0200 1ff6 e182 3831 0680 f068 0cbc
00000060: a85c 0100 6661 e6bd 987c 0280 d810 0300
00000070: 2a0b d3bd 15b0 56bb 3000 0600 c362 ebbc
00000080: 4b81 bebc f300 88bc 86b2 18be fdfd 1239
00000090: e02b 883d 3324 b83d 981d 0680 f971 b8bc
000000a0: 25cb 46bc 6b41 b5bd 72ca b03d a053 0580
000000b0: 4c30 4cbd 515b f93d 06a3 9b81 c6e2 e03d
000000c0: 709c 0100 1341 a43c 0588 a1b8 444e 353d
000000d0: 8bd2 213e 6b1a 9fbd e8f9 27bd 4930 93bb
000000e0: 6867 0100 b81c b4bd ef2e a13d b783 bcbd
000000f0: 91c6 9b3d d64e a23c 11db 0dbe 1e8c 4882
00000100: cb6a b53b 3747 943d f2e7 fb3d e3e2 fcbd
00000110: b046 4900 96da e881 da5c 8609 517b 3883
00000120: 65cd cb06 cbb3 003c b305 5e87 a020 443d
00000130: b162 0986 f4df a68c 4d38 acbd d407 f13b
00000140: 68c3 0000 8a9c d03b 1467 253e b977 913c
00000150: 6d4e e43d d501 0739 722f 63bd 993e 0bbe
00000160: 20cf 0200 d3b9 ccbd 3f90 523c cc3c 623d
00000170: 78d0 113c cc18 0d83 7755 a03d ac06 0b3e
00000180: 9c86 1901 2bcb b53d 15ae 7980 c2ba 9d3d
00000190: 9086 6680 78e9 4681 702d d680 1005 0580
000001a0: 08da 0380 0001 0780 1547 0680 886e 4880
000001b0: c86f 0000 b014 9e80 4876 0200 90da f080
000001c0: 4026 1680 b590 0200 10bc 0b80 18d8 b280
000001d0: 6033 cc80 98b8 bd80 8585 0400 f503 0580
000001e0: 92ec 0080 6f27 0380 014a 0280 a8eb 0400
000001f0: 9ed5 0000 b806 e880 26aa 0500 3634 0480
00000200: 18ca 0480 801a 0680 875a 0280 7019 0f80
00000210: 0056 0680 b810 0000 f076 e880 c6e7 0680
00000220: b0c5 a480 9061 0380 bcc5 0400 38f4 1480
00000230: 009d 0600 c81a ff80 388b d480 ef88 0680
00000240: 4026 3081 68ea 4681 9356 0580 b00b fb80
00000250: 5bef 0400 e80f a180 ee13 e43d 77ed 013d
00000260: 216c 16bc d7ae 683c a957 16bc 52c4 73bc
00000270: 40d6 0600 6377 3d3d 394e f13c 9f90 173e
00000280: bc0a b9bd f164 ee3d f0ab 08be 454a 3b83
00000290: f33c 9fbd e974 453c 3723 ef3b b1f3 db3d
000002a0: b4be 0901 57a0 f482 0faf 7a0a 3fbe 4184
000002b0: f843 5407 3768 6a3c 58e4 4f88 1a16 803c
000002c0: 8a55 0087 c3d4 9b8d 60b0 a6bc 77df e53b
000002d0: 9033 0600 ccd9 3abd 7c7f 0f3c 1361 a5bc
000002e0: bcc0 76bd eac4 85ba d42a 1ebc 7aa4 0bbe
000002f0: 10d5 0680 bad6 00be 93a6 cf3c 8f8d 103e
00000300: 961c 5dbd 92d2 0384 e586 153e 78fd f13d
00000310: ca34 0f02 ca01 043e 537d 6381 1740 eebc
00000320: e8b4 18bd 03a8 d7bd a66d 88bd 0724 3c3d
00000330: e966 e33b a299 ebbb 5872 0200 0cf2 0bbc
00000340: 19ca 8d3d 8768 d13d d8a8 a1bd a140 fbbd
00000350: 91e3 033e d785 a602 daf0 2bbd 2f91 453d
00000360: 8bb8 01bd 68af 393d f09d 7a80 78b1 0500
00000370: 53f5 de89 f07a 0280 ed29 ef86 5995 91bc
00000380: 213d 0c84 5b98 8d3d 01d1 6406 7ef4 0a0d
00000390: 3a49 d2bd 9fc9 5f3c c8a4 0080 850b 043e
000003a0: a587 0bbe 1a78 bdbb 1715 b73d f3d7 ee04
000003b0: f745 17be 7f1d 7cbb 78b0 0000 988a 2b3e
000003c0: 5cbb 24bc e47c d7bd 78be af3d 2300 6b03
000003d0: d3ff b73d f1fc 21bd 48d4 7e81 adb5 f03d
000003e0: cfb7 ca00 f744 303d 7998 eb3d 3843 d13d
000003f0: 8c2c 03bd 31b5 94bd 6d5f c5bb a95b 193d

layer4.bias f4 [25]
-0.04454235 -0.0040104548 -3.712768e-39 0.061052237 0.0011933424 0.09209797 -1.5154827e-34 -1.0068935e-05
-0.075750835 -0.10899286 -0.03856671 -0.057309102 -4.3777e-41 0.0015548723 -1.4881485e-32 -0.021426339
0.10354893 -0.013768617 -0.0066418867 -1.1686527e-38 0.1185281 3.011093e-25 -5.2759467e-29 0.09954299
0.118475445
00000000: 0a72 36bd 226a 83bb b06d 2880 e911 7a3d
00000010: ed69 9c3a dc9d bc3d 3471 4987 bfed 28b7
00000020: 4123 9bbd a637 dfbd 20f8 1dbd f3bc 6abd
00000030: 087a 0080 dbcc cb3a c689 9a8a 4a86 afbc
00000040: 7611 d43d c495 61bc 2fa4 d9bb 4841 7f80
00000050: dcbe f23d ac60 ba16 dac2 8590 32dd cb3d
00000060: 41a3 f23d

layer5.weight f4 [10, 25]
8.16e-43 0.14952227 6.09834e-40 0.15315755 0.08361638 -0.046743315 -2.5813e-35 2.69164e-40
-0.13376784 -0.004138408 -0.07855752 -0.02937743 2.66067e-40 -0.04167159 -6.00821e-40 -0.08307335
-0.1613249 0.13061494 -9.938661e-05 5.31832e-40 -0.13252039 -2.12489e-40 4.48501e-40 -0.13843744
-0.088385545 -0.15911978 0.046611644 7.3706e-40 0.21557741 -0.046574716 0.020224895 2.074398e-34
-0.00010516143 0.1481721 0.022068724 -0.18163985 0.19830117 -2.86179e-40 -0.09551582 -6.425574e-31
0.19117786 -0.12710382 0.07192263 -0.001375422 -1.9196243e-36 -0.08703639 2.7853262e-18 9.97721e-29
0.011100481 -0.06323229 0.0056210086 -0.03578822 -1.19237e-39 -0.10026273 0.1336341 0.10093766
-2.6835404e-34 -0.00010779638 -0.0427074 -0.05472675 0.1401212 0.12211066 2.57121e-40 0.16671549
8.305779e-31 -0.053155236 -0.13744417 -0.046020478 -0.0017138959 2.4802045e-36 0.0028080358 1.0857134e-16
-1.2890384e-28 -0.13371527 0.1884765 -0.1345945 0.05374455 5.03627e-40 0.20221575 -0.012277782
0.2133581 1.7581061e-34 -9.9392026e-05 0.005575271 -0.10335526 -0.014723233 -0.006735548 -3.0638e-40
0.15059035 -5.4460037e-31 0.12535015 0.15082112 0.077594884 -0.0013708139 -1.6269187e-36 0.17049003
1.2075263e-19 8.4567205e-29 0.15663591 0.18222238 -8.8753e-41 -3.84916e-40 4.38882e-40 -4.48414e-40
4.93347e-40 -2.12084e-40 -7.2383e-41 2.15883e-40 -3.2833e-40 1.03054e-40 2.09205e-40 -2.19448e-40
-6.28473e-40 3.13936e-40 5.84639e-40 -3.38569e-40 1.24269e-40 -4.87449e-40 -6.39037e-40 3.89501e-40
-4.30399e-40 -1.23471e-40 2.3314e-40 -1.37341e-40 -3.73707e-40 3.47678e-40 -9.72994e-40 2.37733e-40
-1.242627e-39 4.49906e-40 -4.98739e-40 -1.7268e-40 -1.01048e-40 -7.56578e-40 1.42944e-40 2.50317e-40
-4.6253e-40 3.68425e-40 2.6894e-41 6.33299e-40 -8.29255e-40 -1.52753e-40 -1.36774e-39 3.32646e-40
-3.46062e-40 -1.12994e-39 -1.51684e-40 5.4797e-40 -4.15648e-40 -9.81576e-40 5.16163e-40 -0.01184458
5.37451e-40 -0.030247878 -0.0003226788 -0.011939425 7.729847e-37 5.82884e-40 -0.0011672394 -1.44213e-40
-0.0090358015 0.022611938 4.54803e-40 -0.0072992644 -9.002e-42 0.008024703 0.0012755446 -0.0038324562
1.5162942e-05 5.31294e-40 -0.007342807 -5.75787e-40 -1.63642e-40 -0.020219859 0.025629282 1.6110704e-16
-0.09194912 -3.66725e-40 0.03594344 0.014517428 0.14595808 -2.274054e-34 2.73704e-40 -0.105168745
0.05476106 -0.13065019 0.12729403 -7.372e-41 0.14778481 -4.9931e-40 -0.088896275 -0.19667728
-0.10680251 5.0682538e-05 2.96808e-40 -0.0020935852 6.42931e-40 -5.9903e-41 -0.120209746 0.056427147
-5.25009e-40 -0.022637341 -2.43851e-40 0.011724674 0.0019789825 0.0002185802 3.624897e-36 -5.89128e-40
-0.002097932 -1.79337e-40 0.008318941 -0.002817009 5.81662e-40 -0.000698715 -2.26753e-40 0.02656434
0.0062568425 -0.0142477425 6.838916e-05 -6.25488e-40 -0.021212662 6.1455e-40 -4.73803e-40 -0.02225509
-0.0038018555 2.73903e-40 -3.27904e-40 3.88664e-40 -4.05962e-40 -3.7168e-40 -1.65992e-40 -2.62996e-40
-1.19144e-40 -2.56393e-40 -3.83832e-40 -8.2677e-41 -1.4059e-40 -4.08871e-40 3.40616e-40 5.79274e-40
-2.74217e-40 1.71127e-40 -4.37306e-40 1.04234e-40 -1.44767e-40 -3.62499e-40 -1.38e-40 -2.08414e-40
-7.484e-41 -3.26839e-40
00000000: 4602 0000 5e1c 193e f8a3 0600 55d5 1c3e
00000010: 113f ab3d eb75 3fbd d63e 0986 52ee 0200
00000020: 70fa 08be 7c9b 87bb c4e2 a0bd f0a8 f0bc
00000030: b0e5 0200 d4af 2abd d88a 0680 5c22 aabd
00000040: 5b32 25be ecbf 053e c86d d0b8 88ca 0500
00000050: 6db3 07be 5550 0280 3de2 0400 8bc2 0dbe
00000060: 7b03 b5bd 4cf0 22be daeb 3e3d a006 0800
00000070: 53c0 5c3e 21c5 3ebd aeae a53c 0ede 8907
00000080: 1d8a dcb8 6dba 173e 78c9 b43c ccff 39be
00000090: 760f 4b3e c01d 0380 cc9d c3bd 9585 508d
000000a0: 21c4 433e 8127 02be 2c4c 933d 8147 b4ba
000000b0: b74d 2384 2340 b2bd 5385 4d22 ccf3 fc10
000000c0: cbde 353c ee7f 81bd 7030 b83b ab96 12bd
000000d0: d8fb 0c80 8c56 cdbd 61d7 083e 67b8 ce3d
000000e0: 135a b287 be10 e2b8 f4ed 2ebd 2829 60bd
000000f0: ef7b 0f3e 2715 fa3d c0cc 0200 77b7 2a3e
00000100: dbc4 860d 4eb9 59bd 2abe 0cbe f87f 3cbd
00000110: cea4 e0ba 12fe 5204 0607 383b 3559 fa24
00000120: b067 2391 a8ec 08be fcff 403e 24d3 09be
00000130: 3f23 5c3d e87b 0500 a511 4f3e c028 49bc
00000140: 8c7a 5a3e 40b1 6907 b070 d0b8 c3b0 b63b
00000150: ecab d3bd b739 71bc dfb5 dcbb 1056 0380
00000160: 5b34 1a3e a1bb 308d ca5b 003e da70 1a3e
00000170: 11ea 9e3d e2ac b3ba 2767 0a84 f094 2e3e
00000180: 3e8f 0e20 4167 d610 2a65 203e 8198 3a3e
00000190: 68f7 0080 fd30 0480 6dc7 0400 ffe1 0480
000001a0: 405f 0500 344f 0280 c6c9 0080 cb59 0200
000001b0: 4093 0380 461f 0100 2e47 0200 bb63 0280
000001c0: edd7 0680 206b 0300 bc5d 0600 cbaf 0380
000001d0: 695a 0100 cf4e 0580 60f5 0680 c53d 0400
000001e0: c7af 0480 3058 0180 e689 0200 da7e 0180
000001f0: be11 0480 2fc9 0300 5098 0a80 b496 0200
00000200: f087 0d80 28e6 0400 486e 0580 5de1 0180
00000210: ae19 0180 083d 0880 788e 0100 c8b9 0200
00000220: 5809 0580 0503 0400 f84a 0000 61e5 0600
00000230: a007 0980 d0a9 0180 b4e4 0e80 489f 0300
00000240: aec4 0380 d04d 0c80 d5a6 0180 84f7 0500
00000250: a886 0480 3cb0 0a80 da9e 0500 c50f 42bc
00000260: 32da 0500 66ca f7bc 372d a9b9 949d 43bc
00000270: 3b84 8303 d858 0600 0efe 98ba 0292 0180
00000280: e60a 14bc ac3c b93c cef3 0400 ab2e efbb
00000290: 1819 0080 0b7a 033c 2d30 a73a f229 7bbb
000002a0: 5764 7e37 08c9 0500 ee9b f0bb 0f45 0680
000002b0: 2bc8 0180 1ea4 a5bc 80f4 d13c 68be 3925
000002c0: d24f bcbd 48fe 0380 6e39 133d 82da 6d3c
000002d0: 0976 153e 0623 9787 fafa 0200 b662 d7bd
000002e0: 224d 603d 2ac9 05be 5e59 023e 80cd 0080
000002f0: e754 173e e06f 0580 400f b6bd c565 49be
00000300: 46bb dabd f693 5438 613b 0300 8834 09bb
00000310: 3b00 0700 fca6 0080 8730 f6bd 2720 673d
00000320: 83b7 0580 f271 b9bc c2a7 0280 d918 403c
00000330: d1b1 013b ad32 6539 a22f 9a04 406a 0680
00000340: 757d 09bb ebf3 0180 2b4c 083c 929d 38bb
00000350: 7055 0600 f829 37ba 1878 0280 759d d93c
00000360: 3306 cd3b 5d6f 69bc 276c 8f38 9bcf 0680
00000370: 2dc6 adbc 1eb1 0600 c528 0580 4e50 b6bc
00000380: 8d28 79bb 88fb 0200 1092 0380 703b 0400
00000390: a86b 0480 180c 0480 b8ce 0180 20dd 0280
000003a0: 204c 0180 b8ca 0280 f82d 0480 78e6 0080
000003b0: e887 0180 c473 0480 80b5 0300 c84e 0600
000003c0: 68fc 0280 08dd 0100 08c3 0480 9022 0100
000003d0: 8d93 0180 80f2 0380 b080 0180 f944 0280
000003e0: a0d0 0080 188f 0380

layer5.bias f4 [10]
0.15602534 -0.01565603 0.20300302 -0.019383484 6.43371e-40 -6.28e-41 0.015685426 0.15037426
0.0278661 2.03323e-40
00000000: 1bc5 1f3e 1341 80bc 06e0 4f3e 1dca 9ebc
00000010: 7501 0700 10af 0080 b97e 803c b6fb 193e
00000020: 7347 e43c c836 0200

layer6.weight f4 [1, 10]
-0.030728646 0.24650772 -0.31861675 0.20893505 5.92606e-40 6.40539e-40 0.0009278255 -0.27012923
0.0043536024 1.00198e-40
00000000: a4ba fbbc 856c 7c3e bc21 a3be 12f3 553e
00000010: f273 0600 90f9 0600 5139 733a 614e 8abe
00000020: aaa8 8e3b 5017 0100
