weights/_norm_eth_mlp.pth (torch_old, 164819 bytes, 11 tensors)

layer1.weight f4 [130, 161]
0.018142879 0.022246107 0.042042732 -0.024326468 -0.063140176 0.041578002 0.007908369 -0.017953902
-0.015867297 0.07849043 0.028514465 0.044598114 -0.011711057 0.002541238 0.0016726622 0.020600714
0.06619592 -0.022683483 0.05858222 -0.04022958 0.02372732 0.049844775 -0.04794609 -0.021544902
0.028948655 0.06122779 0.01490839 0.06302567 0.07743786 -0.03576681 -0.012862013 0.03521673
0.05686662 -0.040532373 -0.018846823 -0.021149032 0.044470664 0.0076170135 0.03881689 0.06326722
0.03376286 -0.015538097 -0.06460446 0.07520722 0.019447764 -0.07844533 -0.05470784 0.01219617
0.041938502 0.055366307 -0.0034131212 0.07757321 0.00021612116 0.055412702 -0.0008316426 0.0062640943
0.0059996704 0.076442756 -0.08313627 -0.075812705 0.050240837 -0.07536736 0.0767728 0.039959136
-0.04224017 -0.048029013 0.036456715 -0.033490725 0.075327024 0.061028685 -0.0058630607 -0.04328927
0.034638718 -0.0061861863 0.07322734 -0.07727345 0.0008771122 -0.05695999 -0.044981014 0.022925785
0.036250506 -0.011666687 -0.0005794379 -0.0436047 -0.010823838 0.0470633 -0.021886647 -0.016432147
-0.05765469 0.03325286 -0.0637076 -0.008298916 0.06001926 0.06022814 -0.044111878 0.030515512
-0.057524167 -0.06147314 -0.058872726 -0.004471674 0.02752998 -0.049334027 0.023575328 -0.060066942
0.048802905 -0.029172469 -0.005803409 0.020521993 0.06058926 -0.029248757 -0.06391556 0.036748607
-0.016017547 -0.0014989651 -0.033800185 -0.0060945065 -0.04829297 -0.056452528 -0.0046763206 -0.0010237755
0.026960075 0.0056740684 0.027268188 0.07623948 -0.05286152 -0.043151844 -0.043045204 -0.06873087
0.025582964 -0.020519631 0.024085755 0.01941148 0.028562386 -0.051589366 -0.08424595 0.003769748
-0.044357527 -0.018445374 0.033254113 0.0072774305 -0.066111505 0.032610193 0.06703554 -0.08074412
-0.0057431525 -0.031677403 0.075405546 0.035552364 0.071121216 0.06104058 -0.060358703 -0.015543496
-0.0034667153 0.039337464 0.08092309 -0.028544575 -0.02935324 -0.077095635 0.052724496 0.028348263
-0.01048879 -0.021026157 0.0077743577 0.0020443383 -0.029768651 0.0020050446 0.040432055 -0.0022193028
-0.016096557 0.065870576 0.004320635 -0.040022343 -0.033870503 -0.012380048 -0.014104942 -0.035525225
-0.03888359 0.049637135 0.0224932 0.03380406 -0.0034107333 -0.039219238 0.043346595 0.038617555
0.04366265 -0.021150861 0.013739925 -0.024842387 -0.0036461006 -0.037954304 0.00078200176 -0.013845767
0.07505968 -0.020396193 0.0019132843 0.029818162 -0.0028316749 -0.008360454 -0.022032673 -0.037768994
-0.007394617 0.0021390293 0.024686674 -0.02406555 -0.040435042 -0.004409938 0.0152143 0.029187119
-0.0028088507 0.031131327 -0.029486552 0.0033280675 -0.028494172 -0.032354753 0.013216009 -0.0067228903
-0.023146989 0.01400062 -0.03448431 -0.00531136 0.015294469 -0.0018044976 -0.018778458 -0.0059692906
0.018320287 0.0027292124 -0.027096022 -0.04087103 -0.0050019687 -0.03831898 0.013909708 -0.008923424
0.0007523138 0.007359989 0.0157513 0.03851869 -0.01102527 -0.008854882 0.00867962 -0.04172567
0.02139284 -0.03563872 0.018736858 -0.021161651 0.025095493 0.014673672 0.02627238 0.027875878
0.015929176 -0.018660221 0.05289345 -0.016849903 0.03871073 0.021040313 0.0126252435 0.010917988
00000000: 60a0 943c 783d b63c 0035 2c3d 4d48 c7bc
00000010: a34f 81bd b24d 2a3d 1b92 013c 1014 93bc
00000020: 22fc 81bc 97bf a03d 2b97 e93c 83ac 363d
00000030: bcdf 3fbc e68a 263b 3b3d db3a d4c2 a83c
00000040: ba91 873d b6d2 b9bc e9f3 6f3d c6c7 24bd
00000050: cc5f c23c 092a 4c3d 1f63 44bd ef7e b0bc
00000060: bb25 ed3c fec9 7a3d 5242 743c 9a13 813d
00000070: be97 9e3d 3880 12bd 31bb 52bc 6b3f 103d
00000080: f9ec 683d 4605 26bd a764 9abc bc40 adbc
00000090: df26 363d 2498 f93b 76fe 1e3d 3f92 813d
000000a0: ed4a 0a3d 8193 7ebc 584f 84bd 3e06 9a3d
000000b0: eb50 9f3c f2a7 a0bd 5415 60bd 72d2 473c
000000c0: b5c7 2b3d c8c7 623d acae 5fbb b4de 9e3d
000000d0: 959e 6239 6ef8 623d 9702 5aba 0843 cd3b
000000e0: e298 c43b 058e 9c3d 5943 aabd b143 9bbd
000000f0: 56c9 4d3d 345a 9abd 0f3b 9d3d 31ac 233d
00000100: 0704 2dbd 12ba 44bd a353 153d 922d 09bd
00000110: 0e45 9a3d 37f9 793d eb1e c0bb 1750 31bd
00000120: 54e1 0d3d 7eb5 cabb 37f8 953d 8b41 9ebd
00000130: 01ee 653a e14e 69bd 033e 38bd dbce bb3c
00000140: 697b 143d a225 3fbc 6be5 17ba d89a 32bd
00000150: 7856 31bc 72c5 403d a04b b3bc b69c 86bc
00000160: 5327 6cbd 2734 083d 2179 82bd 2df8 07bc
00000170: c1d6 753d c8b1 763d a8ae 34bd abfb f93c
00000180: 769e 6bbd 42cb 7bbd 8724 71bd 1f87 92bb
00000190: 8d86 e13c 7a12 4abd 0c21 c13c c108 76bd
000001a0: 8ee5 473d 1afb eebc 862a bebb bd1d a83c
000001b0: 722c 783d 179b efbc 29e6 82bd b585 163d
000001c0: 3b37 83bc ec78 c4ba 1072 0abd 6db4 c7bb
000001d0: d9ce 45bd c43a 67bd d23b 99bb 3530 86ba
000001e0: 60db dc3c 89ed b93b 8961 df3c 7223 9c3d
000001f0: 5285 58bd fdbf 30bd 2b50 30bd c5c2 8cbd
00000200: 5d93 d13c c918 a8bc 7d4f c53c d304 9f3c
00000210: aafb e93c 5f4f 53bd 2489 acbd e00d 773b
00000220: 3db0 35bd c11a 97bc 7735 083d 8377 ee3b
00000230: 7865 87bd 4492 053d ee49 893d 2c5d a5bd
00000240: 0e31 bcbb 2ac0 01bd 396e 9a3d 5b9f 113d
00000250: 00a8 913d b005 7a3d b03a 77bd 26aa 7ebc
00000260: d531 63bb 5220 213d 01bb a53d 50d6 e9bc
00000270: 3576 f0bc 51e4 9dbd a4f5 573d 9e3a e83c
00000280: 2dd9 2bbc 0c3f acbc 0ac0 fe3b 4efa 053b
00000290: 63dd f3bc 1167 033b 159c 253d b971 11bb
000002a0: eddc 83bc 27e7 863d 1d94 8d3b 78ee 23bd
000002b0: ccbb 0abd afd5 4abc 6a18 67bc e682 11bd
000002c0: 6644 1fbd 4f50 4b3d a943 b83c 2076 0a3d
000002d0: 9c86 5fbb 5aa4 20bd 338c 313d 712d 1e3d
000002e0: 9bd7 323d 9244 adbc 6c1d 613c 4382 cbbc
000002f0: 6bf3 6ebb f975 1bbd 40ff 4c3a 5bd9 62bc
00000300: e4b8 993d eb15 a7bc 2bc7 fa3a 3845 f43c
00000310: 9f93 39bb 49fa 08bc dd7d b4bc a9b3 1abd
00000320: 8b4e f2bb f52e 0c3b b53b ca3c 1e25 c5bc
00000330: 379f 25bd 3e81 90bb 6645 793c d319 ef3c
00000340: b214 38bb 2007 ff3c c88d f1bc b51b 5a3b
00000350: 9c6c e9bc 6b86 04bd f687 583c b14b dcbb
00000360: c19e bdbc db62 653c 6b3f 0dbd eb0a aebb
00000370: a795 7a3c e484 ecba 48d5 99bc 0a9a c3bb
00000380: 6d14 963c 96dc 323b 7af8 ddbc 6268 27bd
00000390: 8ee7 a3bb 5df4 1cbd 8be5 633c 8e33 12bc
000003a0: ed36 453a 102c f13b df08 813c c6c5 1d3d
000003b0: 56a3 34bc 1114 11bc f734 0e3c 89e8 2abd
000003c0: 0a40 af3c e8f9 11bd 0a7e 993c 335b adbc
000003d0: 1095 cd3c d769 703c 2d39 d73c f45b e43c
000003e0: e77d 823c 52dd 98bc cda6 583d cf08 8abc
000003f0: 248f 1e3d bc5c ac3c 1cda 4e3c 5ce1 323c

layer1.bias f4 [130]
-0.03172774 -0.008119089 0.009107547 0.037964318 -0.04590877 0.012145614 0.027653925 0.021113845
0.0015112732 0.03201074 -0.019295314 0.035501 -0.0059264963 0.07316926 0.06256074 -0.057526328
-0.0012420663 -0.06973838 -0.013128344 0.02758428 0.061286736 0.05665139 0.068902045 -0.06922194
-0.053700514 -0.045831714 -0.020659149 -0.07456604 0.071137466 0.03758729 0.07678425 -0.057942703
-0.07563922 -0.007148849 0.040300887 0.058446355 0.06298473 0.05329673 0.07126423 -0.049139667
-0.04585381 0.07628312 0.0629391 0.01880778 -0.003393527 0.04073685 0.018558092 0.07795021
-0.057153746 -0.046933 -0.041111786 -0.050297394 -0.022663493 0.06479345 0.016904514 0.01379557
-0.06084911 0.032864004 0.031544033 -0.076481074 0.030560631 -0.021204676 0.035366725 0.03787752
-4.2086188e-34 0.0014477719 0.011811902 0.04811968 -0.06374522 0.045759574 -0.032296404 0.02033677
-0.058922533 -0.07406502 -0.045460675 -0.0049938643 -0.03768194 0.047386114 -0.007037523 -0.023000473
-0.0016926111 -0.07213441 0.06595654 0.047054116 0.06851576 -0.05149814 -0.007783145 -0.027791223
0.04438915 0.07361891 0.07247733 -0.046968903 -0.020505993 0.044498693 -0.0285184 -0.014243649
0.04091348 -0.048380993 -0.01385259 -0.06376528 0.027190058 0.03883701 -0.0371989 0.041372795
0.06555345 -0.02810228 -0.030603034 0.030564958 -0.021500882 -0.0042202855 -0.00029201244 0.027769241
-0.029017495 -0.07495981 0.010860261 0.028886277 -0.068091 0.038190495 0.0029115283 0.031027388
0.040477935 0.069650516 -0.043941185 -0.0077277552 -0.031563975 0.06864735 0.010178656 -0.017177211
-0.0757314 0.041800503
00000000: f2f4 01bd ed05 05bc d237 153c 7980 1b3d
00000010: d60a 3cbd 66fe 463c 7c8a e23c f1f6 ac3c
00000020: ea15 c63a b21d 033d 3511 9ebc 7f69 113d
00000030: 0e33 c2bb c4d9 953d d81f 803d baa0 6bbd
00000040: d4cc a2ba ffd2 8ebd 4418 57bc 6ef8 e13c
00000050: cd07 7b3d 4a0b 683d 841c 8d3d 3cc4 8dbd
00000060: 12f5 5bbd 09ba 3bbd 603d a9bc 14b6 98bd
00000070: 85b0 913d 21f5 193d 1041 9d3d 5455 6dbd
00000080: bce8 9abd e440 eabb 8b12 253d 7265 6f3d
00000090: 23fe 803d ac4d 5a3d fbf2 913d ad46 49bd
000000a0: 34d1 3bbd 533a 9c3d 37e6 803d c612 9a3c
000000b0: ef65 5ebb afdb 263d 2407 983c 5ca4 9f3d
000000c0: 0c1a 6abd d13c 40bd d564 28bd a404 4ebd
000000d0: caa8 b9bc 6eb2 843d 567b 8a3c d006 623c
000000e0: eb3c 79bd 689c 063d 5134 013d 1ca2 9cbd
000000f0: 4a5a fa3c 6eb5 adbc b3dc 103d 7525 1b3d
00000100: f8da 0b88 2ac3 bd3a b586 413c 2419 453d
00000110: db8c 82bd 646e 3b3d 3c49 04bd 4c99 a63c
00000120: c158 71bd 67af 97bd f934 3abd 92a3 a3bb
00000130: 6158 1abd f117 423d 069b e6bb 7d6b bcbc
00000140: 9bda ddba 35bb 93bd 3914 873d d1bb 403d
00000150: fe51 8c3d b7ef 52bd c109 ffbb 6baa e3bc
00000160: 66d1 353d 83c5 963d ff6e 943d 7762 40bd
00000170: 2ffc a7bc 4344 363d 6b9f e9bc 325e 69bc
00000180: e594 273d 262b 46bd f9f5 62bc 5f97 82bd
00000190: afbd de3c 8e13 1f3d e05d 18bd 8576 293d
000001a0: e340 863d c136 e6bc 37b3 fabc 5d63 fa3c
000001b0: 9e22 b0bc 524a 8abb 3f19 99b9 527c e33c
000001c0: 19b6 edbc 8784 99bd 3cef 313c eaa2 ec3c
000001d0: 4b73 8bbd a36d 1c3d 57cf 3e3b 262d fe3c
000001e0: 31cc 253d eea4 8e3d acfb 33bd 1c39 fdbb
000001f0: 3a49 01bd fb96 8c3d 61c4 263c 39b7 8cbc
00000200: 1019 9bbd 0137 2b3d

layer2.weight f4 [100, 130]
-0.0029974657 -0.053646483 -0.042911943 0.08255696 -0.09838368 0.06719735 0.023441039 0.06531801
0.0015989196 -0.034089707 0.10180617 -0.03482833 0.013465783 0.018166497 0.062405866 -0.059572004
0.01884798 0.025575157 0.043833543 -0.039589714 0.07203416 0.014256977 -0.083944984 -0.08331792
-0.10623534 0.009152437 0.06440727 0.015892105 -0.0652275 0.0044855336 0.026434198 -0.041544806
-0.08939536 -0.044065587 -0.079477474 0.071653925 -0.029153809 0.0109243365 0.031640664 0.06860127
-0.044814546 -0.06542007 -0.026802482 0.04102177 0.0271511 -0.03781841 0.018093716 -0.08555693
-0.046616334 0.011716113 -0.02610716 -0.047666635 0.0037768732 -0.06971355 0.04533758 -0.067628965
-0.07033184 0.012235788 0.04217927 -0.0002507609 0.06328661 -0.07443421 0.04089459 0.028700378
1.4227438e-33 0.10627286 0.022538424 -0.06320046 -0.008796714 0.046899304 0.04074628 0.01387812
-0.03181259 0.024951017 0.020568246 -0.05467251 -0.10050333 -0.060452886 -0.009158352 0.02620377
0.031595632 -0.01921176 0.04699623 0.02337283 0.0159829 -0.05227822 0.0768044 -0.052055564
-0.02137771 0.095348395 0.04826312 0.02970518 0.028227316 -0.064536445 -0.070647605 0.054767143
0.040409997 0.04840338 0.06273137 0.09519756 -0.0419076 -0.017428538 0.04771061 -0.033548556
0.04430057 0.062773086 -0.042961773 -0.020091288 0.01448227 -0.038083088 -0.040901113 -0.029094765
0.081460245 0.058062803 0.03640704 0.06923482 -0.08650235 -0.0454642 -0.016067911 0.034581896
0.010239426 -0.04586048 0.029702177 0.013688532 -0.08876647 0.056785464 0.084764645 -0.06028473
0.01632277 -0.0058073746 -1.0782951e-36 -1.0540633e-36 -9.298288e-36 1.2587248e-38 -6.29676e-40 -9.651451e-36
-1.2160323e-35 5.56674e-40 -1.3334957e-35 -6.2552966e-36 -5.2081438e-36 -7.7174576e-36 -4.00928e-40 1.0157631e-37
-8.977009e-36 -9.1937046e-36 -8.437478e-36 -5.6968765e-36 -5.1467083e-37 -4.801866e-36 -9.368767e-36 -9.6919244e-36
-1.38838195e-36 -4.718505e-36 -4.18147e-40 -3.69248e-40 5.67986e-40 -3.082459e-36 -7.375255e-36 -1.1911192e-35
-6.0570195e-36 4.458e-40 -5.0070836e-36 -3.0927447e-36 -4.341064e-36 -1.0504046e-36 -1.79669e-40 -6.327589e-36
-1.12543045e-35 -2.9992922e-36 -1.51901e-40 -2.2297594e-36 4.0221e-40 -3.2118e-41 -3.875382e-36 -3.4843033e-36
-2.7308634e-36 -1.7788175e-35 -4.4474747e-36 -3.1917965e-36 -1.0948819e-36 -4.167235e-36 -1.8753829e-36 -7.555517e-36
-5.3938413e-36 -5.333329e-36 -4.1202774e-36 -1.1277171e-35 -1.37627e-35 -4.0044445e-36 -7.7740634e-36 -4.0237857e-37
-8.8508e-36 -3.771283e-36 -2.19785e-40 -1.4965165e-36 -1.0020822e-36 -6.366397e-36 -4.1620988e-36 -1.514649e-36
-8.72428e-37 -9.963622e-38 -4.7448e-40 -8.9410874e-36 -1.55443e-40 -1.258746e-35 -7.426291e-37 -1.0265085e-35
-8.0905e-41 -1.3441776e-35 -6.898524e-36 -2.1542959e-36 -3.8791626e-36 3.9427124e-38 -3.288993e-39 -5.37594e-40
-1.4047833e-35 -4.3423693e-36 -4.5774438e-36 -3.3445e-36 -1.0525564e-35 2.57603e-40 -4.7082703e-36 -1.0702768e-36
-5.20947e-40 -7.829704e-36 -1.01361886e-35 3.87263e-40 -1.2304958e-35 9.2637633e-38 -5.3144958e-36 -6.943832e-36
1.18953e-40 -1.4199768e-35 -3.25494e-40 -6.368196e-36 -2.85248e-40 -7.499961e-36 -8.169001e-36 -7.6344606e-36
3.24e-42 8.3439e-41 -1.70342e-40 -8.8813176e-36 -7.139512e-36 -1.05393644e-35 -5.362869e-36 6.35831e-40
-7.171271e-36 -4.5436265e-36 -6.30226e-40 -2.3093752e-36 -3.0070394e-36 -2.5277317e-36 -6.403987e-36 -6.659769e-36
00000000: 2171 44bb 6abc 5bbd 6fc4 2fbd a013 a93d
00000010: 627d c9bd c49e 893d 6c07 c03c 73c5 853d
00000020: d792 d13a a6a1 0bbd c17f d03d 27a8 0ebd
00000030: 969f 5c3c e8d1 943c 4b9d 7f3d c601 74bd
00000040: 1467 9a3c fe82 d13c cd8a 333d d328 22bd
00000050: a586 933d 1896 693c 59eb abbd 96a2 aabd
00000060: ea91 d9bd 1af4 153c f5e7 833d 2930 823c
00000070: ff95 85bd 62fb 923b 888c d83c e32a 2abd
00000080: ea14 b7bd 1e7e 34bd 16c5 a2bd 4bbf 923d
00000090: f8d3 eebc fdfb 323c a499 013d d37e 8c3d
000000a0: 758f 37bd f5fa 85bd e190 dbbc 7206 283d
000000b0: fc6b de3c 7ae7 1abd 4639 943c 7938 afbd
000000c0: c5f0 3ebd f1f4 3f3c afde d5bc 173e 43bd
000000d0: 6b85 773b fac5 8ebd e6b3 393d 0e81 8abd
000000e0: 240a 90bd 9d78 483c 2cc4 2c3d 8f78 83b9
000000f0: 699c 813d f770 98bd 1681 273d 0e1d eb3c
00000100: d464 ec08 96a5 d93d 80a2 b83c 3e6f 81bd
00000110: 1820 10bc 7c19 403d 92e5 263d 0e61 633c
00000120: eb4d 02bd 1366 cc3c bd7e a83c 48f0 5fbd
00000130: b1d4 cdbd 729d 77bd ea0c 16bc 4aa9 d63c
00000140: 6c6a 013d fb61 9dbc 1e7f 403d 6178 bf3c
00000150: 92ee 823c b021 56bd a04b 9d3d 3738 55bd
00000160: 4f20 afbc 0546 c33d 8daf 453d 4758 f33c
00000170: f93c e73c af2b 84bd b1af 90bd 8353 603d
00000180: f484 253d 9f42 463d 4e79 803d f0f6 c23d
00000190: 4ea7 2bbd 4bc6 8ebc 336c 433d 366a 09bd
000001a0: 8474 353d 2d8f 803d aff8 2fbd 7c96 a4bc
000001b0: 0b47 6d3c 03fd 1bbd ed87 27bd 2558 eebc
000001c0: a1d4 a63d 43d3 6d3d 8c1f 153d fcca 8d3d
000001d0: 2528 b1bd ab38 3abd daa0 83bc bfa5 0d3d
000001e0: 44c3 273c 33d8 3bbd fb51 f33c dd45 603c
000001f0: 32cb b5bd e097 683d 1699 ad3d 1fed 76bd
00000200: 54b7 853c ca4b bebb 6076 b783 ef56 b383
00000210: b2c0 4585 2010 8900 48db 0680 7f43 4d85
00000220: 8c4f 8185 c80f 0600 35cd 8d85 1309 0585
00000230: aa87 dd84 d621 2485 a05d 0480 2e42 0a02
00000240: 7ceb 3e85 4a87 4385 0072 3385 7e51 f284
00000250: 2722 2f83 b13f cc84 6b40 4785 db1f 4e85
00000260: 9038 ec83 f8b3 c884 a08d 0480 5005 0480
00000270: 502f 0600 021d 8384 b5da 1c85 b352 7d85
00000280: 8dd1 0085 b6da 0400 50fa d484 028d 8384
00000290: 00a6 b884 93b7 b283 d8f4 0180 ac92 0685
000002a0: 435a 6f85 cd26 7f84 70a7 0180 dcaf 3d84
000002b0: 3361 0400 8859 0080 2cd7 a484 b434 9484
000002c0: f050 6884 0528 bd85 b62c bd84 96c3 8784
000002d0: d548 ba83 2c41 b184 398a 1f84 26b0 2085
000002e0: bb6d e584 cfda e284 d941 af84 c2d6 6f85
000002f0: a259 9285 8a54 aa84 0756 2585 1eec 0883
00000300: 573c 3c85 a369 a084 ac64 0280 7d9e fe83
00000310: d67e aa83 f665 0785 3e09 b184 22da 0084
00000320: 996f 9483 289e 0782 a82a 0580 e927 3e85
00000330: 50b1 0180 53da 8585 1eb4 7c83 7050 5a85
00000340: 88e1 0080 ffef 8e85 23b7 1285 6944 3784
00000350: 5700 a584 64a9 5601 60d0 2380 98da 0580
00000360: d761 9585 37b4 b884 f3b3 c284 6142 8e84
00000370: 9fda 5f85 18ce 0200 8644 c884 2119 b683
00000380: 30ac 0580 f784 2685 a992 5785 8837 0400
00000390: 48d9 8285 022f fc01 bc0d e284 d1ad 1385
000003a0: 984b 0100 72ff 9685 588b 0380 c26f 0785
000003b0: 281b 0380 ac81 1f85 46bc 2d85 f55d 2285
000003c0: 0809 0000 98e8 0000 d8da 0180 7ee2 3c85
000003d0: 33d7 1785 c225 6085 791c e484 70ec 0600
000003e0: 1d84 1885 b643 c184 d0dc 0680 bd75 4484
000003f0: 85cf 7f84 1f09 5784 9f32 0885 3ba3 0d85

layer2.bias f4 [100]
0.044537906 -5.4268307e-36 -1.5694194e-33 0.0019972108 -0.0612625 -0.00012699662 -0.003846741 0.0035943172
0.00063134346 -6.390602e-32 -1.42372e-40 -0.06634744 0.014059495 0.0531063 0.046032853 -0.07968099
-0.012629997 -0.061384194 -3.292325e-36 0.083044186 0.059520423 -0.0867438 -0.07240444 0.016465053
0.060700003 -0.0732649 0.09442983 -0.023326168 -2.2150885e-38 0.010583916 -0.02014484 -0.00029891674
0.0017350739 -0.010199145 0.04684367 -0.08029091 0.08490682 0.05219175 -0.090839975 0.050579567
-0.050142914 -6.3942796e-38 -2.253635e-39 0.016202293 -0.05290186 -0.015236108 -0.036417354 0.029569851
-0.07410308 0.02480098 0.011035273 0.069942474 -0.0289725 -1.3720563e-37 0.016947476 -0.015334664
-0.08955952 -0.074510016 0.07580954 0.07561165 -0.062659 -0.08652742 0.09385237 -0.02361757
0.060029175 0.06838539 0.032834783 0.06582178 0.0018438941 -0.058415946 -0.0047657127 0.039805558
-2.6428193e-36 0.0023443636 0.042242102 0.03593709 -0.046333384 -0.0075399685 0.033524003 -0.024123644
0.037268434 -0.054352436 0.08495447 -0.036738236 -0.06844712 0.07592294 0.04445131 -0.020952804
-0.07472164 -0.0046429285 -0.00693864 0.04343765 -0.042596973 -6.649e-40 -0.006023715 0.093130924
0.043284353 0.05106829 0.014233684 -0.017954092
00000000: 616d 363d f4d4 e684 dc61 0289 a3e3 023b
00000010: 63ee 7abd 652a 05b9 9b19 7cbb a38e 6b3b
00000020: be80 253a d6e8 a58b e08c 0180 2be1 87bd
00000030: cc59 663c fe85 593d f28c 3c3d c92f a3bd
00000040: 0cee 4ebc fe6d 7bbd 3f0a 8c84 1213 aa3d
00000050: b0cb 733d bca6 b1bd c748 94bd b8e1 863c
00000060: 91a0 783d e80b 96bd 6d64 c13d 8516 bfbc
00000070: a833 f180 2968 2d3c cb06 a5bc edb7 9cb9
00000080: 6b6b e33a 511a 27bc 26df 3f3d 906f a4bd
00000090: a0e3 ad3d 04c7 553d 4f0a babd 852c 4f3d
000000a0: a862 4dbd a011 ae81 388a 1880 acba 843c
000000b0: 9faf 58bd dea0 79bc 5d2a 15bd 793c f23c
000000c0: 5bc3 97bd 6d2b cb3c 4acd 343c 003e 8f3d
000000d0: bc57 edbc 2fc1 3a82 6fd5 8a3c 3e3e 7bbc
000000e0: fb6a b7bd b598 98bd 0842 9b3d 48da 9a3d
000000f0: 5d53 80bd 4a35 b1bd ac35 c03d a279 c1bc
00000100: 27e1 753d a40d 8c3d c47d 063d 92cd 863d
00000110: d2ae f13a 8f45 6fbd b229 9cbb 270b 233d
00000120: 82d3 6084 e5a3 193b 0e06 2d3d c532 133d
00000130: 13c8 3dbd d711 f7bb 7750 093d f39e c5bc
00000140: c9a6 183d a9a0 5ebd 9cfc ad3d d57a 16bd
00000150: 012e 8cbd 7d7d 9b3d 9412 363d 37a5 abbc
00000160: a907 99bd b523 98bb 885d e3bb adeb 313d
00000170: 2a7a 2ebd 783d 0780 9562 c5bb 6dbb be3d
00000180: ef4a 313d fc2c 513d 6634 693c 7614 93bc

layer3.weight f4 [50, 100]
-0.069241144 5.415173e-36 1.689777e-33 -0.006786246 -0.059924927 0.010495801 0.066659495 0.07741641
0.038752917 3.4226194e-24 -2.9555e-40 -0.0572475 0.03510301 -0.041778155 0.10571884 0.053809084
0.10365322 -0.038409397 4.2321263e-37 -0.015811436 0.12156307 -0.09615073 -0.010457508 -0.05785267
0.04133127 -0.042575207 0.037317604 0.017760698 -1.2036156e-38 -0.05788867 0.021628842 0.006494538
-0.007493544 -0.005731841 0.062929034 -0.0332784 -0.04250106 0.104872085 -0.059676833 -0.016623372
0.06117663 -3.474032e-38 3.0231927e-38 0.09556605 -0.021990739 0.0278365 0.051021464 -0.03490225
0.008537637 0.04326437 -0.024803525 0.105448455 -0.05997785 -1.9783209e-37 0.06953821 0.045672625
0.060556218 0.04719087 -0.120522216 -0.041454826 -0.08273044 0.032270283 -0.06379151 0.11514062
0.05548754 0.10442661 -0.035114564 0.07621238 -0.012611896 0.022829387 0.10918948 -0.12545258
1.720303e-37 0.07275616 -0.02513324 0.09217561 0.045273293 -0.08450513 0.04404273 0.026501628
-0.049286764 0.056792624 -0.054766122 -0.08601057 -0.04664498 0.06158449 -0.01104924 0.033381984
-0.03476817 0.042393103 0.007415618 0.06967573 0.06989894 -5.26473e-40 0.008778408 0.022728922
-0.020195516 -0.005501166 -0.021249259 0.03543101 -0.04167142 8.647642e-36 2.7036223e-33 -0.009381858
-0.123270124 -0.012331962 0.08887383 0.10899986 -0.069824494 2.1199198e-20 -3.28677e-40 -0.044781018
0.025681477 -0.06442798 -0.061952677 0.027076427 -0.06427679 -0.04555394 9.58073e-37 0.10039666
0.06998601 0.08146722 0.012680499 -0.067833826 0.013900563 0.12258531 0.086714074 -0.041227117
-3.202903e-38 0.034350827 0.064841755 0.0062315064 -0.004939889 -0.0076460377 0.09073123 0.09194476
0.11760876 -0.029638942 0.077087745 0.005876133 0.07420169 -3.932243e-38 4.37129e-38 -0.020107616
-0.050116684 -0.028365193 0.106321864 0.076858476 0.05695417 0.06349151 -0.045514066 -0.022575289
0.11686119 -5.1922933e-37 0.1039698 0.048233163 0.03305234 0.06936734 -0.11373515 -0.05779602
0.051810205 -0.04409056 -0.033156224 0.081327565 0.079689674 0.062639594 0.023545219 0.04721993
-0.011742939 0.10742194 -0.0116285905 0.028524563 2.509704e-37 -0.06390113 -0.03991101 0.06836899
-0.024617888 0.018680455 0.11826005 0.08789944 0.05362542 -0.06962729 -0.0016150024 -0.08407969
-0.023288736 0.069504365 -0.046721116 -0.047475345 0.036068343 -0.06133705 0.007831908 0.061754182
0.004324778 -6.26257e-40 0.008567825 -0.078283966 -0.02056385 0.12427308 0.078937635 0.03554759
-2.8456078e-35 -4.8413e-40 2.7885e-40 -1.4931e-41 -3.2387025e-35 -5.7516795e-35 -2.4763212e-34 -3.99053e-40
-3.9754702e-35 4.94902e-40 -2.35e-41 3.4278e-40 -2.4798398e-36 -2.6792515e-34 -2.3746313e-34 4.36381e-40
-2.684477e-34 -1.9990482e-34 5.2893e-40 -2.4050226e-34 -2.1803757e-35 4.92461e-40 -3.9510827e-35 3.62823e-40
1.05019e-40 -9.329894e-35 -3.5396217e-34 -2.0334878e-35 3.61548e-40 -9.287086e-35 -1.1273944e-34 6.06382e-40
-9.8653464e-36 5.72988e-40 -3.3273153e-34 -2.8571217e-34 -2.7414682e-34 -3.3075915e-34 -3.7998466e-35 -1.992437e-34
-2.3545193e-34 4.25957e-40 -3.49658e-40 -2.2676937e-34 -2.6985925e-34 -1.5645322e-34 -3.3971038e-34 -2.3210499e-34
-1.3516612e-34 -2.5896779e-34 -2.9416406e-34 -2.6912374e-34 -3.5437633e-34 6.6415e-41 -2.7001477e-34 3.08843e-40
00000000: 4dce 8dbd 0356 e604 9561 0c09 285f debb
00000010: d773 75bd 95f6 2b3c c684 883d 7f8c 9e3d
00000020: 61bb 1e3d fb67 8418 e037 0380 5b7c 6abd
00000030: 2cc8 0f3d 921f 2bbd 1f83 d83d ea66 5c3d
00000040: 2448 d43d 2c53 1dbd 0503 1003 fc86 81bc
00000050: 0ff6 f83d adea c4bd f855 2bbc ecf6 6cbd
00000060: fa4a 293d 5763 2ebd 58da 183d e27e 913c
00000070: e80f 8380 ac1c 6dbd f82e b13c 22d0 d43b
00000080: 678c f5bb 2bd2 bbbb f0e0 803d ee4e 08bd
00000090: 9715 2ebd 2dc7 d63d b26f 74bd bd2d 88bc
000000a0: 5994 7a3d f024 3d81 2899 2401 22b8 c33d
000000b0: ec25 b4bc 5f09 e43c e2fb 503d a9f5 0ebd
000000c0: 72e1 0b3c fb35 313d c330 cbbc 5cf5 d73d
000000d0: 56ab 75bd 36a3 8682 0d6a 8e3d 3813 3b3d
000000e0: cc09 783d 374b 413d 5ad4 f6bd 89cc 29bd
000000f0: 946e a9bd d82d 043d 20a5 82bd d8ce eb3d
00000100: e746 633d 9edd d53d 4ad4 0fbd 3c15 9c3d
00000110: 20a2 4ebc b204 bb3c bc9e df3d a476 00be
00000120: d027 6a02 2e01 953d 39e4 cdbc 91c6 bc3d
00000130: 7d70 393d 0711 adbd 2666 343d f119 d93c
00000140: ebe0 49bd 629f 683d 7152 60bd 4f26 b0bd
00000150: ce0e 3fbd 0540 7c3d df07 35bc 8cbb 083d
00000160: 1269 0ebd 64a4 2d3d b6fe f23b 26b2 8e3d
00000170: 2d27 8f3d 98bb 0580 50d3 0f3c 0132 ba3c
00000180: 1171 a5bc 2043 b4bb ed12 aebc 1b20 113d
00000190: a7af 2abd 3eea 3705 b09b 6009 5db6 19bc
000001a0: 0c75 fcbd ff0b 4abc 7c03 b63d 523b df3d
000001b0: 2500 8fbd 8438 c81e 3894 0380 4d6c 37bd
000001c0: f661 d23c d1f2 83bd 17c2 7dbd 62cf dd3c
000001d0: 8da3 83bd c596 3abd f701 a303 c49c cd3d
000001e0: d354 8f3d 49d8 a63d dec1 4f3c 76ec 8abd
000001f0: 30bf 633c 020e fb3d 2697 b13d c4dd 28bd
00000200: f461 2e81 74b3 0c3d c1cb 843d aa31 cc3b
00000210: cbde a1bb 9d8b fabb 4cd1 b93d 894d bc3d
00000220: dddc f03d 5ecd f2bc 2ee0 9d3d 948c c03b
00000230: 0ef7 973d 7817 5681 e4fe 6d01 bab8 a4bc
00000240: 2747 4dbd 1f5e e8bc 47bf d93d fa67 9d3d
00000250: c748 693d d607 823d f56c 3abd d0ef b8bc
00000260: eb54 ef3d 41af 3083 1eee d43d 2390 453d
00000270: e461 073d 7710 8e3d f9ed e8bd 85bb 6cbd
00000280: f036 543d 4e98 34bd d2ce 07bd 118f a63d
00000290: 5734 a33d 3049 803d e7e1 c03c af69 413d
000002a0: 7565 40bc 0900 dc3d d885 3ebc 58ac e93c
000002b0: 36cd aa02 98de 82bd ba79 23bd 0b05 8c3d
000002c0: 74ab c9bc c107 993c 5332 f23d 9f04 b43d
000002d0: 54a6 5b3d c198 8ebd 7dae d3ba f931 acbd
000002e0: 05c8 bebc 4e58 8e3d a45e 3fbd 8275 42bd
000002f0: 66bc 133d 8f3c 7bbd 6751 003c f4f1 7c3d
00000300: deb6 8d3b c0d1 0680 1060 0c3c 5853 a0bd
00000310: 8575 a8bc e282 fe3d 0eaa a13d 5a9a 113d
00000320: 684c 1786 8f45 0580 5209 0300 9f29 0080
00000330: ef32 2c86 e7e7 9886 6c94 a487 6658 0480
00000340: 4c5f 5386 9663 0500 8241 0080 88bb 0300
00000350: 21f6 5284 1a11 b287 42d2 9d87 74c0 0400
00000360: 026a b287 0bdc 8487 71c2 0500 57d7 9f87
00000370: 79db e785 c85c 0500 5a13 5286 67f3 0300
00000380: c024 0100 f807 f886 8b3f eb87 ce3c d885
00000390: d9ef 0300 a2e4 f686 3edb 1587 599a 0600
000003a0: 0ed0 5185 423d 0600 5623 dd87 68e3 bd87
000003b0: aa33 b687 c1d3 db87 d508 4a86 8f6b 8487
000003c0: 127c 9c87 65a3 0400 b4ce 0380 cfb6 9687
000003d0: 2c5a b387 46f6 4f87 bac6 e187 9e42 9a87
000003e0: a6aa 3387 161d ac87 6c81 c387 08dd b287
000003f0: 0286 eb87 23b9 0000 a274 b387 ee5c 0300

layer3.bias f4 [50]
0.012589918 -0.09671853 -1.5417976e-34 0.058121998 0.06624344 0.008973321 0.05336649 -2.7902444e-37
-0.0017193118 -2.6371295e-35 -8.147316e-33 0.08234508 -0.02505453 -0.020047568 -0.007925615 -0.061192337
0.062577784 0.10554418 0.0013699076 -0.092813335 0.08136945 -8.44604e-39 0.05592798 -4.968153e-28
0.019279717 -0.053775266 -2.181351e-39 0.010554044 -2.32595e-40 -0.010704685 -6.690218e-30 -0.03474179
-0.008013305 0.010589587 -3.3174404e-36 0.038828623 0.07268613 -5.08167e-40 -0.008202473 -1.45651e-39
-0.07131199 0.07636494 0.07407134 -5.221328e-39 -0.08136484 -1.5928317e-25 -0.061341804 0.027142504
-5.835203e-37 -0.05566978
00000000: f245 4e3c 5d14 c6bd a7f0 4c87 5511 6e3d
00000010: a4aa 873d d604 133c d296 5a3d eae4 bd82
00000020: 885a e1ba bf36 0c86 9036 298a 8aa4 a83d
00000030: 283f cdbc cc3a a4bc 70da 01bc d1a4 7abd
00000040: c828 803d 8c27 d83d 798e b33a eb14 bebd
00000050: 07a5 a63d 20f8 5b80 bd14 653d 7272 1d92
00000060: 7ff0 9d3c 7443 5cbd b8c0 1780 deea 2c3c
00000070: 6188 0280 b462 2fbc 99b1 078f 684d 0ebd
00000080: 3d4a 03bc f27f 2d3c ba1b 8d84 c30a 1f3d
00000090: 77dc 943d 9088 0580 aa63 06bc 28dc 0f80
000000a0: 050c 92bd 3965 9c3d b7b2 973d f0da 3880
000000b0: 9ca2 a6bd da2e 4596 8b41 7bbd f559 de3c
000000c0: ca8f 4683 ff05 64bd

layer4.weight f4 [25, 50]
0.011487611 0.11063858 -3.5952766e-34 0.10632743 0.13687298 0.020108528 -0.040990047 1.3031356e-35
0.0038856897 5.5111314e-35 3.8958803e-33 -0.006365304 0.1285416 0.10667498 0.100134894 -0.024357634
0.1071137 -0.12716636 0.007556038 0.03201076 -0.080292314 -4.60433e-40 0.10223943 4.017471e-28
0.0667668 -0.14427757 1.75218e-40 -0.0053077447 3.39481e-40 -0.001528753 3.253959e-30 0.100936435
-0.14133163 0.14512502 4.246127e-36 -0.0002491417 -0.13144672 -3.28229e-40 0.04886649 -4.18786e-40
0.036384888 0.11895687 -0.101859085 -4.840679e-39 0.05791783 6.828027e-24 -0.0254896 -0.117061354
4.5972437e-37 0.067600965 -4.790569e-38 -3.1670752e-38 -2.71077e-40 -2.6593116e-38 -8.401429e-38 -5.29276e-40
5.3468e-40 4.15142e-40 -2.925998e-39 2.64806e-40 -1.37536e-40 -2.4143266e-38 -4.151251e-39 -3.1453114e-38
-7.803901e-38 -4.9999686e-38 -8.181515e-38 -1.6336203e-38 -3.172192e-39 1.563502e-39 -5.537073e-38 -1.67528e-40
-8.875903e-39 -1.7896e-40 -4.2271247e-38 -1.8875521e-38 2.99686e-40 -6.642446e-39 3.61272e-40 -1.75454e-40
-6.40625e-40 -1.1507131e-38 -4.4974237e-38 -3.888029e-38 -1.636e-41 -8.012734e-38 -3.432595e-39 -9.9897e-41
-6.7633396e-38 -5.87357e-40 -2.2536164e-38 -5.2263506e-38 -3.8421732e-38 -4.89696e-40 -4.80571e-38 4.8982e-40
-3.27736e-40 -2.9752296e-38 -6.35734e-40 -3.0990497e-38 0.045578025 0.09382314 1.14782424e-35 -0.10052341
0.045303006 -0.019913524 6.20103e-40 -4.6974165e-36 -0.0008715435 -2.2572892e-36 -1.3058631e-33 0.019328365
0.016720409 -0.026381409 0.0071584554 -0.054610495 -0.0007099355 -0.063397415 -0.010196471 0.110737264
-0.047069144 3.65616e-40 0.12720047 -2.60661e-40 0.12099439 0.1387733 -6.30865e-40 -0.00236362
-5.09644e-40 0.0013542861 -3.849605e-31 0.07901229 -0.035076562 -0.050009653 -5.0028454e-37 -0.14883064
-0.0308546 -1.4663e-41 0.011232047 2.5081e-40 0.018622322 0.04449747 0.12701114 5.79936e-40
0.005844283 -2.4662543e-24 -0.07954146 0.010316799 5.7061e-41 0.10402487 -0.08941401 -0.11204786
-1.976037e-34 0.10506428 -0.020315029 0.020790486 0.0043218853 4.738733e-36 0.0052728336 3.0184494e-35
1.3609182e-33 -0.020860411 -0.085407004 -0.1122024 -0.027763175 0.077424 0.04163483 0.03259892
0.008429517 -0.024846604 0.10705455 -3.75044e-40 -0.023711514 2.240799e-28 -0.07327918 0.0009865917
6.09957e-40 -0.015559699 1.07628e-40 -0.0012965172 1.8260441e-30 0.1267906 -0.1554911 0.07668223
2.384851e-36 0.12949948 0.0072677243 -7.7722e-41 0.055258743 -6.32255e-40 -0.12786339 -0.021456635
0.012720669 -2.58201e-39 0.10725235 2.481836e-24 -0.01147969 -0.08076441 2.570664e-37 -0.060406078
-1.245295e-39 -1.704663e-39 3.42994e-40 -2.29196e-40 -2.549455e-39 2.89564e-40 -5.73602e-40 -7.2792e-41
-3.7095e-41 4.62487e-40 4.3679e-40 -4.6063e-41 1.2142e-40 -4.41891e-40 -2.911057e-39 -1.484334e-39
-2.487529e-39 4.48864e-40 1.2858e-41 3.33139e-40 -9.13983e-40 -7.6637e-41 1.71463e-40 5.92476e-40
-9.97657e-40 8.1488e-41 2.11167e-40 4.63135e-40 -1.25785e-40 -1.306e-40 3.01042e-40 -4.67843e-40
-1.4735e-40 -8.2263e-40 3.73375e-40 -2.268299e-39 1.22148e-40 5.1526e-41 -1.546406e-39 2.52078e-40
2.36169e-40 -1.057498e-39 1.142e-40 9.3205e-41 -2.964363e-39 -6.01877e-40 1.19559e-40 -2.80899e-40
-1.26904e-40 -1.418697e-39 0.036082484 0.1565434 -6.6033987e-34 -0.007910457 0.13181275 0.018959986
00000000: 8836 3c3c 7b96 e23d 76f2 ee87 32c2 d93d
00000010: 6e28 0c3e a4ba a43c 2ee5 27bd ba92 8a05
00000020: 0ea7 7e3b d182 9206 1bd4 a109 0a94 d0bb
00000030: 69a0 033e 6978 da3d 8613 cd3d a989 c7bc
00000040: 6d5e db3d e637 02be a498 f73b b71d 033d
00000050: 4c70 a4bd 8003 0580 e862 d13d 32a3 fe11
00000060: 08bd 883d 80bd 13be 70e8 0100 97ec adbb
00000070: 56b2 0300 7060 c8ba 0bff 830e c3b7 ce3d
00000080: 3db9 10be a79b 143e 3b9c b404 3c9f 82b9
00000090: f899 06be f892 0380 3b28 483d 688f 0480
000000a0: 5208 153d a99f f33d 7f9b d0bd d8b5 3480
000000b0: 3f3b 6d3d c112 0419 91cf d0bc ddbd efbd
000000c0: a46f 1c03 6072 8a3d 6569 8281 966e 2c81
000000d0: a7f3 0280 65c9 1081 6ab5 e481 68c3 0580
000000e0: 78d2 0500 3f85 0400 7edc 1f80 2ce2 0200
000000f0: 657f 0180 cd72 0381 0034 2d80 3e3f 2b81
00000100: 4171 d481 b21c 8881 d7b8 de81 b0e2 b180
00000110: c88a 2280 6806 1100 c4bb 9681 00d3 0180
00000120: 68a6 6080 def2 0180 8525 6681 4689 cd80
00000130: 6743 0300 7054 4880 14ef 0300 18e9 0180
00000140: cdf9 0680 334d 7d80 f0dc 7481 37af 5381
00000150: 9b2d 0080 9b20 da81 ae60 2580 7916 0180
00000160: 991d b881 5065 0680 a865 f580 5946 8e81
00000170: 1430 5181 1355 0580 e9d2 8281 6b55 0500
00000180: 9891 0380 a6fc 2181 2bec 0680 73ba 2881
00000190: 06b0 3a3d 5926 c03d 7f1d 7405 38df cdbd
000001a0: a58f 393d b021 a3bc 98c0 0600 56ce c784
000001b0: 4b78 64ba 6807 4084 46f9 d888 8556 9e3c
000001c0: 3df9 883c d31d d8bc 7a91 ea3b 41af 5fbd
000001d0: f71a 3aba 81d6 81bd 190f 27bc 38ca e23d
000001e0: 93cb 40bd 30fb 0300 d740 023e 9ed6 0280
000001f0: e8cb f73d 971a 0e3e 98de 0680 f7e6 1abb
00000200: ae8c 0580 4d82 b13a 89da f98c 32d1 a13d
00000210: 71ac 0fbd ecd6 4cbd ee3c 2a83 0f67 18be
00000220: c9c2 fcbc e028 0080 9f06 383c 28bb 0200
00000230: d78d 983c fb42 363d 350f 023e a050 0600
00000240: 6681 bf3b 33d1 3e98 a2e6 a2bd cb07 293c
00000250: 109f 0000 fe0a d53d b11e b7bd 5979 e5bd
00000260: 8754 8387 f12b d73d b46b a6bc cf50 aa3c
00000270: 9a9e 8d3b 3c90 c904 bcc7 ac3b 017d 2006
00000280: 0f1f e208 74e3 aabc dee9 aebd 5fca e5bd
00000290: 996f e3bc 7990 9e3d 4989 2a3d 7286 053d
000002a0: f51b 0a3c 1b8b cbbc 6a3f db3d 7815 0480
000002b0: a63e c2bc 0b07 8e11 6513 96bd 8650 813a
000002c0: 50a4 0600 1cee 7ebc 062c 0100 e6ef a9ba
000002d0: 7425 140e 65d5 013e 0f39 1fbe 930b 9d3d
000002e0: 75e1 4a04 839b 043e 1726 ee3b a8d8 0080
000002f0: fe56 623d 78e2 0680 9fee 02be d3c5 afbc
00000300: 5a6a 503c 981d 1c80 1fa7 db3d d405 4018
00000310: 4f15 3cbc d067 a5bd 49f3 ae02 5d6c 77bd
00000320: 608f 0d80 e88f 1280 21bc 0300 e87e 0280
00000330: d8c2 1b80 3027 0300 f83e 0680 eaca 0080
00000340: 6867 0080 3a09 0500 98c1 0400 6880 0080
00000350: 7852 0100 d0cf 0480 d8b2 1f80 b829 1080
00000360: 3816 1b80 40e3 0400 d823 0000 a8a0 0300
00000370: d0f3 0980 a2d5 0080 f8dd 0100 9573 0600
00000380: 10dd 0a80 28e3 0000 a64c 0200 080b 0500
00000390: a35e 0180 0f6c 0180 2f47 0300 2818 0580
000003a0: c09a 0180 28f5 0880 d110 0400 18b3 1880
000003b0: 8054 0100 a28f 0000 c0d6 1080 b1be 0200
000003c0: 5892 0200 e083 0b80 583e 0100 d103 0100
000003d0: 7047 2080 ca8d 0680 484d 0100 080f 0380
000003e0: c261 0180 c072 0f80 3acb 133d ea4c 203e
000003f0: 816f 5b88 dd9a 01bc ecf9 063e f951 9b3c

layer4.bias f4 [25]
0.124807626 -9.553872e-38 -0.13834038 -0.02862003 -5.94274e-40 -0.09938784 0.009240326 -9.852573e-29
0.06627952 -0.018360557 0.000100078716 -0.034936465 -4.87831e-40 -0.08807308 0.07848108 -0.012382932
-0.13158508 -1.6352432e-29 -0.006009085 0.07136562 0.06295222 -4.1257216e-26 -1.5324936e-38 0.0084499
-0.0006381365
00000000: 249b ff3d 630a 0282 1aa9 0dbe 8e74 eabc
00000010: 9878 0680 da8b cbbd bc64 173c dbca f990
00000020: 8fbd 873d e168 96bc 5ae1 d138 8a19 0fbd
00000030: e04f 0580 a95f b4bd b0ba a03d c8e1 4abc
00000040: 3dbe 06be 57d5 a58f dce7 c4bb 2328 923d
00000050: 18ed 803d bc4b 4c95 b0df a680 7371 0a3c
00000060: 9e48 27ba

layer5.weight f4 [10, 25]
-0.021383526 -1.6277e-41 0.012605891 0.0011049823 2.63283e-40 -0.0020022448 -1.43131e-40 8.0395e-41
-0.00013978226 -0.0018194201 -0.026185516 6.15684e-40 4.95892e-40 -0.030949028 0.0002340897 -0.030082833
-0.0011744592 4.19786e-40 0.060889006 -1.0259373e-05 0.028398994 6.1794e-40 -3.7333e-41 -6.33499e-40
-2.13697e-40 -1.33184e-38 -4.76639e-40 -1.105748e-39 -1.82828e-39 -3.11521e-40 -1.0749394e-38 1.44311e-40
1.98777e-40 -4.29515e-40 -1.0965687e-38 -1.1324734e-38 6.23948e-40 -1.70874e-40 -1.1084618e-38 -3.9316e-40
-8.441433e-39 -6.654666e-39 3.825e-41 -1.5579446e-38 -6.17446e-40 -2.8518e-39 -2.3193e-40 -3.19541e-40
3.23935e-40 1.93121e-40 0.07711856 1.4003003e-37 -0.11500627 -0.033379957 5.451544e-39 0.052900493
-0.008418832 1.3652975e-28 0.16987081 0.027151354 0.01851893 0.042923722 6.13455e-40 0.093854666
0.19896802 0.17987488 0.030599497 -5.521563e-29 0.103684194 -0.0349854 0.18246678 1.8041699e-25
3.3361e-40 0.007299323 0.008073697 -0.054557778 1.7364e-40 0.1868516 -0.053527854 1.94164e-40
-0.04792296 -0.0009540289 9.4871e-41 0.19506414 -0.0003947042 -0.05928269 -0.006951508 -3.9715e-40
-0.053194575 0.066633664 0.11429612 0.045695525 6.42109e-40 0.10717709 0.09704242 0.19100903
1.7165396e-26 6.11314e-40 0.0052211643 0.007188001 0.14675723 1.1288616e-37 0.07126156 -0.005997456
4.381535e-39 0.14026031 -0.0084178895 1.1102458e-28 0.032745767 0.08919521 -0.11772339 -0.015957266
5.55508e-40 -0.119710304 -0.1626717 -0.12441752 0.03825176 -4.5096832e-29 0.032126218 -0.20683628
0.02041319 1.4733565e-25 3.87868e-40 0.006063656 -0.018341871 0.0015414868 2.336894e-39 0.0027729508
0.0010278011 -5.98758e-40 0.0014676593 -0.0053701 2.6301404e-30 0.0046824487 0.0016623911 0.0013107042
-0.02044915 -1.21039e-40 0.0016211297 0.0025385178 0.0012385105 0.0017831096 -1.0858195e-30 0.0016976737
-0.007957672 0.0013741504 3.6049125e-27 -5.29814e-40 0.0026534225 -0.009170473 0.039328985 1.8143388e-37
-0.038264964 0.103269614 6.9521e-39 0.09036411 -0.020761896 1.7441572e-28 -0.0717668 0.031284105
0.13931121 -0.16714174 6.23645e-40 0.18239386 -0.0999031 0.124336675 0.20349064 -7.011826e-29
0.1707318 -0.17348838 0.1000296 2.2910848e-25 3.44529e-40 0.006357986 -0.05103765 -2.8960282e-21
-1.7564e-41 -4.0698091e-22 -5.562263e-22 3.018e-40 -2.621751e-21 8.499e-41 -4.2691e-40 -1.0627409e-22
-2.5192577e-21 -2.5601694e-21 -1.56564e-40 3.3366e-41 -2.5747505e-21 -2.3432281e-22 -1.6720283e-21 -1.6877451e-21
-2.4653e-40 -3.619797e-21 -1.6428334e-22 -8.4187145e-22 -9.0451e-41 -3.02658e-40 3.97708e-40 1.74917e-40
0.087934524 -6.9593756e-38 -0.15453193 -0.037206996 -2.71945e-39 -0.15391712 0.008403007 -7.1156876e-29
0.094603755 -0.023108492 0.03346703 0.07170429 -8.549e-41 -0.006777266 -0.19191663 -0.007891919
-0.029896496 2.921505e-29 0.109763935 -0.048048366 -0.15516715 -5.79017e-40 -4.52283e-40 -0.011295711
0.027526109 -2.8604634e-33 -3.33964e-40 -4.2988283e-34 -6.1647373e-34 5.57e-41 -2.635517e-33 -2.74856e-40
4.69087e-40 -2.6652686e-34 -2.499623e-33 -2.4278337e-33 6.36111e-40 2.98011e-40 -2.5558024e-33 -1.5111069e-34
-1.613853e-33 -1.725374e-33 5.60442e-40 -3.722261e-33 -3.1753683e-36 -9.568348e-34 6.40542e-40 -5.09127e-40
1.14901e-40 5.31382e-40
00000000: 812c afbc 602d 0080 f088 4e3c 0ed5 903a
00000010: eddd 0200 1838 03bb fe8e 0180 1ce0 0000
00000020: 8492 12b9 9c79 eeba 0283 d6bc 47b4 0600
00000030: 5866 0500 d188 fdbc fa75 7539 4670 f6bc
00000040: 50f0 99ba 3192 0400 c066 793d ac1f 2cb7
00000050: 02a5 e83c 91ba 0600 1268 0080 f0e5 0680
00000060: b353 0280 4806 9180 ad30 0580 600a 0c80
00000070: 80e8 1380 6564 0380 f00c 7580 4892 0100
00000080: 1c2a 0200 50ad 0480 e067 7780 c050 7b80
00000090: 50cb 0600 54dc 0180 68b3 7880 f847 0480
000000a0: 48eb 5b80 8076 4880 a06a 0000 28a5 a980
000000b0: 30b9 0680 a80d 1f80 8786 0280 c07a 0380
000000c0: 0087 0300 581a 0200 56f0 9d3d 5899 3e02
000000d0: 6888 ebbd 6cb9 08bd b05c 3b00 30ae 583d
000000e0: 24ef 09bc 7012 2d11 9df2 2d3e 846c de3c
000000f0: 03b5 973c c9d0 2f3d 10ae 0600 e036 c03d
00000100: 46be 4b3e 1f31 383e ccab fa3c fefc 8b90
00000110: 6158 d43d da4c 0fbd 92d8 3a3e 6d58 5f16
00000120: f8a1 0300 292f ef3b 8a47 043c fa77 5fbd
00000130: 0ae4 0100 0756 3f3e 0640 5bbd 401d 0200
00000140: de4a 44bd cc17 7aba 7608 0100 e5be 473e
00000150: 4df0 ceb9 68d2 72bd 7ac9 e3bb 1853 0480
00000160: 8ee2 59bd 3b77 883d 1614 ea3d 3b2b 3b3d
00000170: f0fd 0600 aa7f db3d 2dbe c63d df97 433e
00000180: 73ff a914 18a8 0600 4d16 ab3b 5389 eb3b
00000190: 8747 163e 16a7 1902 95f1 913d 4f86 c4bb
000001a0: f0b5 2f00 66a0 0f3e 30eb 09bc 89bd 0c11
000001b0: 6d20 063d faab b63d f618 f1bd d0b8 82bc
000001c0: 880c 0600 ad2a f5bd 6993 26be 9dce febd
000001d0: e1ad 1c3d 09ab 6490 c896 033d e4cc 53be
000001e0: 9039 a73c 8864 3616 3839 0400 a2b1 c63b
000001f0: b141 96bc b70b ca3a 4f72 1900 65ba 353b
00000200: 48b7 863a 1885 0680 795e c03a aaf7 afbb
00000210: e161 550e 3a6f 993b 97e4 d93a efcb ab3a
00000220: fa84 a7bc 6851 0180 167c d43a 435d 263b
00000230: 8455 a23a 3bb7 e93a 2d2f b08d 7a84 de3a
00000240: e560 02bc d61c b43a 28ce 8e13 e8c4 0580
00000250: 0be5 2d3b c03f 16bc 6e17 213d 7bf4 7602
00000260: b9bb 1cbd 057f d33d a0b3 4b00 d210 b93d
00000270: da14 aabc 2319 5d11 79fa 92bd c323 003d
00000280: 99a7 0e3e 3427 2bbe 78ca 0600 75c5 3a3e
00000290: ff99 ccbd 3aa4 fe3d da5f 503e 5ac5 b190
000002a0: 51d4 2e3e f0a6 31be 52dc cc3d b0cf 8d16
000002b0: 68c0 0300 a756 d03b db0c 51bd 55d1 5a9d
000002c0: f630 0080 3f01 f69b ed1b 289c 4c49 0300
000002d0: 0a18 469d ebec 0000 0da6 0480 3d7a 009b
000002e0: 8859 3e9d e170 419d 70b4 0180 035d 0000
000002f0: eb8a 429d b3a3 8d9b 76ab fc9c 7a0b ff9c
00000300: 3aaf 0280 87c0 889d 3b9b 469b a670 7e9c
00000310: 24fc 0080 b04b 0380 a654 0400 99e7 0100
00000320: 0417 b43d c573 bd81 9e3d 1ebe 5d66 18bd
00000330: b89c 1d80 739c 1dbe c4ac 093c 7467 b490
00000340: 9dbf c13d 054e bdbc b914 093d b3d9 923d
00000350: 50ee 0080 d413 debb cb85 44be 1c4d 01bc
00000360: 7fe9 f4bc 4e23 1410 eacb e03d 5dce 44bd
00000370: 23e4 1ebe 104e 0680 c8ec 0480 a511 39bc
00000380: 6f7e e13c 54a3 6d89 f5a2 0380 63da 0e88
00000390: c9db 4c88 459b 0000 3ff3 5a89 30fe 0280
000003a0: a01b 0500 3223 b187 1aa9 4f89 50b2 4989
000003b0: 38ed 0600 bc3e 0300 e853 5489 4edc 4887
000003c0: db12 0689 a656 0f89 491a 0600 de9d 9a89
000003d0: b310 8784 40fb 9e88 92f9 0600 3d8b 0580
000003e0: 4c40 0100 47c9 0500

layer5.bias f4 [10]
-0.003173645 -6.78493e-39 0.17052121 -0.14863475 0.06903978 -0.0007915863 0.17298149 -5.829034e-22
0.04423751 -3.8300494e-34
00000000: edfc 4fbb a0e1 4980 1d9d 2e3e b533 18be
00000010: ba64 8d3d 7582 4fba 0f22 313e f72b 309c
00000020: 6432 353d ea8c fe87

layer6.weight f4 [1, 10]
7.608517e-05 -1.3045909e-37 0.20318136 0.019326027 0.1659463 0.0039981855 0.25801814 1.26385645e-20
-0.10745836 2.128199e-33
00000000: ea8f 9f38 5c92 3182 c60e 503e 9e51 9e3c
00000010: d4ed 293e 3603 833b f41a 843e 59bc 6e1e
00000020: 2113 dcbd c9cd 3009
