weights/_norm_btc_mlp.pth (torch_old, 164819 bytes, 11 tensors)

layer1.weight f4 [130, 161]
000000 66 a0 79 bd bd f7 a6 bb cf ef 99 bc 5c 9b 72 bc
       -0.060943983 -0.0050954507 -0.018791107 -0.014807548
000010 c1 17 8b bd 9b 4e 72 3c 99 c5 13 bd be 32 32 3d
       -0.0679164 0.014789249 -0.036077116 0.043505423
000020 28 9c 01 bd 8d a3 03 3d 33 98 ff bc 32 5e 15 3c
       -0.031643063 0.032138396 -0.031200504 0.009116696
000030 c9 e0 39 bb 66 4e 2e bd 4e 02 8f 3d b2 27 b8 bc
       -0.0028362742 -0.042555235 0.069828615 -0.022479866
000040 de 32 8d 3d 3d cd ca bc ae 43 5f 3c d7 7d 64 bd
       0.06894468 -0.024756068 0.013626976 -0.055784073
000050 80 47 c7 3a bc aa 3f 3d f0 b4 ab ba ae 24 50 bd
       0.0015203804 0.046793684 -0.0013100188 -0.05081623
000060 70 80 34 3c 66 e6 47 bc 4f cd 55 3d 47 82 62 3c
       0.01101695 -0.012200927 0.05219775 0.013825006
000070 71 11 e9 3c 5f 79 d4 bc 7d b3 66 bc 21 d3 42 3d
       0.0284507 -0.02593678 -0.014080879 0.04756463
000080 96 a8 54 3d 0d c3 22 bd e6 31 a0 bc f9 43 9d 3d
       0.05191859 -0.039736796 -0.019555043 0.076789804
000090 a8 b2 89 bd 7b bd 8d bc eb f1 a0 3d 27 f8 76 3d
       -0.06723529 -0.017302265 0.07858642 0.06029525
0000a0 d1 14 a0 3d 94 fa 8d bc 30 f9 7b 3d 22 7e 76 3c
       0.078164704 -0.017331399 0.06151694 0.015044721
0000b0 f8 3f 02 bd 53 96 04 bc 2c 11 9f 3d 59 77 0b 3d
       -0.031799287 -0.008092481 0.07766947 0.034049366
0000c0 73 f4 54 3d 5b f0 36 3d 6b cd 07 3d 8f 0d ad 3c
       0.051990937 0.044662815 0.033154886 0.02112463
0000d0 21 cb f5 38 71 69 48 bd 66 a4 97 3d d2 a6 e6 3b
       0.00011720346 -0.04892868 0.074044034 0.0070389295
0000e0 7b 30 20 3d 3b 12 74 3c fa b7 54 3d bf 0e 4a 3d
       0.039108735 0.014896925 0.051933266 0.04933047
0000f0 ed b6 38 bc 57 1d 81 3d 85 dc aa 3b e9 43 b4 bb
       -0.011274082 0.06304424 0.0052142763 -0.0055012596
000100 fd fc 2f 3d 43 d1 04 bd 04 18 15 3d ba 83 ea bc
       0.042965878 -0.03242613 0.036399856 -0.028627265
000110 b3 70 fe 3c 0c 6b 18 bd 8a ee 53 bc 3a f6 6e bd
       0.031059599 -0.037211463 -0.01293529 -0.05834029
000120 53 96 1d 3a d7 fd 8f 3d 71 a6 60 3c 18 5e 3b bc
       0.0006011475 0.07030838 0.013711558 -0.011436008
000130 6a ec 65 3d 26 49 98 bd f7 d1 85 3d 3d c2 9b bd
       0.056133665 -0.07435827 0.06534188 -0.076054074
000140 e1 5f 5d bb 87 a5 74 3d cc 3b 97 3d 37 aa b4 3b
       -0.0033779072 0.05972817 0.07384452 0.0055134553
000150 77 d7 32 3c 82 b6 9f 3d 05 1f f4 3b 4f 4b 24 bd
       0.010915629 0.077984825 0.007449987 -0.040110882
000160 6e f8 6f 3d fd ab b9 bb 33 e2 af b9 ea 35 60 bc
       0.05858653 -0.0056662546 -0.00033547133 -0.013684729
000170 83 77 a7 3d ef db c7 3c 98 2f 48 bd 92 c5 83 3d
       0.08177092 0.024396865 -0.048873514 0.06434168
000180 5b 58 40 bd 8b ec 3f bc 86 43 3a 3c 60 9d b1 3d
       -0.046959262 -0.011714111 0.011368638 0.08672595
000190 48 ea 8c 3d 1e ab 8f bd dd d0 12 bd 17 b1 3d 3d
       0.06880623 -0.0701506 -0.03584372 0.046311464
0001a0 bd 48 57 bd 60 79 70 bd 92 1a af 3c d7 08 99 3d
       -0.052559603 -0.058709502 0.021374974 0.07472389
0001b0 9b 0e 07 bd 73 e8 5c bd f8 84 68 bd 7e 59 52 bb
       -0.032972913 -0.05393262 -0.056767434 -0.0032096799
0001c0 cc 5d 55 bd 5c fa 19 3c 0b 0f 34 bd 5f 5a 71 bc
       -0.052091405 0.009398069 -0.04395966 -0.014731019
0001d0 ac 30 04 3c 46 cf 97 bc 9a e1 99 bd 16 59 ce 3b
       0.008068245 -0.018531453 -0.07513733 0.006297241
0001e0 4a a6 52 3d a1 07 19 3d 3c f9 c8 bc 9a 07 f8 3c
       0.051428117 0.03736079 -0.024532907 0.030277062
0001f0 e4 bd 92 bd 3e 45 75 bc c9 ee 3d 3c b6 dd 84 bd
       -0.07165125 -0.014970122 0.011592575 -0.064876005
000200 32 aa 50 3c 97 f5 53 bd ef 43 d1 bc 4e 86 4e 3d
       0.01273589 -0.051747885 -0.025545089 0.05042105
000210 07 6b 35 bd 28 7b 8f 3d 54 7e 40 bd 14 d2 ce bc
       -0.044291522 0.07005912 -0.046995476 -0.025246657
000220 0d 56 55 3d 2f f3 36 3c 91 9e e5 bc ae 21 39 bc
       0.052084018 0.011166378 -0.028029712 -0.011299534
000230 d5 10 9b 3d 3e 5d bb bb 88 82 87 3d 3c e2 39 bd
       0.0757157 -0.0057179024 0.06616694 -0.04538177
000240 18 35 23 bd 85 30 a4 3d d2 45 2b bd 69 44 da 3c
       -0.039845556 0.08017067 -0.041814633 0.026643949
000250 81 24 f4 bc 7d 49 a1 3d 0c de a6 3d 0f 74 7d 3d
       -0.029802563 0.07875345 0.08147821 0.06187826
000260 31 66 05 bc 4a 61 8b bd 3b cc 5b bd 5f 94 7d bc
       -0.00814204 -0.06805666 -0.053661566 -0.015477269
000270 47 95 28 3d 99 ed 7a bc 17 52 ab 3d 61 ce a8 bd
       0.041157987 -0.015315437 0.08365267 -0.08242489
000280 b2 27 97 3d bf 86 72 bd df bc 94 3b a2 1f 83 bd
       0.07380618 -0.059210535 0.0045391168 -0.06402518
000290 8a ab 1a 3d ab 6d 23 3d 1e bb 84 3a 02 2b d0 b9
       0.03776125 0.03989951 0.0010126566 -0.00039704895
0002a0 75 53 6a bd 6e 00 0f 3d cb 39 3f bc 4b da e2 bc
       -0.057208497 0.03491252 -0.011671494 -0.02769198
0002b0 7c 05 80 bc 9c 0e 97 3d 78 8f ab 3d cb 4b 35 3d
       -0.015627615 0.073758334 0.08376974 0.044261735
0002c0 07 99 6a 3d 8f df 5a 3d 5a ff 96 3d 85 5d 60 3c
       0.057274844 0.05343586 0.07372923 0.013694172
0002d0 e8 b5 b2 bb eb 7b ab 3c e4 99 4a 3c d2 f5 08 bd
       -0.005453814 0.020933112 0.012365792 -0.033437558
0002e0 7b 9e 6d bd eb dd 8c bd d7 11 7f 3d 9a 0e 7a 3b
       -0.058012467 -0.06878265 0.062272873 0.0038155676
0002f0 48 87 bd 3b 5f 3e 56 ba 66 f4 74 3d fa b6 8d bd
       0.005783949 -0.0008172746 0.05980339 -0.06919666
000300 04 8a 5c bd a0 04 73 bc bc 35 79 bc ce 9f 38 bd
       -0.05384256 -0.014832646 -0.015210565 -0.045074277
000310 dc a0 2e bd 4f 78 fb bc 4e a8 ab 3c c4 47 9b 3d
       -0.042633876 -0.030697016 0.020954277 0.075820476
000320 ac fc 9a 3d de c6 42 bd 5f 26 c8 bc 27 9c 7a 3c
       0.075677246 -0.047552936 -0.02443236 0.015296019
000330 d1 2e 8d 3d 27 7b 3b bd 14 ba f6 3c 68 7f 58 3d
       0.06893695 -0.045771744 0.030118026 0.05285588
000340 f2 ba 41 bd b5 20 21 3d ee 3c a3 3c 23 e0 18 3d
       -0.047297426 0.039337832 0.019926514 0.03732313
000350 1e f7 40 3d d6 00 3d 3d 4e e3 52 3d 22 dd 61 bd
       0.04711067 0.046143375 0.051486306 -0.05514253
000360 c5 ea 59 3c a2 d4 97 3c c2 63 25 3c da 66 27 bc
       0.013300602 0.018534008 0.010094585 -0.010217393
000370 3a 45 e5 3b 37 65 0c 3d c5 1f b1 3c e6 4b 60 bd
       0.006996778 0.034276213 0.021621594 -0.054759882
000380 3d a8 e1 bc b4 74 43 bd de 4e 72 3d 51 95 6c bd
       -0.027546043 -0.04771872 0.059157245 -0.057759587
000390 96 18 27 3d cf b0 aa 3b 91 4a 09 bd 25 5d 89 3c
       0.04079493 0.0052090655 -0.033518378 0.016768048
0003a0 39 2c e5 3c 8d 18 61 3d 47 59 d6 bc 3e 04 28 3b
       0.027975189 0.054955054 -0.026165618 0.0025637294
0003b0 c3 f9 77 3d c6 1b b2 3d 1c 81 3b 3d 92 59 9d bc
       0.060540926 0.086967036 0.045777425 -0.01920775
0003c0 6e 9d a2 3d 92 1f d0 bc 98 d2 fe bc ba 5c a9 3d
       0.079401836 -0.025405679 -0.031106278 0.08269639
0003d0 83 e8 39 3c 92 a5 5f bd ee fd be bc 42 12 d3 bb
       0.011346939 -0.05460126 -0.023314442 -0.0064413855
0003e0 b9 c5 85 3d 74 94 30 bd 91 84 ab 3d 9b ea 82 3c
       0.06531853 -0.043110326 0.083748944 0.01598101
0003f0 a0 cf d7 3c 96 2d 16 ba 0d 05 ea bc cd 05 ef 3c
       0.02634412 -0.0005728839 -0.028566862 0.02917757

layer1.bias f4 [130]
000000 c8 1b 8f bd a4 1b 5a 3d 12 f6 8a 3d 3d 63 44 bc
       -0.06987721 0.053249016 0.067852154 -0.011986551
000010 ad 04 33 3c ca 2e 04 80 7f 2d c5 3c b8 4b a3 bd
       0.010926408 -3.84127e-40 0.024069546 -0.079734266
000020 2c 75 ae bc 68 30 a9 bd 7d 6b 19 3d 31 57 00 bd
       -0.021296106 -0.08261186 0.037456024 -0.031333152
000030 29 36 08 3d f7 d9 27 3b 97 f4 5b bd ce 1a 99 3d
       0.033254776 0.0025612095 -0.053700056 0.07475816
000040 ed 06 0d 3d 38 2e 39 3d aa 96 7f bd 11 54 69 3d
       0.034430433 0.045210093 -0.062399544 0.056964938
000050 53 9e e0 3c fd 4b 7f bd 84 53 56 3d ec d1 76 bb
       0.027419245 -0.062328327 0.05232574 -0.0037661744
000060 1b dc 61 3d 30 96 a4 3d a5 c1 26 3c c6 8b 33 b9
       0.05514155 0.080364585 0.010178004 -0.0001712284
000070 6c a1 43 3c 68 27 60 3d 28 7b 35 3c e8 f1 0d 3d
       0.011940341 0.05472508 0.011076726 0.034654528
000080 6e 10 14 3d 4b 79 8f bd de 36 a0 3d a2 46 5d bb
       0.03614848 -0.07005557 0.07822965 -0.0033764024
000090 9e eb b8 3c 0e 06 55 3d 0c 6c 7f bd 0c 3a 67 3d
       0.022573289 0.052007727 -0.0623589 0.056451842
0000a0 56 f5 8f 3d 57 f7 ac bc 7a b7 7f 3d 5f 26 81 3c
       0.07029216 -0.021114035 0.062430836 0.015765367
0000b0 54 f4 34 bd 9e f5 da 3c 60 cb 0a bd b1 2d a6 ba
       -0.044178322 0.026728448 -0.03388536 -0.0012678412
0000c0 34 a7 4c bc 5c c8 93 bc c1 7f cb 3c 9b ca 03 80
       -0.012491036 -0.018039875 0.024841191 -3.48188e-40
0000d0 2d ae 20 bd 70 7e 47 bc e0 b1 88 3c 59 0b e2 3c
       -0.039228607 -0.012176141 0.01668638 0.027593302
0000e0 6e 67 d4 3c 0c 88 25 3d f1 1b 41 3d 13 dc 91 3d
       0.025928225 0.040412948 0.047145788 0.07122054
0000f0 51 00 75 bb 66 4d f5 bc 68 6b 2b bd b5 a0 28 3c
       -0.0037384222 -0.029944133 -0.041850477 0.010292222
000100 3c 67 82 3c 2e ec 33 3d 8f 0a 16 3c e6 7e 4a 3d
       0.015918367 0.04392641 0.009157791 0.049437426
000110 b5 31 77 bd c0 7e 07 80 e2 eb bd 3c 82 65 03 bb
       -0.06035014 -6.88318e-40 0.023183767 -0.0020049517
000120 f0 db 99 3d 1e c9 bc bc 98 f2 35 3d 1c 64 b2 3c
       0.07512653 -0.023045119 0.04442081 0.021776251
000130 b5 4e 03 80 07 03 a3 3d 71 c4 a4 3d 2d 52 28 bd
       -3.03741e-40 0.07959562 0.08045281 -0.041093994
000140 b1 03 11 3c 6e f0 b3 3d 50 b0 26 bc 49 4b 25 3d
       0.008850978 0.08786093 -0.010173872 0.040355
000150 36 21 cb 39 ba 61 18 3a 50 d1 a3 3d 1f 1f 6f b8
       0.0003874392 0.0005812902 0.079989076 -5.7011024e-05
000160 84 07 92 bd 2d 62 85 bd d6 f3 c7 3b 4a 79 37 3c
       -0.0713034 -0.06512866 0.0061020656 0.011198351
000170 84 79 5e 3d 5b 7a 80 3d 75 91 d4 3b 8b 96 34 bd
       0.054315105 0.062733375 0.0064870664 -0.04408888
000180 02 3f 5d bd 01 7d e1 3c fb a9 55 3d 0e ce 98 3d
       -0.054015167 0.027525427 0.05216406 0.07461177
000190 05 eb 82 bd e0 0f 5c bd 18 44 0b bd 95 12 db bc
       -0.06392483 -0.053726077 -0.034000486 -0.026742259
0001a0 73 f9 84 3c 2a d6 2a bd 18 61 28 bc 8c fe 44 bd
       0.016232228 -0.04170815 -0.010277055 -0.048094317
0001b0 85 c0 8a 3d e0 90 c0 85 5a 7b b6 85 e2 75 29 3c
       0.067750014 -1.8108812e-35 -1.716051e-35 0.010343047
0001c0 b0 e1 52 3d 19 b3 4d 3d 11 63 a0 bc b8 31 90 bc
       0.051484764 0.05021963 -0.019578489 -0.017601833
0001d0 1b 63 a1 bd 4d ae 99 3d 11 9c 47 3d a9 37 f4 bc
       -0.07880231 0.07503948 0.04873282 -0.029811697
0001e0 f8 a2 1c 80 b9 c9 4d bd 9a a5 65 3a 8d 9f 06 bd
       -2.629856e-39 -0.050241206 0.00087603333 -0.032867003
0001f0 4f b0 b5 82 06 d7 9c 3d 8c af cb bb c4 14 4a bd
       -2.6696756e-37 0.076582 -0.006215995 -0.04933621
000200 74 62 82 3d 77 7e 36 b0
       0.06366435 -6.639093e-10

layer2.weight f4 [100, 130]
000000 51 ee f2 bc e4 12 c0 3b ed 41 9d 3c cc 2c f1 3c
       -0.029654654 0.005861627 0.019196475 0.029440306
000010 57 31 9c bd 22 f9 06 80 0b 08 7e 3d 5a 6a 1a bc
       -0.07626598 -6.40385e-40 0.06201939 -0.00942477
000020 73 12 d7 3c 04 d9 91 3c 51 3c 83 3d 82 c3 1b 3d
       0.026253914 0.017803676 0.06407989 0.038028248
000030 2f 1c bd 3b 74 2b 62 3d 77 d8 85 bd c7 5e 2f 3d
       0.005771182 0.05521722 -0.06535428 0.042814996
000040 45 c7 a3 bb 9c 48 79 3d fd 3a 92 3d df 1a 15 bc
       -0.00499812 0.06086026 0.07140157 -0.009100645
000050 60 71 4a 3d 92 66 93 bd fb e6 81 bd 59 5f 1a 3d
       0.04942453 -0.07197298 -0.06342884 0.037688587
000060 6b 30 9c 3d 01 06 24 bd 6c 24 57 3d b7 d5 e9 38
       0.076264225 -0.04004479 0.05252497 0.00011150113
000070 d5 82 97 3d fa eb 6f 3b c6 48 ef bc b8 36 bb 3c
       0.07398001 0.003660916 -0.029209506 0.02285324
000080 0f b1 b3 3d 8b 8e 8d bd 5c fe 06 bc 38 a8 1d 3d
       0.087740056 -0.069119535 -0.008239355 0.038490504
000090 75 86 c9 3d 90 b4 bf 3d aa 71 a7 bd 59 1b 2c bd
       0.09840099 0.093606114 -0.081759766 -0.04201827
0000a0 5a a7 d5 bd 2e 66 78 3c 20 a0 d4 bb d6 77 67 3c
       -0.104323104 0.01516108 -0.006488815 0.014127692
0000b0 5a e8 da bc aa c5 0a bc d8 25 83 bd ea a4 bd bb
       -0.026722122 -0.008469978 -0.064037025 -0.0057874816
0000c0 7a 0d 80 3c 8e a9 f8 3c 57 ad 2b bd 4b 73 06 00
       0.015631426 0.030354287 -0.041913357 5.92372e-40
0000d0 c4 d7 d8 bc 57 a3 8f bd 86 ee 2c 3d 12 96 5d 3c
       -0.026470073 -0.070135765 0.04221966 0.013524549
0000e0 07 9f c5 3d f0 f9 2c bb c3 f2 17 bd 66 dc 3f 3d
       0.09649473 -0.0026394092 -0.03709675 0.046841048
0000f0 a4 79 43 3d 8e 7a fe 3c e8 81 b8 3d 53 34 12 3d
       0.047723427 0.031064298 0.09009153 0.03569443
000100 b2 3b fb bc 3d 68 66 3d 85 08 e0 3c 25 ef 38 3d
       -0.030668113 0.056251753 0.027347812 0.04514994
000110 01 d4 fe 3a 78 74 03 00 85 6a 9b 3c 08 df b7 3b
       0.0019441844 3.17288e-40 0.01897169 0.005611304
000120 3f f8 b8 3c 02 a5 8e 3d 54 e3 ac 3d 2a a3 98 bc
       0.02257931 0.069650665 0.08441797 -0.01863249
000130 62 28 06 00 37 22 c0 bc 15 12 b1 3d f2 74 09 bd
       5.655e-40 -0.023453815 0.08646027 -0.033558793
000140 c1 8d bc bd 65 54 cc bd e9 d0 24 3c 83 ac a5 3d
       -0.09206725 -0.099770345 0.010059574 0.080895446
000150 2d dd 70 3d 29 91 b2 3c 84 35 d8 bc f2 a8 c6 bd
       0.05880468 0.021797733 -0.026392706 -0.097001925
000160 e6 f8 95 3d d4 b5 46 3d 33 51 f7 3b cb c9 07 bd
       0.07322864 0.04851325 0.0075475215 -0.03315143
000170 1f a4 c5 3d 9d a2 75 bd 50 4e 6a bb 35 38 80 bd
       0.09650444 -0.059969533 -0.0035752244 -0.06260721
000180 04 db dd bc 94 b3 da bc 30 47 01 3d 26 49 94 3d
       -0.027081974 -0.026696958 0.03156203 0.072405145
000190 a5 6d bd 3d e8 5f 22 bc 3d f5 f1 3a 9d cb 6d 3d
       0.09249429 -0.009910561 0.0018459928 0.05805551
0001a0 cb b3 54 3d db f7 55 3d 7f c5 05 3c 57 24 c7 bc
       0.051929276 0.052238327 0.0081647625 -0.02430932
0001b0 2a 51 ad 3d f0 27 e8 04 8a b5 d0 84 a8 fb 4c 3c
       0.084627464 5.4579615e-36 -4.9067282e-36 0.012511171
0001c0 2f 45 d5 3d 83 2a 52 bd 29 d8 39 3d c3 02 db 3c
       0.10413586 -0.051310074 0.045372162 0.026734715
0001d0 b1 01 83 3c 00 6a a7 bc b7 52 b7 3c 41 12 69 3d
       0.015992017 -0.020436287 0.022378309 0.056902174
0001e0 88 7b 04 80 48 a7 ab bc a3 30 0f bd 62 af 88 3d
       -4.11657e-40 -0.02095379 -0.034958493 0.066740766
0001f0 c8 4d 03 00 ef 50 1a bd f5 cd b0 3c 76 9b 95 3d
       3.03409e-40 -0.03767484 0.021582583 0.073050424
000200 dd 57 9a ba 69 b7 5a 1c ea 0e 76 3b 78 b3 6a bb
       -0.0011775453 7.23672e-22 0.003754551 -0.0035812538
000210 77 b0 90 bb 65 36 12 ba f7 f4 c2 3a c8 df 04 80
       -0.0044155675 -0.00055775634 0.0014874031 -4.4762e-40
000220 f0 0d af 3a e0 85 d6 ba 97 0e 2f b9 6d 9d e3 bb
       0.0013355594 -0.0016366802 -0.00016694736 -0.006946257
000230 f8 f9 af bc 8c e1 55 3b 8d 46 76 bb 9c ea c7 3b
       -0.0214815 0.0032635657 -0.0037578673 0.0061009657
000240 5d d3 b1 b8 f5 36 1f bd 55 f7 60 3c 25 56 8e 3b
       -8.479387e-05 -0.03887077 0.013730844 0.0043437653
000250 9e 45 2f 3d 16 53 63 bc 77 09 18 3b 26 76 89 3c
       0.042791 -0.01387479 0.0023199 0.01677997
000260 cd 11 6d 3b dc 2b 13 b8 75 2e 04 3c 73 e9 64 bb
       0.003617394 -3.508838e-05 0.008067717 -0.0034929186
000270 d7 a7 49 bb a1 09 89 b9 74 82 cf bc 08 8e 16 3d
       -0.0030770206 -0.0002613785 -0.02533076 0.036756545
000280 36 44 8c bc 35 ab 86 bb 08 db 0d 3c 43 40 64 3b
       -0.01712237 -0.004109765 0.008658178 0.0034828342
000290 23 a5 22 bc 9b 27 38 3c f4 bb ad 3a 86 99 b4 3c
       -0.009927067 0.011239911 0.0013254867 0.022045862
0002a0 ba f5 7d b9 f7 85 ee ba fe 6f 07 bc a1 35 6f 3c
       -0.000242195 -0.0018197884 -0.008266447 0.0146001885
0002b0 0f 2f bd 3c ac 03 d6 3b 61 5d 61 39 98 f3 2f bc
       0.023093728 0.0065311994 0.00021492458 -0.01073923
0002c0 5c 76 83 bc 52 14 a1 b8 a0 ee 25 bc a4 93 0e 3c
       -0.01604765 -7.680863e-05 -0.010127693 0.008702192
0002d0 91 4b cb bb 8b af 04 00 b3 19 4f b9 6b 19 99 bc
       -0.0062040766 4.30315e-40 -0.00019750632 -0.018688878
0002e0 f4 e5 09 3c 33 16 5d bc f9 21 88 3b e1 a7 03 80
       0.0084166415 -0.013494062 0.0041544405 -3.3573e-40
0002f0 86 84 45 3c b2 8c 5a 3c 9e 51 9c 3c 08 64 1a 3c
       0.012055522 0.013339208 0.019081887 0.009423263
000300 78 15 ff bc 90 ae 60 ba 90 6b 94 bb a1 d6 a9 bc
       -0.031138167 -0.0008570934 -0.004529424 -0.020732226
000310 73 22 f0 ba 5d ed 48 3c ce 06 0e bb 00 89 04 80
       -0.0018320814 0.012263623 -0.0021671536 -4.16488e-40
000320 ac f6 83 bb 3c 4b c2 3a 13 d2 10 bc 37 fa b8 bc
       -0.0040272083 0.0014823447 -0.008839148 -0.02258025
000330 58 2a c1 bc dd af 52 3c 70 80 03 00 45 57 f3 3a
       -0.023579761 0.012859312 3.21581e-40 0.0018565437
000340 c7 5f 3d 3c 8a a8 b5 bc d3 2a 65 bc cd 74 4d bb
       0.01155848 -0.022175092 -0.013987261 -0.0031350136
000350 e4 77 f3 3b db 03 10 3d 6d 8f 52 bc 4a 8f cb 3b
       0.0074300636 0.035159927 -0.012851578 0.0062121497
000360 46 5a 39 bd ce 03 97 3b d4 0b 2a 3d 66 be 48 3c
       -0.045252107 0.004608608 0.041515186 0.012252426
000370 9a 98 15 3c 20 f9 03 bd bc 48 d1 3b 0a 09 d4 3c
       0.009130621 -0.032220006 0.0063868444 0.025883216
000380 4f bc 58 ba c5 6a 49 3c 60 7a 60 bb a6 26 df b9
       -0.0008267806 0.012293522 -0.0034252629 -0.0004256267
000390 7f 77 20 3c e8 72 36 3a 8b a8 46 3a 3f 4e a4 bc
       0.009794115 0.00069598714 0.00075782154 -0.020056842
0003a0 ee 81 c4 bb 33 c3 00 bc 99 78 a4 b9 2a e2 00 3c
       -0.005996934 -0.007859039 -0.0003137037 0.007866422
0003b0 94 44 b9 bb 13 9b fd 3a e7 d0 37 3d 58 6f 01 00
       -0.005653927 0.0019348584 0.04487696 1.31778e-40
0003c0 68 27 02 80 fd c6 3c 3b e8 a8 c5 3a e8 e1 0f bc
       -1.97807e-40 0.002880513 0.0015080245 -0.008781888
0003d0 06 56 c9 b8 0b 49 33 3a b1 68 ff 3b e6 2d 8b bc
       -9.60045e-05 0.00068391924 0.0077944626 -0.01698966
0003e0 59 db 08 bc a4 e1 f0 b7 10 f7 00 80 00 16 66 ba
       -0.008353078 -2.8715302e-05 -8.863e-41 -0.0008777082
0003f0 b5 9a 32 bd ba 70 f4 3a 8f 34 04 80 aa 58 10 bb
       -0.04360457 0.0018649318 -3.86196e-40 -0.0022025504

layer2.bias f4 [100]
000000 46 38 95 3d a5 31 ff b9 6d da 35 3d 83 b5 7f 3d
       0.07286124 -0.00048674378 0.04439776 0.062428962
000010 de ad f6 3c e8 b6 02 80 ae fa 34 bd 6c 29 fb 3c
       0.030112203 -2.49285e-40 -0.04418438 0.0306594
000020 2d 31 6c bd 13 b6 95 bd 4c 47 94 bc f6 02 86 3c
       -0.057664085 -0.073101185 -0.018100403 0.016358834
000030 04 e4 5c bd 6b 4c 78 3c d5 d4 42 b8 d9 78 a4 bd
       -0.05392839 0.015154938 -4.645142e-05 -0.08030862
000040 f5 e4 c4 3c 42 f8 96 3b cc 6f 8f 8a fa 13 aa a1
       0.024034956 0.0046072314 -1.3812452e-32 -1.1524936e-18
000050 17 2c 47 bd d8 0e 1a bd e7 14 10 3d b4 49 dc bc
       -0.04862603 -0.037611812 0.035176184 -0.026890613
000060 cc 18 76 3d 42 08 8c 3d 3f b4 ad 3d 28 75 7c bb
       0.060082242 0.068375126 0.08481645 -0.003852198
000070 d6 ea 8a bd 93 cf 3c 3c bf 39 00 bc 24 50 c5 3b
       -0.06783073 0.011524099 -0.007826268 0.0060215164
000080 ed 04 8a b7 52 cb 02 3c e3 8e 9f 3d 6f 3e 70 3d
       -1.6453176e-05 0.007983046 0.07790925 0.05865329
000090 63 2e 9f bd e0 80 2a ba 88 a6 ec ba 84 04 20 3c
       -0.077725194 -0.0006504189 -0.0018055001 0.009766702
0000a0 17 76 42 86 54 03 02 80 fe e6 1a 3c 3b 2c 4e bd
       -3.6574103e-35 -1.84865e-40 0.009454487 -0.05033515
0000b0 bc 43 a2 bd 0f cb 96 88 3c 1e d6 3c f6 7b 11 8d
       -0.079230756 -9.0755355e-34 0.026137464 -4.4830787e-31
0000c0 30 4e 68 3d 74 99 5e 8b c7 9a f0 3c 5c 6d a9 3b
       0.05671519 -4.287109e-32 0.029370679 0.0051705074
0000d0 c9 08 b2 3c 6a d6 bd 3d 83 fc 36 bd 4f ec 8d bd
       0.021732705 0.09269412 -0.044674408 -0.06929838
0000e0 a4 4e 5d 84 28 a5 3a 80 e4 f9 ab 3a 21 8b c8 bc
       -2.6014535e-36 -5.385706e-39 0.0013120738 -0.024480404
0000f0 4b 25 96 3d 49 fb 74 bd 98 75 2c 80 c4 d3 aa 3d
       0.07331332 -0.059809957 -4.082947e-39 0.08341172
000100 c0 d4 91 a0 0d ee 80 3d 77 df 23 3d 36 c5 46 84
       -2.4704742e-19 0.062954046 0.040008035 -2.3365343e-36
000110 9f 61 df b4 4c d0 4b 3d c4 54 76 3c 93 b0 b7 9d
       -4.1608016e-07 0.049759194 0.015034858 -4.862227e-21
000120 54 8b 97 bd 78 d1 fc 3c 7e 20 c9 3c d3 6c 16 3c
       -0.073996216 0.030861601 0.024551626 0.009181219
000130 4b ed 91 82 1a 1a 59 bd af be a7 3d db 5f b0 bb
       -2.1442035e-37 -0.053003408 0.08190667 -0.0053825206
000140 54 3a 50 3d de 4f 87 bd 0e 53 a6 bd ba 0e 44 3d
       0.050836876 -0.0660703 -0.0812131 0.047865607
000150 f8 3a 18 bd 93 70 93 bb 0e e5 33 82 80 ed 4e 3c
       -0.037165612 -0.004499504 -1.3216579e-37 0.012629867
000160 a2 0b a5 3d a1 df 7b 3d bf 49 67 3d 27 b3 85 bd
       0.080588594 0.061492566 0.056466814 -0.06528311
000170 ba 33 12 8d 9e 87 91 bd 57 19 23 3d 21 ca 12 8f
       -4.5051987e-31 -0.07105945 0.039819088 -7.237284e-30
000180 20 e7 09 3c ca 8d 5d 3c 66 b3 9b 8b 78 dc 62 3c
       0.008416921 0.013522575 -5.9973757e-32 0.013846509

layer3.weight f4 [50, 100]
000000 de c6 43 3d ac d2 fb 3a 0c d6 be 3d 84 8b f0 bc
       0.047797076 0.0019212565 0.0931817 -0.029363401
000010 5f 44 37 3c a8 18 01 00 40 3f 24 bc f6 70 45 bd
       0.0111857345 1.0068e-40 -0.010024846 -0.04820343
000020 1c 0f a7 3d 68 95 b0 bc f7 ab b7 3d f8 f1 0c 3d
       0.08157179 -0.021555617 0.089683466 0.034410447
000030 0f 62 d6 3d 67 80 3c bd 31 87 37 b8 65 80 c1 3b
       0.10467922 -0.04602089 -4.3756507e-05 0.0059051984
000040 05 f4 29 3d 21 31 a7 bd 3a 30 61 0a e2 3a 85 a1
       0.04149248 -0.081636675 1.0842426e-32 -9.028017e-19
000050 8b 09 c5 3d 85 05 b5 bc e5 95 f7 bb d2 98 4e bd
       0.09620961 -0.022097358 -0.0075557106 -0.05043871
000060 fe 21 1c 3d be 23 d6 bd 2b 7e df bc 17 31 25 bc
       0.038118355 -0.10456036 -0.027281841 -0.010082505
000070 4c c2 22 3c 30 55 10 3d 03 a1 11 3c 52 87 be bc
       0.009934019 0.03523749 0.008888486 -0.023257885
000080 12 93 1b 37 3c 99 32 bd e2 c7 68 3d 95 a8 6f bd
       9.272962e-06 -0.043603167 0.056831248 -0.05851038
000090 e3 5f 9c bd fa 8b 3c 3d 17 b3 d5 bd f6 c0 96 3d
       -0.076354764 0.04603193 -0.10434549 0.07361023
0000a0 7e 49 76 85 97 bf 03 80 07 09 76 3d 30 f5 b5 bd
       -1.1580363e-35 -3.44236e-40 0.060067203 -0.088846564
0000b0 32 83 8e 3d 58 b0 81 08 98 c4 31 3d da 79 12 0d
       0.06958617 7.805363e-34 0.043400377 4.5136397e-31
0000c0 94 1e 5d bd 03 1b 23 0b eb 05 d8 bb 61 49 1d bc
       -0.05398424 3.141298e-32 -0.0065925024 -0.009600014
0000d0 89 6c 97 3d d5 1f 59 bd d7 d7 b9 3d ae fa 29 3d
       0.07393748 -0.053008873 0.09074371 0.041498832
0000e0 6a fc 39 04 48 8d 18 80 02 22 0a bb 17 05 84 3d
       2.1862548e-36 -2.254734e-39 -0.00210774 0.06446283
0000f0 18 b6 be bc bc 6c 57 3c 4a f9 8c 81 e6 c8 86 3d
       -0.023280188 0.013148483 -5.178559e-38 0.06581287
000100 60 6a 32 a1 2c 57 5d bb 16 f7 6b 3d fd 5d 27 04
       -6.044953e-19 -0.0033773882 0.057608686 1.9673913e-36
000110 ff 41 e6 ad ef d1 c7 bc 5c 8c b1 3d 88 a5 d3 9c
       -2.617728e-11 -0.024392096 0.086693496 -1.4005598e-21
000120 6c 4d ba 3d f9 1b d0 3c 49 a1 88 3d f7 aa c3 bc
       0.09096798 0.025403963 0.06671388 -0.023885233
000130 18 0f 2c 01 5f b2 5d 3d 94 a3 10 bb 89 b6 83 3d
       3.160224e-38 0.054125186 -0.0022070156 0.064313
000140 56 85 c7 3c d4 41 12 3d 15 41 2a 3d 8b 56 a5 3d
       0.024355572 0.03570731 0.041565973 0.080731474
000150 6c ce 62 3d 6e da 53 bc a5 83 05 00 4f a2 81 bd
       0.05537264 -0.012930496 5.06403e-40 -0.06329786
000160 6d 1e 05 3d 93 91 aa 3d 1d 65 4c 3d c4 ed bd bb
       0.03249972 0.08328547 0.049901117 -0.005796166
000170 58 df d1 8b d5 9f d8 3d 2a 7f 8b 3c 08 4a e5 0e
       -8.083992e-32 0.105773605 0.01702841 5.6524148e-30
000180 45 55 1b 3c e9 5c 4f bd d8 58 74 8b c8 fc 11 3d
       0.009480779 -0.050625715 -4.705953e-32 0.03564146
000190 d0 9f ec 85 32 3b d6 82 52 41 7b 85 18 28 6a 84
       -2.2252039e-35 -3.147845e-37 -1.1813961e-35 -2.7524978e-36
0001a0 2b bd 1c 85 a6 ea 03 00 16 8d 41 84 36 fc 42 85
       -7.3698294e-36 3.59682e-40 -2.2751824e-36 -9.16816e-36
0001b0 ba 7c fc 84 69 fb ce 84 be 39 a3 85 83 bb 38 84
       -5.935946e-36 -4.866125e-36 -1.5349657e-35 -2.1715197e-36
0001c0 05 68 86 85 71 50 3d 84 9e e7 00 00 6f 95 79 85
       -1.263951e-35 -2.225378e-36 8.3089e-41 -1.173537e-35
0001d0 9e ee 40 85 fc 28 e6 84 9e cf 03 80 1a f2 03 00
       -9.071624e-36 -5.411038e-36 -3.49986e-40 3.62356e-40
0001e0 94 1b ff 85 10 a7 00 80 be 8e 04 80 19 63 88 84
       -2.3990215e-35 -5.9931e-41 -4.18548e-40 -3.2064453e-36
0001f0 bb 67 dd 84 43 1d 47 84 38 8a f3 84 0b ff 80 82
       -5.205211e-36 -2.3405774e-36 -5.725596e-36 -1.8954297e-37
000200 ae b1 84 85 c1 0d 01 80 d9 26 88 85 e8 74 06 80
       -1.247849e-35 -9.677e-41 -1.2803649e-35 -5.92951e-40
000210 7b b9 01 80 a1 41 32 85 5d 54 92 85 f2 4a d9 85
       -1.58373e-40 -8.381574e-36 -1.3760764e-35 -2.0434112e-35
000220 23 6d 8e 84 71 22 3f 85 ca 84 7a 84 ff 54 ac 85
       -3.3484266e-36 -8.987103e-36 -2.9448333e-36 -1.6206025e-35
000230 66 f0 06 00 57 ab 06 00 55 91 24 84 3f 3c aa 83
       6.37252e-40 6.12478e-40 -1.934484e-36 -1.0005534e-36
000240 93 ba 48 85 8a 7c 00 00 36 99 9a 84 b5 d5 01 80
       -9.438223e-36 4.4676e-41 -3.6345928e-36 -1.68499e-40
000250 24 00 03 00 ef 57 05 00 87 76 68 85 98 e2 af 82
       2.75557e-40 4.90722e-40 -1.09303576e-35 -2.5843997e-37
000260 4f 56 e3 85 f7 5d 00 00 e6 76 e8 83 c3 20 05 80
       -2.1378682e-35 3.3708e-41 -1.3663032e-36 -4.7093e-40
000270 9f 25 06 00 93 e9 00 80 a7 28 04 80 4b ca fc 84
       5.64509e-40 -8.379e-41 -3.81925e-40 -5.9430692e-36
000280 42 04 00 80 35 25 87 85 2f ac 03 00 7e 15 31 84
       -1.527e-42 -1.2709007e-35 3.37274e-40 -2.0816119e-36
000290 4d 75 04 00 4d 76 04 00 6a 4f ec 82 ed ca 02 80
       4.09422e-40 4.0978e-40 -3.4722665e-37 -2.56467e-40
0002a0 2f 1f 04 80 a8 03 05 00 de a9 02 80 04 ac 01 00
       -3.78529e-40 4.60489e-40 -2.44608e-40 1.53543e-40
0002b0 2f e1 91 84 89 db af 85 bb 47 21 85 bd 70 23 83
       -3.4296135e-36 -1.6537565e-35 -7.5833584e-36 -4.803081e-37
0002c0 00 49 03 00 fe 45 d0 85 7a 5b 50 85 17 be 36 85
       3.01694e-40 -1.9585937e-35 -9.7969146e-36 -8.592513e-36
0002d0 18 ca ac 83 7c 6c be 84 65 13 c2 85 fc f6 a0 85
       -1.015565e-36 -4.4768412e-36 -1.8250797e-35 -1.5137055e-35
0002e0 8e 6a 00 85 4b 98 00 00 c1 51 03 80 74 eb bb 83
       -6.038102e-36 5.4632e-41 -3.04834e-40 -1.104493e-36
0002f0 fc 98 92 85 70 9e 04 80 78 8a af 84 38 95 d2 85
       -1.3785972e-35 -4.24179e-40 -4.1269466e-36 -1.980312e-35
000300 84 d1 05 80 aa 11 b2 84 84 86 6a 85 e0 33 06 80
       -5.34338e-40 -4.186382e-36 -1.1027334e-35 -5.69622e-40
000310 2b b2 9a 85 b0 ee 93 85 b5 ad 04 80 6f b7 32 84
       -1.4547539e-35 -1.3911494e-35 -4.29656e-40 -2.1008028e-36
000320 7e df 05 83 18 f6 06 80 42 09 7e 82 e0 4b 85 81
       -3.9341744e-37 -6.39295e-40 -1.866363e-37 -4.896536e-38
000330 1f 81 45 82 24 68 04 00 d8 f8 46 81 cc dc 44 82
       -1.451033e-37 4.047e-40 -3.6545393e-38 -1.4463171e-37
000340 6a 2c 02 82 6c 4f 14 82 73 27 b3 82 70 a7 22 81
       -9.563638e-38 -1.0896116e-37 -2.6324329e-37 -2.987483e-38
000350 96 e6 74 82 a0 7b 24 81 57 16 01 80 72 b3 5e 82
       -1.7992464e-37 -3.021074e-38 -9.985e-41 -1.6361482e-37
000360 24 6a 57 82 ec 59 0d 82 db c5 04 00 e0 35 06 80
       -1.5826166e-37 -1.038485e-37 4.38319e-40 -5.7034e-40
000370 19 bb 0d 83 04 22 01 80 9e d4 00 00 c4 2b 98 81
       -4.1650953e-37 -1.04038e-40 7.6273e-41 -5.589878e-38
000380 d4 dd c8 81 e4 3f b5 81 85 35 10 82 88 58 26 80
       -7.3786705e-38 -6.658058e-38 -1.0594809e-37 -3.521508e-39
000390 dc ac 8f 82 70 22 04 00 37 6d 9e 82 58 1c 06 00
       -2.1111178e-37 3.79696e-40 -2.32787e-37 5.61181e-40
0003a0 bf ad 05 00 83 56 5b 82 b1 2f b1 82 e4 ee f0 82
       5.21506e-40 -1.6114407e-37 -2.6035186e-37 -3.5401947e-37
0003b0 a8 2b e4 81 1e e3 4a 82 d8 ce 80 81 0a e5 b0 82
       -8.3816616e-38 -1.4905796e-37 -4.731658e-38 -2.5992338e-37
0003c0 8a 09 02 80 4f b5 01 00 00 32 5d 81 3c c3 83 81
       -1.87093e-40 1.56877e-40 -4.0627163e-38 -4.840195e-38
0003d0 b3 ca 68 82 cd 40 00 00 60 65 ca 80 d3 79 03 80
       -1.710284e-37 2.3246e-41 -1.8587137e-38 -3.19209e-40
0003e0 80 18 01 80 e7 a4 00 80 ea 02 80 82 18 77 81 80
       -1.00624e-40 -5.9156e-41 -1.8809582e-37 -1.1889502e-38
0003f0 3e c4 03 83 90 32 01 00 48 55 00 00 b8 06 37 80
       -3.8722715e-37 1.09974e-40 3.0593e-41 -5.053363e-39

layer3.bias f4 [50]
000000 0e 7b 71 3d 02 85 ab 84 12 fa 8c 81 96 d0 b4 3c
       0.058955245 -4.0324055e-36 -5.178671e-38 0.022072118
000010 b0 8a 74 3c 68 f2 54 80 e9 68 15 3d 0e f1 29 3d
       0.014925644 -7.80114e-39 0.036477003 0.041489653
000020 eb b2 48 3d 70 bd 4f 84 c2 bb ca bd e8 32 97 3d
       0.048998754 -2.4419718e-36 -0.09899093 0.073827565
000030 35 e6 8f 3d a1 c9 1c 3b 36 69 c6 3d ff 65 28 3d
       0.070263304 0.002392389 0.09688036 0.041112896
000040 e7 2b 07 92 d5 92 ad 84 cd 30 84 bd 5f c9 10 96
       -4.2652603e-28 -4.080695e-36 -0.064546205 -1.1695769e-25
000050 21 cf 93 3d bc 6d a3 3c c8 f4 ba 80 7c 01 f6 9b
       0.07217241 0.019949786 -1.7169213e-38 -4.0698245e-22
000060 a8 08 01 00 72 63 6d bd 26 e4 0f 80 74 be eb 90
       9.4941e-41 -0.057956167 -1.459377e-39 -9.2984596e-29
000070 a9 a5 35 bc f8 0f 8b 3c b9 2c b0 8f 22 f1 a1 bd
       -0.01108686 0.016975388 -1.7372166e-29 -0.079073206
000080 7c aa 3e bc 67 67 87 3d 30 69 87 bb 85 67 73 bd
       -0.011637326 0.06611519 -0.0041324124 -0.059424896
000090 f3 b9 48 39 82 60 33 ba 42 3c d4 bb 5c 83 32 85
       0.00019142758 -0.0006842689 -0.00647691 -8.393647e-36
0000a0 38 50 7a 81 3c cf ad bd 3c f7 52 bc 75 bd 57 bc
       -4.5975302e-38 -0.084867924 -0.012876328 -0.013167729
0000b0 76 90 08 3d 6a 2b d2 bc b1 64 a1 3d 67 4f 1e 3d
       0.033340894 -0.025655467 0.078805335 0.038649943
0000c0 2d b4 85 3c a7 67 d3 bc
       0.016321266 -0.025806261

layer4.weight f4 [25, 50]
000000 dc 1b 70 bd ce e2 04 80 82 11 06 80 93 27 f4 3b
       -0.05862032 -4.48704e-40 -5.57294e-40 0.0074510067
000010 68 79 45 bb 25 bd 01 80 3d 1f a0 3b d6 e1 f3 3c
       -0.0030132178 -1.59688e-40 0.0048865364 0.029770773
000020 93 ec 9b bc 1d b1 03 80 f7 6e f8 bb 09 67 6a 3d
       -0.019033706 -3.39043e-40 -0.0075815874 0.05722717
000030 b4 f1 85 bb e7 77 c3 3b 05 3a 4b 3c 74 96 7b 3a
       -0.004087651 0.005965221 0.01240397 0.00095973094
000040 b5 a0 02 80 16 c0 10 84 5d f3 41 bd f0 8e 03 80
       -2.41322e-40 -1.701532e-36 -0.04735123 -3.26783e-40
000050 de e3 8f bc 94 59 e6 3b 46 45 01 80 b5 5f 83 1b
       -0.01756471 0.0070297215 -1.16686e-40 2.1733981e-22
000060 28 77 00 00 a6 f9 aa bb 00 08 04 00 58 fb 01 00
       4.2745e-41 -0.0052177487 3.70212e-40 1.82e-40
000070 1d dc cd 3c d5 72 49 bc ac 2d 05 00 5f 30 a6 bb
       0.025129372 -0.0122954445 4.75561e-40 -0.0050716843
000080 30 53 d4 bc e4 27 0b 3b 5d 4f 2c ba df 50 81 3c
       -0.025918573 0.0021233493 -0.00065731053 0.015785633
000090 98 ca 32 3c 6f a1 f3 3a 61 ab 49 3c 30 f0 06 00
       0.01091256 0.001858754 0.012308926 6.37176e-40
0000a0 d8 16 c8 80 0b 48 09 3b 8f 17 05 00 37 be 58 bc
       -1.8375294e-38 0.0020947482 4.67629e-40 -0.0132289445
0000b0 9b a0 0a 3c 6a d3 7e ba 3c 8d 4f 3b cd e5 0d 3b
       0.008461143 -0.0009720834 0.0031669876 0.0021651865
0000c0 49 86 f1 bc 5b 39 5b 3d 65 9c a1 3d b3 34 05 80
       -0.029482977 0.053521495 0.07891158 -4.78082e-40
0000d0 c8 35 06 00 5e 9f d0 3c f9 9e a3 3d 00 85 06 80
       5.70306e-40 0.025466617 0.07989306 -5.98724e-40
0000e0 aa 8d 72 3d ba 00 20 bd 1e ab 0b bd e8 03 02 00
       0.059217133 -0.039063193 -0.034098737 1.85072e-40
0000f0 8a d6 49 bc b9 8c cd 3d b8 02 32 3d 5f 52 f5 bd
       -0.0123192165 0.10036606 0.043459624 -0.11978602
000100 9b 6c ea bc 9a 51 1e bd fa 83 ff 8c 8c 6c 81 84
       -0.02861624 -0.03865204 -3.9368401e-31 -3.042744e-36
000110 70 1a d0 bc 70 5c 00 00 59 a5 a3 bd 0d 23 d9 bd
       -0.025403231 3.316e-41 -0.07990522 -0.106023885
000120 10 d7 06 80 f0 86 f4 1b 28 d0 03 00 ae 07 3f 3d
       -6.28163e-40 4.0453615e-22 3.50179e-40 0.046638183
000130 33 54 00 00 d0 fd 06 00 dc b7 b6 bd 69 8d c1 bb
       3.0205e-41 6.42064e-40 -0.08921787 -0.00590675
000140 90 80 a7 14 4b d2 ba 3d b2 93 83 3d 80 bc f2 3d
       1.69134e-26 0.091221415 0.06424655 0.1185236
000150 db 51 8f 3d 87 17 04 bd 59 e9 5e 3b 44 27 5f 3b
       0.069980346 -0.032249 0.0034013598 0.0034050504
000160 87 93 e9 bb 38 0e 03 00 34 5b 32 81 82 d6 38 bc
       -0.0071281823 2.80607e-40 -3.2758872e-38 -0.011281611
000170 43 cb 05 80 f0 00 64 bc 9d ac f0 bd 0b 15 c4 3d
       -5.32094e-40 -0.013916239 -0.11751673 0.09574326
000180 6a df ac 3d ff 01 12 bd 09 7c f9 bc 55 2c 2b bb
       0.0844105 -0.035646435 -0.030454652 -0.0026118953
000190 75 bd 13 3c fd e0 00 80 bc 8f 02 00 97 73 92 3c
       0.009017338 -8.071e-41 2.35233e-40 0.017877383
0001a0 ef 07 bc 3c 05 a0 03 00 98 ef 37 3b 40 5e 12 bc
       0.022953002 3.3291e-40 0.0028066393 -0.008933604
0001b0 1b c3 1c bd 40 43 04 00 a1 07 83 bc 71 fb c4 3b
       -0.038272005 3.91467e-40 -0.015994849 0.0060114195
0001c0 f8 3c 56 bc 60 d6 c3 bc a0 de 57 3d 45 ea 1b bb
       -0.0130760595 -0.023905933 0.052702546 -0.0023790759
0001d0 02 b1 02 80 b8 da ba 84 eb 42 7e bd f0 e5 01 00
       -2.4717e-40 -4.392925e-36 -0.062075537 1.74322e-40
0001e0 49 c9 9d 3c 25 0f ab ba 2d 7e 04 80 6a 95 2b 1c
       0.01926102 -0.0013050778 -4.12605e-40 5.6772267e-22
0001f0 70 a4 05 00 e2 4c a1 bc ad 88 02 80 b8 d8 03 00
       5.18167e-40 -0.01968998 -2.32701e-40 3.5325e-40
000200 57 ce 3a bd 72 68 95 3d f3 d0 7e 19 37 23 9b 3b
       -0.045606937 0.07295312 1.3173689e-23 0.0047344225
000210 48 de 61 bd 1b 56 38 bd 67 3b 2e 3c b7 ae d0 38
       -0.055143625 -0.04500399 0.01063428 9.950756e-05
000220 6c 66 a1 3c 2f a8 7e b9 76 69 8d 3c b8 b5 01 00
       0.019702159 -0.00024285981 0.017262202 1.57024e-40
000230 0a ff 80 81 50 06 d7 3a 45 a0 00 80 f3 7b 0f 3b
       -4.7385737e-38 0.001640508 -5.7494e-41 0.0021893948
000240 f8 33 5c bd c2 b7 09 3c 12 db 9b bc 6e aa 71 3c
       -0.0537605 0.008405628 -0.01902536 0.014750106
000250 bb 59 07 bd a7 2d a5 3b 91 f6 a4 3d e4 c7 ba 03
       -0.033044558 0.0050408426 0.08054841 1.097799e-36
000260 28 7e 01 01 f4 9d a6 3b d2 35 1f 3e 58 f9 89 00
       2.378407e-38 0.0050847474 0.15547875 1.267091e-38
000270 56 c0 44 3d f7 bb f5 3d 25 6d 9d 3d 43 55 a3 04
       0.04803499 0.11998742 0.07686833 3.8399416e-36
000280 75 43 f2 3d 5f 3c e5 bd de e6 97 bd 02 34 05 3e
       0.11829273 -0.111931555 -0.07417081 0.1300812
000290 c0 74 6b bd e2 31 a3 3c 10 4c c6 92 35 66 f1 84
       -0.05748439 0.019921247 -1.2514308e-27 -5.675269e-36
0002a0 e9 86 f5 3d 54 99 a8 96 67 6f 63 3d 04 de db bd
       0.11988623 -2.7238628e-25 0.055526163 -0.107357055
0002b0 00 8d 76 81 ef 4e 36 1c 10 cf 05 00 15 3e 98 bd
       -4.5284227e-38 6.032077e-22 5.33458e-40 -0.07433716
0002c0 51 a3 01 80 c7 7c 27 91 94 35 3c 3d 00 0e 04 3e
       -1.50422e-40 -1.3212427e-28 0.045949534 0.12895966
0002d0 3e 45 82 1e 6e 9d 17 3e 2e 21 b7 3a 94 11 b2 bd
       1.3792923e-20 0.14806148 0.001397168 -0.08694759
0002e0 2c cb c6 3c 14 38 c2 3d 22 fa 87 3b bc c8 27 b8
       0.024266802 0.09483352 0.004149691 -4.000285e-05
0002f0 e3 ff 9e bd cd f3 a5 07 e8 b0 a5 81 00 06 0b 3e
       -0.0776365 2.4969734e-34 -6.0865275e-38 0.13576508
000300 b5 2c 14 3a 03 60 0c 3e 70 73 3f 3d 61 72 92 3b
       0.0005652414 0.137085 0.04674095 0.0044692014
000310 4b bb 0e 3e f7 40 49 bd 8f 6a bf 3d f6 1e 06 3d
       0.13938634 -0.04913422 0.09346496 0.03274437
000320 c4 e1 ea b3 24 a3 02 80 a7 6c 03 80 eb c8 62 aa
       -1.0937541e-07 -2.42195e-40 -3.14484e-40 -2.014254e-13
000330 6d b2 37 b0 0d 0b 00 00 4f 7b 6e b0 f4 1b c6 b2
       -6.682857e-10 3.964e-42 -8.675913e-10 -2.3062945e-08
000340 45 6f 4f b2 8d 3b 04 80 2c eb 02 00 ce ee 8e b1
       -1.2074286e-08 -3.88705e-40 2.68035e-40 -4.159893e-09
000350 f2 17 35 b2 c0 df 90 b1 19 df 0f b1 92 46 06 b2
       -1.0541031e-08 -4.216389e-09 -2.0936055e-09 -7.815872e-09
000360 86 66 01 00 59 5a 04 00 b2 07 96 b1 2e a4 06 00
       1.28614e-40 3.99753e-40 -4.3664494e-09 6.0991e-40
000370 88 fc 81 ae dc 9d 87 b0 8e 9c 01 80 d5 71 02 00
       -5.9110994e-11 -9.867409e-10 -1.47997e-40 2.24506e-40
000380 07 c5 02 00 c7 8e 7e b2 9c 5c 03 80 b6 01 07 80
       2.54351e-40 -1.481721e-08 -3.08728e-40 -6.43462e-40
000390 c1 23 8d b0 40 e3 29 b5 16 40 01 80 ff 60 67 b2
       -1.0269262e-09 -6.32881e-07 -1.14825e-40 -1.3468024e-08
0003a0 60 4e 4d b2 be 2b ca af 44 0f 70 b1 c0 60 97 b6
       -1.1950391e-08 -3.6774667e-10 -3.4933274e-09 -4.511414e-06
0003b0 25 6b ff a9 38 ba b3 a8 f9 cc 77 aa c5 f1 06 00
       -1.13428615e-13 -1.9953752e-14 -2.2009121e-13 6.37744e-40
0003c0 d9 b7 04 00 87 dc 03 00 b3 26 02 80 04 d7 fd b1
       4.33294e-40 3.54617e-40 -1.97554e-40 -7.3877136e-09
0003d0 41 c1 67 b3 3d dc 89 b0 54 63 52 ae db 06 5e ac
       -5.3959642e-08 -1.0030657e-09 -4.7836693e-11 -3.1551903e-12
0003e0 1c 90 4d b0 16 76 13 b4 5c 54 17 3e 95 53 cb 03
       -7.478336e-10 -1.3733401e-07 0.14778274 1.1950457e-36
0003f0 88 a5 29 01 04 6d 91 3d ee 15 f9 3d f0 05 96 00
       3.115916e-38 0.07100871 0.12162386 1.3777454e-38

layer4.bias f4 [25]
000000 66 db d2 3c 79 eb 51 bd d1 e5 b6 3d 9a 28 80 bc
       0.025739383 -0.051249955 0.08930553 -0.01564436
000010 9e 49 b2 36 d4 1e e0 3d 7a 49 4c bc ef 6f 02 86
       5.3133836e-06 0.1094338 -0.01246869 -2.4532518e-35
000020 e4 9d 9e 95 20 be a5 bd 5a ab 01 3e 02 53 2c bd
       -6.40648e-26 -0.08092904 0.12663022 -0.04207135
000030 36 c0 22 bb 8e 90 d1 3d 2b 7d 88 8a e4 6d 05 bc
       -0.0024833805 0.1023265 -1.3143407e-32 -0.008143876
000040 4b 03 b2 3d 80 c6 01 80 d5 24 23 3e 35 d4 da 3c
       0.08692034 -1.63044e-40 0.15932019 0.026712516
000050 76 20 a5 bd 0f ba 10 bc 82 8d 99 bd b9 d9 ce 82
       -0.08062832 -0.008833422 -0.074976936 -3.0393946e-37
000060 c8 7f 02 8d
       -4.0213154e-31

layer5.weight f4 [10, 25]
000000 b7 dd 26 3c c3 e4 f4 3a ad 5e 11 3c 64 e6 75 bd
       0.010184697 0.0018683899 0.00887267 -0.06003417
000010 c3 83 2e 29 8c 6e 01 bc 27 92 f7 bc 1f 10 3a 84
       3.8750046e-14 -0.007899892 -0.030221058 -2.1871597e-36
000020 f7 48 96 13 46 01 83 bd ff e0 bd 3d 42 c9 06 bd
       3.7937272e-27 -0.06396727 0.0927143 -0.03290678
000030 2b b2 f0 3d a6 63 54 bb 55 fb 33 08 6a 66 84 ba
       0.11752733 -0.0032408028 5.4161293e-34 -0.0010101323
000040 79 c9 a4 b9 60 07 01 80 72 a0 27 bd 3f 6e dd 39
       -0.00031430626 -9.4481e-41 -0.040924497 0.00042234545
000050 be e3 03 3e f3 a8 87 ba ed 1f ae 3d d4 1d 04 00
       0.12879845 -0.0010350033 0.08502183 3.78042e-40
000060 d7 96 2a 8b 25 e3 8a 3c 0b a3 f0 bc 43 fc 7e 3c
       -3.2854288e-32 0.016954014 -0.02937462 0.015563074
000070 b8 75 97 3d 08 a3 08 b2 b5 36 ac 3d 8f da a7 3c
       0.073955 -7.953311e-09 0.08408872 0.020489959
000080 c0 e1 e5 86 63 8b 39 16 00 33 4c be 37 82 08 3e
       -8.6471936e-35 1.4988164e-25 -0.1994133 0.13330923
000090 4f 9e 39 be 44 3f 54 3e e4 db 35 3e 05 88 e0 0a
       -0.18126796 0.20727259 0.17759663 2.162158e-32
0000a0 63 ae 8f ba c1 eb 92 bc 40 d5 06 00 2f 5c 27 bd
       -0.0010962005 -0.017934682 6.27513e-40 -0.040859398
0000b0 9a 24 a7 bb df 4f 86 bd e3 7a 84 3b 7c 8f f9 bd
       -0.005100799 -0.06558203 0.0040429696 -0.121855706
0000c0 3c 94 1f 01 84 45 50 8e f6 0e 01 80 9a cd 01 00
       2.931004e-38 -2.567145e-30 -9.7202e-41 1.65591e-40
0000d0 41 75 06 80 a1 cf 09 83 d6 8f 04 80 34 0a e3 82
       -5.93076e-40 -4.049903e-37 -4.1894e-40 -3.3360509e-37
0000e0 cf 6f 32 81 90 49 04 00 39 4c 02 80 9f f6 06 00
       -3.2773655e-38 3.93731e-40 -2.11015e-40 6.39484e-40
0000f0 5a 92 1d 83 9b a9 c2 81 43 4e da 82 be bc e0 82
       -4.6306157e-37 -7.1507717e-38 -3.207714e-37 -3.3022175e-37
000100 b0 ce 02 00 08 9b 04 80 bd 52 04 80 7e 01 04 00
       2.57816e-40 -4.22957e-40 -3.97023e-40 3.67877e-40
000110 4a 9c 6f 80 83 d0 00 00 c0 bc ca 82 b0 20 ff 80
       -1.0249806e-38 7.48e-41 -2.978957e-37 -2.3429778e-38
000120 88 38 03 81 55 ee 00 00 bd 0c 01 00 04 04 8b 3c
       -2.410146e-38 8.5497e-41 9.6405e-41 0.016969688
000130 45 97 80 3c 5e 0e 7f 3c d6 c9 cf 3d d7 e7 7f b2
       0.015697131 0.01556739 0.10145919 -1.4895668e-08
000140 6d 8d 07 3e 14 99 0d 3e 9a 37 f0 86 12 e3 41 16
       0.13237543 0.13827926 -9.0359665e-35 1.5662067e-25
000150 23 97 80 3c a3 6d 4a 3e b1 1a 2b be 31 33 06 be
       0.015697068 0.19768386 -0.167094 -0.13105465
000160 6e 4d 60 3d ff 36 e9 0a e9 8d 8e ba 94 b6 94 bc
       0.054761343 2.2457771e-32 -0.0010876033 -0.018153466
000170 80 f8 06 00 f6 bb 24 be af 81 0a ba a3 04 17 3e
       6.40158e-40 -0.16087326 -0.00052836066 0.14747863
000180 74 83 84 3b 23 a0 0e be ae cc 26 01 26 39 60 8e
       0.0040439907 -0.13928275 3.0636235e-38 -2.7637648e-30
000190 33 1c 03 00 7f cf 03 00 e7 38 05 00 4b 77 14 80
       2.85622e-40 3.49942e-40 4.7959e-40 -1.879504e-39
0001a0 d6 81 04 80 66 b1 0f 80 20 05 01 80 84 b7 03 80
       -4.13918e-40 -1.441171e-39 -9.3674e-41 -3.4134e-40
0001b0 8a 00 02 80 dd 5d 02 80 f7 ea 1b 80 69 c2 00 00
       -1.83864e-40 -2.17343e-40 -2.563848e-39 6.9741e-41
0001c0 6e 7a 11 80 d4 a3 10 80 73 8c 05 00 e0 b5 04 80
       -1.605123e-39 -1.528138e-39 5.09561e-40 -4.32586e-40
0001d0 52 4d 05 00 3d ed 00 00 4b f2 06 80 d9 14 05 80
       4.86915e-40 8.5105e-41 -6.37931e-40 -4.66656e-40
0001e0 43 0f 0f 80 4c e9 05 00 41 b8 00 80 cd 05 04 80
       -1.383007e-39 5.42869e-40 -6.6098e-41 -3.69423e-40
0001f0 7d 56 06 80 b4 dd 00 00 7a cb 04 00 57 59 03 80
       -5.82039e-40 7.9532e-41 4.40336e-40 -3.07556e-40
000200 d7 93 52 3d f6 11 02 00 f0 72 bf bb 32 11 1a 3c
       0.051410522 1.90114e-40 -0.005842559 0.009403514
000210 68 ff 04 00 0b 1d 01 80 d1 cc 14 a2 23 1f 1c bd
       4.58964e-40 -1.02254e-40 -2.016617e-18 -0.03811563
000220 d0 f0 aa b6 9a 87 10 3d 51 ee 47 bb 31 b1 00 00
       -5.094429e-06 0.03528557 -0.0030507038 6.3564e-41
000230 0c aa 04 80 27 07 03 00 db 3c 04 80 de bb 06 80
       -4.28343e-40 2.78072e-40 -3.89173e-40 -6.18407e-40
000240 b7 7b 00 80 da 5b 24 bd 18 19 e4 b7 0a 72 a1 b4
       -4.438e-41 -0.04012666 -2.7191403e-05 -3.007156e-07
000250 69 17 06 00 fa 82 02 80 c1 e3 03 80 da b5 02 00
       5.59411e-40 -2.30657e-40 -3.57209e-40 2.48907e-40
000260 64 3d 03 80 f0 7b 00 00 92 b0 06 00 73 9f bc 80
       -2.97529e-40 4.446e-41 6.14354e-40 -1.7322273e-38
000270 0f 01 05 00 59 e7 01 00 7b ec 06 80 5d 89 02 80
       4.59557e-40 1.74827e-40 -6.35846e-40 -2.32948e-40
000280 27 c8 03 80 a4 7e 06 80 d3 21 06 80 20 b0 06 00
       -3.47308e-40 -5.96443e-40 -5.63147e-40 6.14195e-40
000290 54 3d 01 80 75 db 04 80 65 24 00 00 2d 77 02 80
       -1.13836e-40 -4.46068e-40 1.3056e-41 -2.26423e-40
0002a0 7f 04 02 80 5f 53 02 80 6b 28 02 00 c0 b0 00 80
       -1.85284e-40 -2.13579e-40 1.9817e-40 -6.3406e-41
0002b0 4a c9 02 80 3b 27 04 80 81 8f 06 00 cd 75 9e 3c
       -2.5588e-40 -3.81415e-40 6.02492e-40 0.019343281
0002c0 fa 6c bf 3c 0b 53 82 3d 49 ea 44 3e c4 7a fd 2f
       0.023367394 0.063634954 0.19229998 4.6107662e-10
0002d0 12 01 f1 bb 91 ae f1 3d 19 74 04 00 0a 5a 02 80
       -0.007354864 0.11800874 4.0899e-40 -2.15971e-40
0002e0 3f 63 02 80 11 4a 64 bd b0 9a d6 bd d4 56 db bd
       -2.19274e-40 -0.055734698 -0.10478723 -0.107099205
0002f0 2d e2 25 be f9 5d 00 80 24 03 86 b8 1e 5a 8c 3a
       -0.1619956 -3.3711e-41 -6.390203e-05 0.0010708009
000300 18 2e 03 80 d1 70 26 3c 97 0d a7 3c 65 f0 dd bc
       -2.92042e-40 0.010158733 0.020392222 -0.027092168
000310 7d 88 8e 3b 42 5f 33 3d f3 07 06 00 d7 78 05 80
       0.0043497668 0.043792017 5.53865e-40 -5.02527e-40
000320 c8 f6 88 3c 83 37 65 3b c4 7d 74 3c ba 7e 84 3d
       0.016719237 0.0034975715 0.014922563 0.06469484
000330 c3 45 40 b2 1c 54 c7 3d 54 29 16 be d9 66 dc 86
       -1.1191733e-08 0.097328395 -0.14664203 -8.2905923e-35
000340 f2 f8 31 16 bb e1 2c be d8 d6 15 3e d1 4b b2 bd
       1.43765e-25 -0.16882984 0.14632738 -0.08705867
000350 cb 16 0c 3d 19 49 3f 3e c6 0b d6 0a 5e 3e 73 3b
       0.034201425 0.18680228 2.0611879e-32 0.003711603
000360 5c f9 59 3c 80 96 06 00 51 c3 a5 3c f6 af 83 bc
       0.013304081 6.05002e-40 0.020234736 -0.016075116
000370 64 fe 0d bc ea 48 50 3d c4 12 d3 3d 80 2c 19 01
       -0.0086666085 0.050850786 0.10306314 2.813359e-38
000380 75 88 42 8e db 4d 8a bc 07 cb 22 be a4 60 0b be
       -2.3978048e-30 -0.016882828 -0.15897761 -0.13611084
000390 f5 02 e9 3d 14 ba a9 b1 88 42 42 3e 0b 2c 87 bd
       0.11377517 -4.939702e-09 0.18970692 -0.066001974
0003a0 37 e7 bb 06 bc 83 17 96 00 3b ae 3d 27 31 20 be
       7.068132e-35 -1.2239251e-25 0.08507347 -0.1564375
0003b0 7c fd f2 bd aa 8a 49 be 7b c5 84 bd 1f 3d b6 8a
       -0.118647546 -0.19681802 -0.06482979 -1.7548954e-32
0003c0 4d cf 91 3a 39 9d 17 bc a8 b0 05 80 2c d7 d3 3c
       0.0011124403 -0.009253793 -5.2255e-40 0.025859438
0003d0 98 e9 a8 bc 7b d9 47 3e 15 97 b4 ba 8c 22 2d 3c
       -0.020619199 0.19516556 -0.0013777936 0.010567319
0003e0 66 78 02 81 3a 1a f1 0d
       -2.396361e-38 1.4859086e-30

layer5.bias f4 [10]
000000 a7 c2 e8 bd 24 af 0e be 82 00 a0 82 3b ec e9 bd
       -0.11365252 -0.13933998 -2.3510178e-37 -0.114220105
000010 a9 10 00 80 bc f8 5c bb 44 09 00 00 5c f6 0f 3e
       -5.977e-42 -0.0033717593 3.324e-42 0.14058822
000020 07 f7 e2 3c 9d fb 21 3e
       0.027705682 0.15818639

layer6.weight f4 [1, 10]
000000 4c 93 c4 3b f7 92 71 3e b1 0f da 04 ad 6e 7c 3e
       0.0059990045 0.23591219 5.1265964e-36 0.24651594
000010 fd b8 05 00 a4 f7 8b b9 46 93 a4 ba ed 76 f2 3d
       5.25539e-40 -0.00026696653 -0.0012556098 0.118390895
000020 bc b6 67 3e 0b 4a 45 be
       0.22628301 -0.19266526
