weights/_unorm_eth_mlp.pth (torch_old, 164819 bytes, 11 tensors)

layer1.weight f4 [130, 161]
000000 d5 06 7c 3d bc ca 03 bd 84 54 ce 3d b2 eb 77 bd
       0.061529953 -0.032175764 0.10074714 -0.06052751
000010 55 55 36 bd 4e 59 ea bc ba 08 39 bd dd 9e 35 bd
       -0.044514973 -0.028607037 -0.045174338 -0.044340957
000020 ea a8 ba bc ca 52 11 bd be e8 69 3d 7c 50 9a bd
       -0.022785623 -0.035479344 0.057106726 -0.075348824
000030 5a d6 62 3a a0 63 ba 3d 6e 49 d6 3d 0f b4 08 bc
       0.00086531567 0.09101033 0.10463224 -0.008343711
000040 8b d7 93 bb 0e cc 8c bd 9a 90 7d bd 8f f5 66 bd
       -0.0045117787 -0.06874858 -0.06190548 -0.056386527
000050 31 63 10 bb 7d 89 de bc f5 b3 9f 3c 60 ec ad 3d
       -0.002203178 -0.027165169 0.01949499 0.084923506
000060 67 ce 9c 3d d2 92 4a 3d 00 94 64 3d 3a 3e 06 bc
       0.076565556 0.049456425 0.055805206 -0.008193547
000070 79 21 92 bc f2 a1 84 3d 51 66 f8 bc 2c 39 e7 bc
       -0.017838227 0.06476201 -0.030322226 -0.028225504
000080 1e a1 aa bd f5 a7 b8 3d d7 e9 96 3d f2 07 d1 3c
       -0.08331512 0.0901641 0.0736882 0.025516484
000090 df 16 a1 3d c3 d6 b7 3d 22 ec fe 3c 78 9d 8e ba
       0.078656904 0.089765094 0.031118456 -0.001088067
0000a0 f2 29 3e bd b2 8d 5b bd 6b 45 68 3c fd b6 b9 3c
       -0.04642672 -0.053601928 0.014176707 0.022670263
0000b0 93 19 54 3d 5e c4 2c 3d 0a 6a de 3d 47 0d c2 3d
       0.051782202 0.042179458 0.10860069 0.09475189
0000c0 7b 56 76 3d 81 4e 2e bd e2 d2 05 bd 99 e2 59 3d
       0.060141068 -0.042555336 -0.032671817 0.053194616
0000d0 50 db d1 3b fd a0 dc bb 51 a0 96 3b 9b 7d 31 3c
       0.006404318 -0.0067330585 0.004596748 0.010833169
0000e0 fd d8 1d bd e7 3b 1d bd 9d 2e 2f 3d b4 48 e0 3d
       -0.038537014 -0.038387205 0.042769063 0.10951367
0000f0 b1 8f 95 3c 38 94 ac 3b 35 69 d1 3d 89 2d 10 bd
       0.018256994 0.0052666925 0.10225145 -0.035199676
000100 ea 2f ad 3c 9a ad ae 3d 77 80 1b bd 5a 2a 29 3d
       0.021141011 0.085292056 -0.03796431 0.041300155
000110 2b 70 bd 36 13 c6 f6 bb 8b 1c ce 3d c7 02 61 3d
       5.645697e-06 -0.0075309365 0.10064038 0.05493429
000120 b7 d8 cd 3b 3a 1f d0 bb 96 7c 20 bd 6f 1a 01 bd
       0.006281938 -0.0063513787 -0.039181314 -0.03151935
000130 eb f8 cd 3d 00 84 8e bd 9c 67 99 3d c0 be e9 3d
       0.10057243 -0.06958771 0.07490465 0.11413336
000140 85 3d 01 3d 35 a7 17 bd 5e 89 66 3d 55 d6 8d bb
       0.03155281 -0.037024695 0.056283347 -0.004328529
000150 a8 87 a0 3a 36 da ff bc a3 34 e0 3c a8 0a 5f 3d
       0.001224746 -0.03123198 0.02736885 0.054453522
000160 64 30 71 3d e8 cd 27 bd a0 45 fd bc 72 17 ff ba
       0.05888404 -0.040967852 -0.030916989 -0.0019461943
000170 7d 83 00 3d ff 82 8c 3b f0 d4 25 bd f8 d7 e4 3c
       0.031375397 0.004288077 -0.040486276 0.027935013
000180 49 ff 5a 3b 48 4c ae 3d 18 d5 57 3d de 8b fc 3c
       0.0033416322 0.08510643 0.052693456 0.030828413
000190 b5 ab 9f 3d c1 75 9b bc cd 8a 6d 3d f6 b4 10 3d
       0.077964224 -0.018977048 0.0579937 0.035328828
0001a0 7a 55 f7 bc 62 e6 15 3e 87 12 41 3d 15 ab 90 3d
       -0.030192126 0.14638665 0.04713681 0.07063881
0001b0 3c 72 16 3d af 69 65 bd 26 e7 80 3c 36 dd 33 bd
       0.036730036 -0.05600899 0.01573522 -0.043912135
0001c0 64 04 3c bc c1 39 71 bd 7d 48 19 3d ff 91 0f bc
       -0.011475656 -0.05889297 0.037422646 -0.0087628355
0001d0 b4 17 66 3d 59 80 cf 3c fe 3d 8b bd 27 98 93 3c
       0.05617495 0.025329756 -0.067989334 0.018016888
0001e0 29 b9 b4 3d ff 55 92 bc f3 71 8e bc 52 d5 93 3d
       0.08824379 -0.017863272 -0.01738832 0.07218422
0001f0 50 e4 67 3d 69 97 16 3d fe c9 c1 3d 96 3a 56 3d
       0.05661422 0.03676549 0.09462355 0.052301966
000200 3d dc 30 3c 0a 9c a1 3c 5c 72 d7 3d 30 9f 43 bc
       0.010794696 0.019727726 0.10519859 -0.011939809
000210 d8 16 af 3d 61 ff de 3d b7 47 21 3d 94 57 bc bc
       0.08549279 0.108885534 0.039375033 -0.02299098
000220 c1 f3 5a b8 78 4b 7e bd d4 96 aa 3d 0f 5a de 3d
       -5.2202264e-05 -0.06208369 0.083295494 0.10857021
000230 08 a6 78 3d 3b 1e f9 bc 18 77 35 bd ce e4 02 3e
       0.060705215 -0.030409923 -0.04430303 0.12782595
000240 9a 55 8e 3d 2e 54 fd 3d f6 dd cb 3d 81 85 4e 3d
       0.06949921 0.123695716 0.09954445 0.050420288
000250 34 67 9c 3d c0 22 e6 3c dd cb 85 bb c9 3f c7 3c
       0.07636872 0.028092742 -0.0040831403 0.024322407
000260 91 08 7f 3d d8 81 fe 3d ab 8a ae 3d 8e 61 14 bd
       0.06226403 0.124271095 0.085225426 -0.036225848
000270 c3 a5 bb bc 71 20 2b 3c 63 19 f0 3d 73 8f a6 bd
       -0.02290619 0.010444746 0.11723592 -0.081328295
000280 9f 6e 14 3d 64 3e 43 3c ce 16 e1 3a 15 d9 eb 39
       0.03623831 0.011916731 0.0017172934 0.00044984432
000290 c3 ff c3 bc 08 73 74 bc e4 5b 32 bc 59 e7 49 3b
       -0.023925668 -0.014920004 -0.010886166 0.003080806
0002a0 a8 b9 90 bc b3 24 18 bd 62 df 2a bd ef 30 70 bb
       -0.017666653 -0.037144374 -0.04171694 -0.003665026
0002b0 64 12 40 bc 74 17 6b bc 50 31 06 3d ae 3a a9 3c
       -0.011723135 -0.014348853 0.03276187 0.020657863
0002c0 fe 98 f6 3b dc 31 90 bc 5b 35 49 bc 5a d2 29 bc
       0.0075255623 -0.0176019 -0.012280787 -0.010365093
0002d0 23 e6 37 bc 15 ca 16 bc e3 8f 1c bd eb 68 b9 bc
       -0.011224302 -0.009203454 -0.03822316 -0.022633037
0002e0 e2 1d 97 3c 51 a0 0b 3c 11 f6 1d 3c e3 86 c6 bc
       0.018446866 0.008522109 0.009641186 -0.02423424
0002f0 fc ef 80 bc 0f 86 f6 bb 90 c6 fe 3b 24 88 ca ba
       -0.015739433 -0.0075233052 0.0077751353 -0.001545195
000300 2a 5b 0a bd b6 81 21 bd ee 67 18 bb 55 36 09 bc
       -0.033778347 -0.039430343 -0.0023255306 -0.00837477
000310 45 a8 c9 bb 9e 3f 0b 3d 8f 3a e8 3c 71 b7 80 3c
       -0.0061540925 0.033996217 0.028348235 0.015712472
000320 70 b7 40 bc 1f ca 16 bc bd 09 e6 bb d4 cf e5 bb
       -0.011762485 -0.009203463 -0.007020204 -0.0070133004
000330 82 7a d1 bb 11 44 09 bd 2d 33 78 bc f2 07 bc 3c
       -0.006392778 -0.03351218 -0.01514892 0.022953007
000340 a2 37 56 3c 80 20 58 3c ab de c2 bc 55 9a 7f bc
       0.013074787 0.013191342 -0.023787817 -0.0156007605
000350 84 56 d0 bb 24 71 34 3c 12 27 80 3b 8c fc 9c bc
       -0.0063579697 0.011013303 0.0039109075 -0.019163392
000360 6d f0 bf bc 79 b2 1b ba af 8f eb bb 3d a3 bc bb
       -0.023430074 -0.0005939375 -0.0071887593 -0.005756764
000370 3b 1b 16 3d b0 72 20 3d 06 18 af 3c db 65 d3 3b
       0.036647063 0.039171875 0.02137376 0.006451351
000380 8c 7a d1 bb 72 81 67 bb 0a 81 e1 bb 3f 72 b5 bb
       -0.0063927826 -0.0035324958 -0.0068818377 -0.005537301
000390 60 43 a5 3b d6 80 89 3c bf b9 ae 3c 58 1e 68 3c
       0.005043432 0.016785067 0.021328805 0.014167391
0003a0 e8 18 37 3c 77 51 c1 bc e9 3a 80 bc 3c 79 b9 bb
       0.011175372 -0.023598416 -0.01565309 -0.005660204
0003b0 f2 6e 4d 3c 04 02 03 3c 58 0e 22 bc e4 60 42 bc
       0.012538658 0.007996086 -0.009891115 -0.011863921
0003c0 90 91 c7 39 fd 71 d3 bb 93 dc 8e 39 be 1f 33 3d
       0.0003806469 -0.0064527974 0.0002724869 0.043731444
0003d0 a0 7b 2b 3d 7e c4 ab 3c a1 df 59 3c 29 72 b5 bb
       0.041865945 0.020967718 0.013297946 -0.0055372906
0003e0 eb 2e 6a ba 1c 3c a0 bb 74 43 84 bb 4c 62 a2 3c
       -0.0008933383 -0.004889978 -0.0040363614 0.019822262
0003f0 f3 f9 ed 3c bf 21 aa 3c 66 50 58 3c 88 86 09 3c
       0.02904985 0.020768045 0.013202762 0.008393891

layer1.bias f4 [130]
000000 e0 c4 ee 3d 31 b7 35 3c b0 fd 23 3c 21 97 55 3c
       0.11658645 0.0110910395 0.010009214 0.01303652
000010 b4 7a 6a bd 4e c0 64 bc 1c 4c ca 3d 17 64 8b 82
       -0.057245925 -0.013961865 0.09877798 -2.0481663e-37
000020 4e ae 1d b9 e4 fc cf 3b cf ca ca 3c 09 55 82 3d
       -0.0001503762 0.0063472856 0.02475491 0.063638754
000030 f8 f8 0b bb 0a ec 1d 3b 82 b3 54 bb 0c e7 b6 3b
       -0.0021358114 0.002409699 -0.0032455628 0.005581742
000040 4a f2 b5 3d b9 d0 53 bc 3a 41 b8 3c d2 48 94 3c
       0.088841036 -0.012928181 0.02249204 0.01810113
000050 4c df 6b b4 22 57 05 3b 5e 73 0d 3d 55 5b 24 3c
       -2.1967315e-07 0.0020346125 0.03453385 0.010031541
000060 d9 cb a6 3c c5 af 0c 9f 32 d7 09 bc 7a 15 e3 3d
       0.020360874 -2.9791546e-20 -0.008413123 0.11088081
000070 51 85 e7 3b d2 ce 7a 3d ae a0 3d 3c 72 c6 7d 3b
       0.007065453 0.061232395 0.011573954 0.003872302
000080 e7 92 e7 af c5 7f 80 3c 85 d1 cb 3b d5 cf 8c 3d
       -4.2123036e-10 0.015685925 0.006220045 0.06875578
000090 58 4a 44 3d 8e 1e 66 3d 81 69 ee 3a 63 39 92 3d
       0.047922462 0.056181483 0.0018189402 0.07139852
0000a0 e9 3b 26 3b e2 ca c7 b8 ef 12 96 3c 5a 27 d4 ba
       0.00253653 -9.526849e-05 0.018319575 -0.0016186044
0000b0 cf e7 91 3b 4d c3 4a bc d8 99 9d 3d 91 72 8e 3d
       0.0044526826 -0.012375665 0.07695359 0.069554456
0000c0 d7 5c 08 b1 1a bf da 3b 61 ca 24 3d 1d fa 86 bc
       -1.9843378e-09 0.006675613 0.040232066 -0.016476685
0000d0 98 a2 39 3d be cf 05 bc e8 c4 b8 3c 8c fe 01 80
       0.045321077 -0.008167205 0.02255483 -1.8315e-40
0000e0 fd 10 40 aa ab 16 e0 3c d3 39 e2 3d 5e 99 7c 3d
       -1.705892e-13 0.027354559 0.11046185 0.0616697
0000f0 58 c0 01 80 d0 4a a6 3b 1e 95 1d b9 fc 78 ec 3d
       -1.60835e-40 0.0050748363 -0.00015028237 0.115465134
000100 be 30 57 3d 79 d3 00 3b 93 e1 54 bc 51 6a e8 3c
       0.05253672 0.0019657298 -0.012993234 0.028371008
000110 da 5c 11 3d b4 b3 e8 bc 72 4f e1 3d ab eb 0c 3b
       0.03548894 -0.028406002 0.11001481 0.0021502774
000120 a3 62 e0 3d 99 1d 5c 3a ee b3 ff 3a 57 aa ed bc
       0.109563135 0.00083967444 0.0019508579 -0.029011888
000130 43 1e b5 3b 91 3b 02 00 c6 00 87 3d b3 56 a7 37
       0.005527289 2.0504e-40 0.065919444 1.9948324e-05
000140 e3 01 74 3b 07 3f e7 3d 29 44 33 86 44 0c bc 3b
       0.003723257 0.112913184 -3.3716234e-35 0.005738767
000150 c4 cd ca 3b 45 b3 51 3c 08 f0 f9 3d 11 ee c4 3c
       0.00618908 0.012799089 0.122039855 0.0240393
000160 b2 21 02 80 b8 ac 8f 3d 4c 05 9f bc 3f 05 85 85
       -1.95759e-40 0.07015365 -0.019411705 -1.2509187e-35
000170 27 61 82 3c 90 0f e0 3d 5b 7e c4 bc 86 6d aa 3d
       0.015915466 0.10940468 -0.023986032 0.08321671
000180 22 74 e4 3b 58 1c 60 3d dc 15 45 93 c9 df 18 3d
       0.006971852 0.05471453 -2.4875673e-27 0.037322793
000190 53 bb 6e 3d 59 d1 bb 3a 8a 5b 01 80 49 91 c5 83
       0.058284115 0.0014329358 -1.24674e-40 -1.1611975e-36
0001a0 b5 bf a1 3b 3d b2 de bc 18 74 c6 bc cd 72 35 bc
       0.0049361833 -0.0271846 -0.02422528 -0.011074734
0001b0 48 28 82 bc 10 a4 e9 89 57 2b e9 3c 24 5e 93 a1
       -0.015888348 -5.6246993e-33 0.028463049 -9.986026e-19
0001c0 e4 d5 cd 83 36 19 97 3c 00 b1 a2 3b 55 dd 35 3d
       -1.2097924e-36 0.018444639 0.0049649477 0.04440053
0001d0 42 bd ac b9 97 78 01 3c 03 1c 8c 3b 82 7e 57 3c
       -0.00032947405 0.007902286 0.0042758 0.01315272
0001e0 97 9b 4d 88 b3 ef ad 3c 29 ec 01 00 0a d7 92 3c
       -6.187284e-34 0.021232462 1.76554e-40 0.017924804
0001f0 2b 42 65 3d aa e1 8e bc 0d ab 2c 34 99 e7 03 00
       0.055971306 -0.01744159 1.6080976e-07 3.58588e-40
000200 4c e9 19 3d 24 90 8c 3d
       0.037576005 0.0686343

layer2.weight f4 [100, 130]
000000 04 2f de 3d 2d cd 72 3d 37 58 80 3d 29 84 85 3d
       0.10848811 0.059277702 0.06266826 0.06519348
000010 f4 d3 58 3d 04 4b fb 3c 8f 71 04 3d b1 01 41 b3
       0.05293651 0.030675419 0.03233486 -4.4937853e-08
000020 01 32 33 3d 60 0d b2 3d d9 5c c1 3d 43 f2 25 bd
       0.04374886 0.08693957 0.094415374 -0.040514242
000030 c3 3b ee 3c 62 e0 10 3d 07 1a 9c 3d b6 6b 06 bd
       0.029081231 0.035370238 0.07622152 -0.032817565
000040 70 60 a6 3d 68 cc 32 bc fe b7 57 bc 9d 63 b8 3d
       0.08123863 -0.010912992 -0.013166426 0.09003375
000050 4c 35 03 39 d0 8a 06 3d e7 a8 05 3d b8 92 85 bb
       0.00012512988 0.032847226 0.03263178 -0.004076328
000060 3e 92 91 bc cf ab a2 25 de ad 2c bc 82 42 96 3d
       -0.017769929 2.8218942e-16 -0.0105395 0.07336904
000070 7c d8 49 3d 8e de 6a 3c d7 20 84 3d d3 c3 dd 3c
       0.04927872 0.014335288 0.06451576 0.027070915
000080 50 69 8b b8 2c 90 9b 3d f0 50 3a bc e0 6f 60 bd
       -6.6476525e-05 0.07595858 -0.011371836 -0.054794192
000090 9b 3b 82 3d 3b 40 58 bd ad b6 f9 ba 2c ea a0 3d
       0.06359025 -0.05279563 -0.0019051634 0.07857165
0000a0 fd 58 12 3d 74 e1 94 33 b2 cc 05 3e 8a 4f f5 3c
       0.035729397 6.932797e-08 0.13066366 0.029945154
0000b0 73 cc d9 3c 53 80 8c 3d 40 26 27 bd 39 a3 61 3c
       0.026586747 0.068604134 -0.040807962 0.0137718255
0000c0 9f 48 49 39 89 78 86 bb 11 5e 3c 3c 2b 7c 2f bd
       0.00019195907 -0.0041037244 0.011497037 -0.042843025
0000d0 20 69 da bc 15 fa bd 3d b8 a7 2c bc 37 a1 03 80
       -0.026661456 0.09276215 -0.010538034 -3.3334e-40
0000e0 8d 0d 05 80 3f b3 93 3d fc e7 10 3d 6f 4a 39 3e
       -4.64039e-40 0.07211923 0.035377488 0.180948
0000f0 97 2f 03 80 9d 7c 89 bc 0d 83 b5 39 2b 8a e9 bc
       -2.92579e-40 -0.016783053 0.0003462065 -0.028508266
000100 64 81 71 bd 8d e9 33 3d b9 86 e0 bd 8b 4c 76 3d
       -0.058961287 0.043923903 -0.10963196 0.06013159
000110 c9 63 82 3d 72 1d 8c bc 61 e2 47 3d c1 66 08 bb
       0.06366689 -0.017103884 0.048799876 -0.00208132
000120 32 58 8e bb 8a 9a b1 3c 36 b7 ce ba 6e 83 58 3d
       -0.00434401 0.021680135 -0.0015771154 0.052859716
000130 ab ea 9c bb 67 65 02 80 33 0f c0 3d a3 31 aa 39
       -0.004788717 -2.20047e-40 0.09377899 0.0003246191
000140 c6 0c 37 bd c0 af d5 39 aa 7b fb 02 db 8b b2 3d
       -0.044689916 0.0004075747 3.6952115e-37 0.087180816
000150 0a c3 87 bb 54 b9 8d 3d 47 63 1f bd 17 c9 4a 3d
       -0.0041431235 0.06920114 -0.038913038 0.04950818
000160 3c 4f 06 80 82 fe e7 3c e1 45 ba 3d 72 48 0d 84
       -5.79437e-40 0.028319601 0.090953596 -1.6607736e-36
000170 1b 8a a1 3d c9 d0 3e bc 5e fe 05 3d 1b 0c e4 3c
       0.0788767 -0.011646458 0.032713287 0.027837804
000180 28 63 a5 bb b3 db b6 3d 3d 81 88 8e 70 dc 0b b9
       -0.0050472207 0.08928623 -3.365104e-30 -0.00013338192
000190 5d 3c db 3d bc 01 87 bb c9 26 b0 16 7c 7a 81 81
       0.10704873 -0.00412008 2.845881e-25 -4.756287e-38
0001a0 b4 12 68 3d 9a 52 c1 3c 49 dc 04 3c db 92 e0 bc
       0.05665846 0.023598958 0.008109161 -0.027413776
0001b0 46 3a 0b bd 5d e1 12 2d ef 8d 73 3c 83 b9 49 20
       -0.03399112 8.34918e-12 0.014865383 1.7086743e-19
0001c0 eb 70 05 8a 5a 1a d7 3d 04 63 a0 bc ae 35 4b 3d
       -6.4249546e-33 0.10503073 -0.019578464 0.04961174
0001d0 29 c4 ae 39 6d ae e2 bc 84 ac 6e bb b2 10 94 3d
       0.00033334017 -0.027671063 -0.0036418745 0.07229747
0001e0 2c d2 a8 10 81 c2 df 3d 0c c3 02 80 8c 44 9b 3b
       6.658814e-29 0.109257706 -2.5364e-40 0.004738396
0001f0 c2 8a de 3a c8 99 37 bd e8 4b 0a b8 fb a1 06 80
       0.0016978609 -0.04482439 -3.2972457e-05 -6.0912e-40
000200 dd 8c 23 bc 26 12 44 bd 82 b7 e7 3c 13 be 72 3d
       -0.009982315 -0.04786887 0.028285746 0.0592633
000210 b8 4f 80 3d 02 52 a3 3d fb 28 9a 3d 16 80 e7 3c
       0.06265205 0.07974626 0.07527348 0.028259318
000220 48 b0 83 3d c2 d5 1e b3 b3 12 33 3d 17 e6 fe 3d
       0.06430107 -3.6981653e-08 0.043719005 0.1244623
000230 c8 85 31 3d ab 94 63 3c 9e b7 93 3d e6 e0 10 3d
       0.043340474 0.013890426 0.072127566 0.03537073
000240 a7 dc 10 3d 2d 13 07 bd ba 11 0c 3b 74 29 dc bc
       0.03536668 -0.03297727 0.002137287 -0.026875235
000250 d0 75 1b bd 1d 3a 9d 3d a3 d1 fe 38 fc 8c 06 3d
       -0.03795415 0.076771 0.00012150712 0.032849297
000260 6f b0 bd bc 68 ec c8 3d 2b 63 91 bc fd b4 9b 25
       -0.02315542 0.09810716 -0.017747482 2.7010856e-16
000270 e4 02 d3 3b aa 18 21 bd 7d cd 49 3d a1 3e 45 bc
       0.0064395536 -0.039330162 0.049268235 -0.012038858
000280 fd 17 84 3d bd a5 dd 3c b7 d8 81 b8 07 de 9c 3d
       0.06449888 0.02705657 -6.1915656e-05 0.07659536
000290 26 4d 3a bc 5e 6e 9c 3d 2d 15 3d 3d a8 59 dd bc
       -0.011370933 0.07638238 0.046162773 -0.02702029
0002a0 e2 ba f9 ba 20 71 a1 3d 3e 59 12 3d f4 9d 5b 33
       -0.0019052888 0.07882905 0.03572964 5.113357e-08
0002b0 80 b5 e9 3d 5a 3b 48 3d e0 01 18 bd 3d c2 a7 3d
       0.114115715 0.048884727 -0.037111163 0.08191345
0002c0 47 82 26 3c 5a 69 71 3d 6b c4 45 39 93 a9 86 bb
       0.0101628965 0.05893836 0.00018860555 -0.0041095703
0002d0 db cc 9b 3d 54 5a 0b 3d 0c d1 87 bd 10 05 56 bd
       0.076074325 0.03402169 -0.066316694 -0.05225092
0002e0 a1 f3 1a bc cc b2 06 80 8b d3 03 80 5e f9 8d 3d
       -0.0094575 -6.15153e-40 -3.51394e-40 0.06932329
0002f0 5a f7 6d bb 7a aa 02 3e 61 69 03 80 71 6b 89 bc
       -0.0036310763 0.12760344 -3.1331e-40 -0.016774865
000300 f5 25 b5 39 a8 10 84 bd c5 33 67 3c 73 dc 33 3d
       0.0003455129 -0.064484894 0.014111464 0.04391141
000310 ef 49 a1 bc 6c 81 cb 3d 4d de 1c bd ea f1 a7 3c
       -0.019688575 0.09936795 -0.03829794 0.020501096
000320 4c 3d 3b bd f6 75 08 bb 87 f3 18 3c ad a6 b1 3c
       -0.045712754 -0.0020822263 0.009335405 0.021685923
000330 f6 e5 ce ba ac dd c5 3d 9a 25 9d bb ab 4c 06 80
       -0.0015785086 0.09661421 -0.004795742 -5.78516e-40
000340 bf e4 4f bd dc 26 aa 39 9b c0 59 bd 56 21 9b 3d
       -0.05075526 0.0003245388 -0.0531622 0.07574718
000350 b5 c7 ef 02 98 00 c5 3d 89 f7 87 bb d4 af 8d 3d
       3.523252e-37 0.09619254 -0.0041493815 0.06918302
000360 0b 5f f3 ba 2f 9a 26 bd b9 4e 02 80 b6 58 02 3d
       -0.0018567754 -0.040674385 -2.11911e-40 0.031822883
000370 da 5e e7 3d dc ad 06 84 95 7f a1 3d 7f 16 ae 3d
       0.112973884 -1.5831457e-36 0.078856625 0.085003845
000380 8f 4b d9 3d 2c e7 e4 bc b0 a1 a5 bb 66 ef 8c 3d
       0.10610115 -0.027942263 -0.005054675 0.06881599
000390 1e 2f 82 8e 0e 0a a5 3d 6d a1 b1 bc 35 76 86 bb
       -3.2092846e-30 0.080585584 -0.02168342 -0.004103447
0003a0 e9 52 39 16 7c 53 77 81 46 ee 67 3d df f8 f1 3c
       1.4970343e-25 -4.5426632e-38 0.05662372 0.029537616
0003b0 86 c2 77 3d 70 43 ab 3d 33 1e 48 3d b4 0a c0 2c
       0.060488246 0.08362472 0.048856925 5.4581565e-12
0003c0 1c a4 ba 3d c4 57 40 20 0d 5c fe 89 95 81 d3 3d
       0.09113333 1.6292072e-19 -6.123484e-33 0.1032745
0003d0 e0 49 a0 bc 00 f3 13 3d 30 b0 ae 39 d9 80 ac 3d
       -0.019566476 0.036120415 0.00033319136 0.08423013
0003e0 ba c4 6e bb 60 06 94 3d 26 ef a0 10 19 65 eb 3c
       -0.0036433176 0.072277784 6.347734e-29 0.02873473
0003f0 18 7e 05 80 6c d7 b2 3c dd eb bf bc bc 83 6a 3d
       -5.04411e-40 0.021831237 -0.023427898 0.057254538

layer2.bias f4 [100]
000000 81 94 df bb 6b c5 b0 3d f3 c9 40 b6 94 b0 c6 3c
       -0.006823123 0.086314045 -2.872778e-06 0.02425412
000010 6a b4 9c 3b 7b 60 35 bd ea 92 8b 82 2f 4e 96 88
       0.004782249 -0.044281464 -2.050854e-37 -9.0461775e-34
000020 2d 2b 04 3e f9 26 c0 3b 29 47 01 3e 3b 60 02 3e
       0.12907095 0.005864021 0.12624802 0.12732022
000030 94 cd 05 80 04 2a c2 ba 9d b6 79 bc af c0 1f 3d
       -5.32925e-40 -0.0014813547 -0.015241292 0.039002117
000040 71 3b d1 3b a0 71 e7 ba ce 6c ce 3d 60 68 76 8f
       0.00638526 -0.0017657764 0.100793466 -1.2148838e-29
000050 92 2f e3 3d 73 ad f6 bc 0f 93 55 3d 01 cf 85 3d
       0.11093058 -0.030112004 0.0521422 0.065336235
000060 66 8f e6 3d b0 5a ef 3b 8a e5 6d bb e9 b2 9f b8
       0.1125782 0.007304512 -0.0036300146 -7.6150354e-05
000070 fb 6a c2 3b 52 37 1e 3c 29 8e 0a 83 c6 51 6d bc
       0.005933163 0.009656744 -4.0717747e-37 -0.014484828
000080 8b 07 d0 3c c9 c6 92 3b ec 4f 67 3c e0 63 a5 94
       0.025394222 0.0044792634 0.014118176 -1.6700136e-26
000090 20 87 92 3d 7a 27 20 b8 5a 3c a0 3b 07 eb 26 3c
       0.07154679 -3.8183738e-05 0.004890007 0.010187871
0000a0 6d 28 f8 a5 99 80 e2 bc f8 5f dc 3b ce 0d b6 3b
       -4.3048536e-16 -0.02764921 0.0067253076 0.005555845
0000b0 aa f5 f9 3d 8e a9 1c 3d b3 53 02 00 05 dc 84 b9
       0.1220506 0.038247637 2.13697e-40 -0.0002534093
0000c0 e2 bb fa 3b 0a b0 d0 3d ff 66 9e 84 64 52 f4 3b
       0.007651792 0.10189827 -3.724021e-36 0.007456111
0000d0 61 d4 7d 3d 44 c3 2e bd 2c e4 01 bd 8d 7f 79 b9
       0.06197012 -0.04266669 -0.031711742 -0.00023794007
0000e0 9e 91 90 3d d0 06 04 80 68 e5 01 3c 6f 11 81 3d
       0.07059024 -3.69786e-40 0.00792823 0.06302153
0000f0 fd b0 b3 b9 b4 5b 6d b9 cc 9a a5 b9 24 cc 9f 3b
       -0.00034273407 -0.00022636243 -0.00031586585 0.0048766304
000100 2f 72 cc ba f9 0c f5 3c e8 c4 05 80 b2 14 ba b9
       -0.0015597994 0.029913412 -5.29814e-40 -0.00035492104
000110 4f 3c cf b1 6e 9d c9 b9 5e 29 a2 3d 0b 4e 50 3d
       -6.031349e-09 -0.00038455002 0.079180464 0.050855678
000120 63 e4 2e 3d f1 bd a4 b9 2d f6 01 00 e8 da 5d 3d
       0.042698275 -0.00031422035 1.80147e-40 0.054163843
000130 5f 5e c1 9c 80 ec d7 3b 19 ba c7 3b b9 9d 96 3b
       -1.2796063e-21 0.0065894723 0.0060951826 0.0045964387
000140 b3 d2 0c 8a ef 95 f6 bc 17 bd d7 3a 3a de dd 3b
       -6.780383e-33 -0.03010079 0.0016459551 0.0067708762
000150 0c a6 a5 3d 91 d5 ce 9f 35 37 89 3d 07 e5 0e 3a
       0.080883116 -8.759771e-20 0.06699983 0.0005450998
000160 25 6e aa 3b 6f 01 64 97 2c 5a 39 3d 37 8e b5 3b
       0.0052011185 -7.3672583e-25 0.04525201 0.005540635
000170 dd 99 9f bc 10 36 11 3d b2 65 77 9c 31 68 e9 3d
       -0.019482547 0.03545195 -8.1856883e-22 0.11396826
000180 8f b1 06 bd ad c2 b0 3d 0e e6 e0 bc 99 55 97 3b
       -0.032884177 0.086308815 -0.027453449 0.0046183583

layer3.weight f4 [50, 100]
000000 4c 69 84 3d 6c 79 45 bc 8c 77 c6 b9 c4 1c bf 3d
       0.06465396 -0.012052875 -0.00037854572 0.093316585
000010 84 3b 81 bd f2 ab e1 bd ea ae 65 82 f8 14 de 91
       -0.0631018 -0.11019124 -1.6874461e-37 -3.5038347e-28
000020 53 e3 2b bd bd 87 42 bd 92 12 c4 3c 4e 36 ac 3c
       -0.04196484 -0.04749273 0.023934636 0.021021988
000030 dc cf 84 b7 ce 2f e0 3c f7 bc 17 3d f8 61 7d bd
       -1.5832418e-05 0.027366545 0.037045445 -0.06186101
000040 f9 cd 1f bc 6e fd fb 3c e0 57 24 3d 75 c2 2f 08
       -0.009753698 0.030760493 0.040122867 5.289073e-34
000050 68 52 e5 3c 54 6f 57 3c 47 4c 8d bd 20 86 16 3d
       0.027993396 0.013149101 -0.068993144 0.036749005
000060 79 32 31 bd 38 22 ce bb 94 e0 ab 3d c6 de 11 39
       -0.043261025 -0.0062907003 0.08392444 0.00013911267
000070 e4 42 e8 bb 88 9c 65 3d e5 38 7f 89 d2 eb d7 bb
       -0.007088052 0.056057483 -3.072126e-33 -0.0065893913
000080 bb c9 10 3d 7c d8 1c 3d d6 f0 aa 3d fc ea c8 14
       0.035348635 0.038292393 0.08346717 2.0287524e-26
000090 bc 0a 96 3d 46 bc 06 39 25 bb 81 bd 79 b7 02 bd
       0.07326266 0.00012849373 -0.06334523 -0.031913254
0000a0 0b f4 be 21 3e a2 8a 3d 37 b3 2f bd ff a3 18 bd
       1.2939498e-18 0.067692265 -0.042895522 -0.037265774
0000b0 13 3e f2 3d 89 7e 47 3d 9d ec 8f 1d f0 76 d0 39
       0.11828246 0.048704658 3.8096437e-21 0.00039761467
0000c0 48 a8 f8 bc 7f 88 c8 3d 81 35 2e 84 84 af 9a bc
       -0.03035368 0.097916596 -2.047817e-36 -0.01888252
0000d0 8b 78 e2 3d 13 22 16 bd bf c6 b9 3d 7e 24 01 a3
       0.11058148 -0.03665359 0.09071111 -7.0008315e-18
0000e0 97 02 6e bd 5f 96 00 00 61 21 52 bc a0 c4 6d bd
       -0.05810794 5.3943e-41 -0.012825341 -0.058048844
0000f0 ae 86 8b b9 eb 2d a1 b8 94 11 1a 39 42 71 42 bd
       -0.0002661249 -7.685631e-05 0.00014693133 -0.047471292
000100 8f b9 69 3c 16 21 dd 3d 98 ac 03 80 ab 9b 96 b9
       0.014265432 0.10797326 -3.37421e-40 -0.0002872621
000110 25 ca b6 39 c8 bb c2 b9 11 51 e4 3d 57 59 b9 3d
       0.00034864355 -0.0003714247 0.11148275 0.09050243
000120 69 a0 9b bd 55 f2 2e 2f 1a 5b 00 80 16 28 57 3d
       -0.07598955 1.5911301e-10 -3.2681e-41 0.052528463
000130 a8 d4 72 24 89 67 48 bd e1 55 30 3d 6d 95 81 bd
       5.2655512e-17 -0.048926864 0.04305065 -0.06327329
000140 49 5d cc 03 74 af aa bc 8b f9 87 3c 01 e2 8e bb
       1.201146e-36 -0.020835616 0.016598484 -0.004360438
000150 3b a8 cf 3c 05 69 3c 38 ac db 80 3c d0 1d d4 3c
       0.025348773 4.49205e-05 0.015729748 0.025893122
000160 42 e7 41 bb 09 b6 3b 17 29 c0 96 3d f4 df 56 bb
       -0.0029587303 6.065272e-25 0.073608704 -0.0032787295
000170 d4 c2 70 bd 03 c5 74 3b 22 2a 89 23 8a 9d 70 3d
       -0.058779553 0.0037348873 1.4871414e-17 0.05874399
000180 f1 f8 c6 3d b5 b3 01 3e 75 ef bd bd 29 61 5c bb
       0.097154506 0.12666209 -0.092741884 -0.0033627248
000190 6b 79 04 93 2c 2e b5 97 8d 27 01 00 da 61 9b 95
       -1.6720606e-27 -1.1708506e-24 1.06024e-40 -6.2758384e-26
0001a0 5e c8 06 80 73 03 01 80 1a 23 05 00 cb ed 06 00
       -6.22891e-40 -9.3073e-41 4.7177e-40 6.36317e-40
0001b0 b7 f8 48 99 03 b5 01 80 24 2e 0c 9a 53 4b 9f 94
       -1.0389985e-23 -1.5677e-40 -2.8988594e-23 -1.6084607e-26
0001c0 a1 82 04 80 7f 51 01 80 ba a5 ef 97 ae 5c c5 94
       -4.14203e-40 -1.21071e-40 -1.5486848e-24 -1.9928472e-26
0001d0 d8 29 05 80 9f b0 b3 93 24 05 19 99 e2 a4 01 80
       -4.74188e-40 -4.5360114e-27 -7.910953e-24 -1.50984e-40
0001e0 ce 7a 4f 99 5a 4f dc 98 be ed 00 9a 2f c7 4d 9a
       -1.0726449e-23 -5.694879e-24 -2.6661826e-23 -4.2553906e-23
0001f0 8e dc b7 96 4d 1b 06 00 af 48 b1 9a c2 fc 04 80
       -2.9704434e-25 5.60807e-40 -7.332291e-23 -4.58014e-40
000200 eb 1b 05 00 78 70 06 00 85 b4 01 00 29 54 b5 97
       4.69193e-40 5.91359e-40 1.56594e-40 -1.1718096e-24
000210 5a 9b 61 99 ae 8c 05 80 b2 70 00 00 6f 22 06 80
       -1.16636e-23 -5.09644e-40 4.0427e-41 -5.63365e-40
000220 03 36 79 97 95 bc 02 80 1a 57 04 80 ff f2 f3 97
       -8.052441e-25 -2.51321e-40 -3.98588e-40 -1.5764848e-24
000230 6a fb 02 00 68 f6 01 94 a1 f4 01 80 96 be 04 80
       2.73861e-40 -6.561431e-27 -1.79592e-40 -4.35711e-40
000240 7b 65 a6 97 18 54 be 97 c9 38 05 00 ed 97 05 80
       -1.0753116e-24 -1.229969e-24 4.79548e-40 -5.13678e-40
000250 7e 64 02 00 a6 fb 57 9a 33 39 00 00 46 d9 06 80
       2.19721e-40 -4.4664238e-23 2.0519e-41 -6.28956e-40
000260 fc 1b c7 9b 87 af 2c 97 09 0a 7c 99 f5 d5 05 00
       -3.2939873e-22 -5.5797744e-25 -1.3030121e-23 5.35931e-40
000270 82 24 69 99 ae f5 06 80 d7 0a ad 95 ce 60 ba 97
       -1.205319e-23 -6.39146e-40 -6.9891246e-26 -1.2044405e-24
000280 10 65 04 80 19 34 04 80 24 c5 00 80 b1 90 04 80
       -4.03596e-40 -3.86031e-40 -7.0721e-41 -4.19247e-40
000290 d9 5b 01 00 a8 6b e1 99 3f f0 04 80 81 0e 04 80
       1.24784e-40 -2.3307937e-23 -4.53526e-40 -3.72545e-40
0002a0 e9 28 02 80 44 1b 03 00 ef c4 65 9a b6 b5 94 97
       -1.98347e-40 2.85288e-40 -4.7515172e-23 -9.610146e-25
0002b0 4b 71 5b 8a 3e 91 04 80 8a 1d 02 00 0b 7a 80 96
       -1.05657745e-32 -4.19445e-40 1.94268e-40 -2.0756535e-25
0002c0 11 20 05 80 66 7b 02 00 5b eb 04 00 54 08 04 80
       -4.70681e-40 2.27938e-40 4.51772e-40 -3.7033e-40
0002d0 e9 5f 04 80 c3 ff ba 94 ca 80 2a 95 0c ce 01 00
       -4.01748e-40 -1.888208e-26 -3.4432823e-26 1.65751e-40
0002e0 ca 83 8d 96 50 1f 00 80 9e 3d cf 95 21 f2 02 00
       -2.286295e-25 -1.1233e-41 -8.370385e-26 2.7053e-40
0002f0 9b f4 8a 82 89 38 05 00 3b 04 63 92 79 17 04 00
       -2.0417674e-37 4.79458e-40 -7.1633785e-28 3.75762e-40
000300 b4 77 67 97 bc 72 cf 98 ad 3b 04 00 10 9e ae 97
       -7.479121e-25 -5.3624098e-24 3.8875e-40 -1.1284387e-24
000310 38 a1 f3 96 75 ec e9 92 ff 4a 01 80 2d 1d 05 00
       -3.936051e-25 -1.4762658e-27 -1.18739e-40 4.69644e-40
000320 6f d1 15 87 a8 88 53 87 04 1b 05 00 43 d7 31 87
       -1.1271061e-34 -1.5914035e-34 4.68869e-40 -1.337926e-34
000330 21 cb 92 85 9e 7e c1 85 d1 b5 03 80 f0 0d 05 00
       -1.3804392e-35 -1.8196145e-35 -3.4073e-40 4.64177e-40
000340 c6 21 6b 87 37 b2 78 85 cf 40 79 87 ef bc 28 87
       -1.768936e-34 -1.1693637e-35 -1.8751724e-34 -1.2694438e-34
000350 f8 b5 04 80 a0 0e d4 84 86 11 54 87 8e 34 28 87
       -4.3262e-40 -4.985439e-36 -1.5954257e-34 -1.265436e-34
000360 87 16 84 84 96 c5 1b 87 0e 8e 66 87 9c cc 06 80
       -3.105374e-36 -1.1718969e-34 -1.7345023e-34 -6.24413e-40
000370 36 9d 6b 87 cb 60 61 87 e9 61 78 87 bf cd 7b 87
       -1.7725635e-34 -1.6955564e-34 -1.868622e-34 -1.8943605e-34
000380 c4 e7 41 87 f0 5f 1a 85 11 72 82 87 cd 90 00 00
       -1.4587816e-34 -7.258666e-36 -1.9627268e-34 5.1945e-41
000390 aa d8 30 84 06 5a 35 85 28 46 05 80 a2 05 50 87
       -2.0788188e-36 -8.527114e-36 -4.84345e-40 -1.5649836e-34
0003a0 81 00 6d 87 cc ca 08 85 cf 88 50 85 26 7a 00 80
       -1.7830046e-34 -6.431937e-36 -9.805241e-36 -4.3819e-41
0003b0 31 eb 4d 87 f9 fb 05 80 01 e5 90 85 8a b9 54 87
       -1.5491602e-34 -5.49568e-40 -1.3625818e-35 -1.6003632e-34
0003c0 e7 dd 05 80 66 61 1f 87 b7 b8 66 85 5d c7 90 85
       -5.38781e-40 -1.1990453e-34 -1.0848475e-35 -1.361493e-35
0003d0 c2 34 51 87 93 6c 51 87 78 e0 06 80 8e 3c 05 00
       -1.5738917e-34 -1.575532e-34 -6.31537e-40 4.809e-40
0003e0 9d de 01 85 ed 48 7c 87 5d 8f 01 00 5d f3 c6 84
       -6.1064385e-36 -1.8979804e-34 1.43265e-40 -4.677307e-36
0003f0 4c 5e 8d 87 1f f5 4a 87 6f ee 6f 87 4a ed 01 00
       -2.1270745e-34 -1.5268826e-34 -1.8050431e-34 1.76959e-40

layer3.bias f4 [50]
000000 5f f6 f1 3d fa 3e 06 80 00 93 0b 84 d4 72 cb 3b
       0.1181457 -5.73605e-40 -1.640687e-36 0.006208757
000010 b6 9f 48 3c 74 a6 73 3b 03 b2 07 3c 15 32 ed 3c
       0.012245109 0.0037178071 0.008282187 0.028954545
000020 fb ac 5d bd 98 ab 04 00 e1 95 03 00 1a 3a 63 3d
       -0.054120045 4.28898e-40 3.29273e-40 0.05547533
000030 dc 2c 60 86 ce 6b f2 bc 4a 2b 9a 3b 94 0e f5 3b
       -4.2162675e-35 -0.02959242 0.0047048675 0.0074785445
000040 5a 87 a9 bc 89 b2 ea 3b ca 1c d6 3c aa b1 2d 3c
       -0.020694423 0.0071623963 0.026136775 0.01060144
000050 90 af e9 bb c1 68 06 3e 18 45 87 3c 94 ac d1 3b
       -0.0071315244 0.13125898 0.016512439 0.0063987467
000060 12 26 30 3d 23 22 02 3e 86 65 8c 3b fa 2f 43 39
       0.043005057 0.12708335 0.0042845635 0.00018614522
000070 4a 55 aa 3b bc 95 05 bb 98 f4 01 00 62 f9 de 3d
       0.0051981555 -0.0020383438 1.79579e-40 0.1088741
000080 9e 39 87 bb 6c e2 ca b2 0d fa dd 3d 2a 01 90 3d
       -0.0041267416 -2.361886e-08 0.10838709 0.07031472
000090 cf ba 2b b9 0c 52 73 3b 5e a0 1a bd 21 08 d3 3b
       -0.00016377422 0.0037127761 -0.037750594 0.006440178
0000a0 13 19 c4 3d a9 d5 42 bb 33 4d bd b8 db d2 08 3e
       0.09575095 -0.0029729402 -9.026602e-05 0.13361685
0000b0 b0 49 06 00 40 01 0e 80 77 66 c1 86 90 9e 27 8c
       5.77447e-40 -1.286145e-39 -7.274909e-35 -1.2912928e-31
0000c0 50 76 01 80 ee be ba 99
       -1.34278e-40 -1.9309065e-23

layer4.weight f4 [25, 50]
000000 8c f7 46 3c 5e 78 0b 9b ef 4c 7a 09 73 51 1e bb
       0.012143981 -1.1536703e-22 3.012883e-33 -0.0024157434
000010 95 3e 35 3e 1c 87 7a ba 89 72 60 bc a6 75 1d 3e
       0.17699654 -0.0009556876 -0.013699182 0.1537691
000020 51 26 17 bd 5b 09 01 07 6a 77 f1 83 d2 63 f1 3d
       -0.036901776 9.707631e-35 -1.4192123e-36 0.11786617
000030 60 b5 6a 03 29 5f af 3d 74 bf 58 bb b8 7a dc bb
       6.897463e-37 0.08563072 -0.00330731 -0.0067284964
000040 3e 95 08 bd 78 49 2c 3e bf 9b a9 3d 8f 00 11 bc
       -0.033345453 0.16824901 0.08281659 -0.008850231
000050 6f d9 2d 3e 14 ef ec 3d 75 2b c5 3c 8a d3 3a bb
       0.16977476 0.11569038 0.024068573 -0.0028507435
000060 2f 9e 23 3d 72 b0 42 bd 27 21 19 bd e7 6d 8f 3c
       0.039945778 -0.047531553 -0.037385132 0.01750846
000070 51 4e 53 bb 3a 4d da 38 cb e5 9a 87 30 bc a7 3d
       -0.0032242725 0.000104094346 -2.3306405e-34 0.08190191
000080 bc b4 09 3c 3d b6 82 39 b2 53 6d 3d 06 21 d0 bd
       0.008404907 0.0002493131 0.057941146 -0.10162549
000090 94 f0 a6 38 10 2b c5 3c 71 77 86 3c 94 ce 30 bb
       7.960308e-05 0.024068385 0.016414376 -0.00269786
0000a0 2c fd fd 3d 85 35 70 3c c2 5d f5 b8 c2 2c 49 bd
       0.12401804 0.014661198 -0.00011699974 -0.04911495
0000b0 93 c1 05 00 0a 1c 03 00 39 b4 05 87 a2 04 06 80
       5.28619e-40 2.85565e-40 -1.0058771e-34 -5.52675e-40
0000c0 fc 9a 01 80 97 ae 79 24 a7 13 11 b7 d9 61 05 00
       -1.47433e-40 5.414115e-17 -8.647249e-06 4.94279e-40
0000d0 54 44 03 80 bc ea 24 b8 05 25 fa b6 6b 92 4c b8
       -3.00018e-40 -3.931926e-05 -7.4548902e-06 -4.8773752e-05
0000e0 1c a2 89 b8 d0 0a ee 34 c5 23 4a b6 35 23 00 00
       -6.562864e-05 4.4338822e-07 -3.0121166e-06 1.263e-41
0000f0 6f d1 02 80 95 5b e7 b6 25 bf 05 80 43 63 ae b6
       -2.58802e-40 -6.894998e-06 -5.27747e-40 -5.1971597e-06
000100 0b 86 bb b7 d3 5f 43 b8 81 c9 11 36 5e a0 e4 b5
       -2.2354556e-05 -4.6580866e-05 2.1723974e-06 -1.7033997e-06
000110 40 68 1e b6 a4 0f 29 b8 4d a1 97 b6 05 91 f8 b5
       -2.3604516e-06 -4.0307306e-05 -4.5189286e-06 -1.8519646e-06
000120 ad 1d 2b 36 45 a0 c8 b8 1c 5b c9 b6 1d 1d a6 36
       2.549826e-06 -9.566596e-05 -6.0008733e-06 4.9505747e-06
000130 dd 28 6e b5 1c 2a 9b 39 88 54 c7 b7 a8 dd 00 80
       -8.8721373e-07 0.00029595278 -2.3762012e-05 -7.9515e-41
000140 a8 5c 03 00 c6 58 9a b6 94 70 1b 39 a0 56 01 00
       3.08745e-40 -4.5998922e-06 0.0001482389 1.2291e-40
000150 a3 35 87 b6 95 60 19 b7 24 6e 06 00 59 6d 9b 39
       -4.0295577e-06 -9.141998e-06 5.90524e-40 0.00029645374
000160 12 4a f6 36 57 c6 07 b8 a4 70 66 b6 1c be 9d 39
       7.339994e-06 -3.2371227e-05 -3.4338236e-06 0.00030087016
000170 10 6e 6e b9 fd 2e 21 b6 b0 16 06 00 46 25 06 80
       -0.0002273845 -2.401822e-06 5.59152e-40 -5.64384e-40
000180 08 87 01 80 b0 40 04 80 1b 6c 02 00 f8 21 03 00
       -1.40276e-40 -3.90547e-40 2.22452e-40 2.87692e-40
000190 78 4f 38 3d 6a 20 05 a7 c8 dc 21 0a a2 a9 1c bb
       0.044997662 -1.847503e-15 7.793392e-33 -0.002390482
0001a0 25 c6 2d 3e 0e b4 75 ba b5 05 18 bd f0 01 22 bd
       0.16970117 -0.00093728385 -0.037114818 -0.03955263
0001b0 94 51 2d 3d 23 03 a7 07 91 27 a3 84 dc 46 1b 3d
       0.042314127 2.512921e-34 -3.8357452e-36 0.037909374
0001c0 73 ce 17 04 e4 03 97 3d 7d 23 58 bb d6 1f db bb
       1.7844762e-36 0.07373789 -0.0032980137 -0.0066871447
0001d0 8c 20 0a 3e 07 f5 e7 3c 2d 0b e1 38 24 73 10 bc
       0.13488978 0.02831508 0.00010730918 -0.008816514
0001e0 ce ac ae 3d d7 3d 13 3e 98 d4 7e bd d1 4f 38 bb
       0.08529054 0.14379059 -0.062214464 -0.0028123746
0001f0 14 c1 17 3e e3 c3 50 3d 7e 8e 4b bc ce 9d 90 3c
       0.14819747 0.050968062 -0.0124241095 0.017653372
000200 14 f6 52 bb 8c 3a f7 38 7a fb 49 88 b5 05 be 3d
       -0.003219013 0.00011788783 -6.0781847e-34 0.09278432
000210 a2 13 0b 3c d4 1d 8d 39 6e fb 04 3e 54 04 e1 3c
       0.008488568 0.0002691584 0.12986538 0.027467884
000220 41 7c a7 38 90 86 c6 3c 50 53 d7 3d a1 2f 30 bb
       7.9863246e-05 0.024234086 0.105139375 -0.0026883858
000230 8d 19 4c 3c 70 b8 71 3c ba 24 ef b8 a7 d6 b0 3c
       0.012457264 0.014753446 -0.00011403249 0.02158673
000240 82 42 03 00 59 7e 02 80 ae 43 ba 87 9b 04 b9 04
       2.99365e-40 -2.28996e-40 -2.8025948e-34 4.349752e-36
000250 88 b6 03 00 f0 5b 21 25 3e a7 90 3d 3e 29 21 9f
       3.40986e-40 1.3995674e-16 0.07063149 -3.412719e-20
000260 9c f6 a9 09 a9 0c 1e bb 10 2a b3 bd 94 ad 79 ba
       4.091718e-33 -0.0024116433 -0.08748257 -0.00095244613
000270 bc f0 60 bc 55 68 8d bd e9 bf b2 3d 09 43 2f 07
       -0.013729271 -0.069046654 0.0872801 1.3185237e-34
000280 e1 94 25 84 ae 65 f9 3c 8f 62 9f 03 f1 d0 45 3d
       -1.9464019e-36 0.030443992 9.367808e-37 0.048294965
000290 d3 a3 58 bb 81 3e dc bb c3 3e 5f bd ac d0 50 bc
       -0.0033056631 -0.0067213182 -0.054503214 -0.012745064
0002a0 d7 01 1f 3e bf eb 10 bc 62 3c 02 3e 29 f7 2e 3c
       0.15528046 -0.008845269 0.12718347 0.010679045
0002b0 f9 b9 92 3d 74 62 3a bb 7a 3b 07 3e 2f 76 8f 3d
       0.07164378 -0.002844003 0.13206282 0.070049636
0002c0 4e 21 36 3e f8 93 8f 3c ab 56 53 bb 12 5c df 38
       0.17786142 0.017526612 -0.0032247703 0.00010650618
0002d0 40 bb d2 87 9f ed 88 bd 88 f3 09 3c ad 14 87 39
       -3.1707344e-34 -0.066859476 0.008419879 0.0002576461
0002e0 5e 50 35 3e 8d b0 e9 3c 89 0c a7 38 78 5a c5 3c
       0.17706439 0.028526569 7.9655154e-05 0.02409099
0002f0 09 99 12 3e 6d db 30 bb 8a 05 92 b9 08 7c 70 3c
       0.14316191 -0.0026986257 -0.00027851417 0.014678009
000300 68 27 f4 b8 b6 71 19 3e 7f d0 06 00 fb 57 01 00
       -0.00011642167 0.14984784 6.25807e-40 1.23397e-40
000310 93 96 38 87 79 65 02 00 58 29 00 00 f7 85 a9 24
       -1.3886871e-34 2.20073e-40 1.4831e-41 7.351901e-17
000320 cb f0 6b 80 66 ff 00 80 46 b0 02 80 30 8d 03 80
       -9.912778e-39 -9.162e-41 -2.46906e-40 -3.26155e-40
000330 a3 05 98 80 f0 ed 01 00 a8 7a 01 00 2f f9 83 80
       -1.3961017e-38 1.77191e-40 1.35836e-40 -1.211984e-38
000340 bc 84 90 80 97 dd 06 00 43 9a 01 80 2f ea 9e 80
       -1.3271928e-38 6.30504e-40 -1.47174e-40 -1.4594018e-38
000350 ba d0 05 00 54 50 c7 80 c0 8c 07 80 a0 79 03 00
       5.34054e-40 -1.830408e-38 -6.9334e-40 3.19137e-40
000360 cb ef 5e 80 7b 19 7a 80 4c d6 99 80 78 1f 03 00
       -8.718558e-39 -1.1213071e-38 -1.4127706e-38 2.86795e-40
000370 26 06 ad 80 f3 30 80 80 12 5a 4c 80 98 4b 04 00
       -1.5889746e-38 -1.1772503e-38 -7.011809e-39 3.9446e-40
000380 fe 25 9e 80 1e f3 5a 80 53 57 80 80 c0 c5 00 80
       -1.4523637e-38 -8.352409e-39 -1.178627e-38 -7.094e-41
000390 90 06 07 80 b8 84 01 00 0e 01 04 80 e9 07 76 80
       -6.45203e-40 1.39446e-40 -3.6772e-40 -1.0839426e-38
0003a0 80 84 01 80 79 86 03 80 f8 a4 a0 80 87 ff 87 80
       -1.39368e-40 -3.23746e-40 -1.4752859e-38 -1.2489458e-38
0003b0 29 46 03 00 e0 03 01 80 b8 91 4c 80 70 a7 04 80
       3.00675e-40 -9.3226e-41 -7.031772e-39 -4.27407e-40
0003c0 f6 a6 a1 80 58 1d 01 00 40 89 02 00 06 2d 92 80
       -1.4845409e-38 1.02362e-40 2.32907e-40 -1.3424134e-38
0003d0 80 a0 00 80 04 55 05 00 cb ed 04 00 2c 51 04 80
       -5.7577e-41 4.89675e-40 4.52646e-40 -3.96461e-40
0003e0 5c 57 06 00 f7 8b 00 80 f0 7b 1e b9 00 23 01 80
       5.82352e-40 -5.021e-41 -0.00015114225 -1.04391e-40
0003f0 45 85 05 00 f0 5c bc 3a da 0a 3f b8 c9 78 bc 38
       5.06986e-40 0.0014370959 -4.5548055e-05 8.9870366e-05

layer4.bias f4 [25]
000000 75 e3 34 3e 7e 30 1a b8 3f e2 3f bd 69 f6 0d bd
       0.17664893 -3.6761623e-05 -0.046846624 -0.034658823
000010 08 24 06 00 ff 7a 8d 30 ee 49 2b 3e fb f7 b8 3b
       5.63939e-40 1.0294058e-09 0.1672742 0.005644796
000020 80 0b 01 80 ae 98 31 3e 50 8b 06 00 f6 85 6e b4
       -9.5961e-41 0.17343399 6.00989e-40 -2.2214212e-07
000030 ab 60 ba 3c 2b f0 91 3d 82 07 34 3d e0 c6 25 bd
       0.022751173 0.071258865 0.043952473 -0.040472865
000040 49 2d 24 3a 4b 53 3f a8 9c e3 f2 b8 ba 30 3f 83
       0.00062628515 -1.0620691e-14 -0.00011581855 -5.618579e-37
000050 68 ba a4 3c 0e 4e 94 bd fd e3 b8 83 30 55 3f 3b
       0.020108417 -0.0724145 -1.0866892e-36 0.0029195063
000060 be 59 2e 3d
       0.042566054

layer5.weight f4 [10, 25]
000000 80 36 4e 3e b5 7d 05 33 74 4b 11 3d d3 e0 14 be
       0.20137978 3.1080805e-08 0.03547235 -0.14538889
000010 03 59 03 00 d8 1f 1b b8 be 5c e4 3d 96 de 1f bb
       3.07438e-40 -3.6984537e-05 0.11150502 -0.0024394146
000020 37 1e 84 00 74 cb 58 3e 7d 6e fc 1e c7 66 db b8
       1.2133125e-38 0.21171361 2.6727235e-20 -0.000104618775
000030 5f ca 6d bd 51 08 1f 3e 7f ab 00 3d 59 3e f0 3c
       -0.058054324 0.15530516 0.03141355 0.029326605
000040 ec 7f 7c 3b 37 93 8d 39 2a 29 a6 38 68 0c c3 83
       0.0038528396 0.000270033 7.923164e-05 -1.1463918e-36
000050 48 91 bc 3d ea f0 2f 3e 45 23 06 8c 5d 39 ea b7
       0.09207398 0.17181745 -1.0333598e-31 -2.7921686e-05
000060 78 1b 0c 3e 1c 32 01 3b 8d 4e fd b7 3b d3 fc 3a
       0.13682353 0.0019713705 -3.0196528e-05 0.0019289026
000070 74 29 00 3b 10 21 02 80 60 54 02 80 29 8c 02 3b
       0.0019555958 -1.95532e-40 -2.13939e-40 0.0019919968
000080 7f 1d c6 3a c8 3f 06 00 9c da ff 3a f7 9a 04 80
       0.0015114992 5.73893e-40 0.0019520107 -4.22933e-40
000090 36 57 5d 38 d2 6f fe 3a c1 14 fd 3a 39 46 01 3b
       5.2771727e-05 0.0019411987 0.0019308553 0.0019725694
0000a0 b1 f3 fc 3a a2 38 0d 3b a7 b9 4e b5 e5 1e c6 b8
       0.00192987 0.0021548648 -7.701114e-07 -9.44713e-05
0000b0 68 22 50 00 e5 1f 00 3b 47 01 02 3b 06 92 65 08
       7.359182e-39 0.001955026 0.0019837187 6.908383e-34
0000c0 05 f1 f9 3a f1 ec ff 3a 3f 77 e5 bd 37 06 1c b4
       0.0019069022 0.001952557 -0.11204385 -1.4530893e-07
0000d0 8e be 1f 3e 10 5b 77 3d d9 52 03 00 23 4b 19 b8
       0.15600035 0.06038958 3.05227e-40 -3.654802e-05
0000e0 f0 1c 14 be d1 dc 1f bb 4f dd 86 00 66 b6 9e bc
       -0.14464164 -0.0024393091 1.2385347e-38 -0.019374084
0000f0 6a de 40 1f 02 71 db b8 7e 41 2a 3e 32 90 0f 3d
       4.0841558e-20 -0.00010463783 0.16626546 0.035049625
000100 ea c9 bc 3d 0e 77 46 bc 37 8f 7c 3b 9d c3 8d 39
       0.092181996 -0.012113346 0.003853751 0.0002703936
000110 92 f7 a5 38 fe b2 c7 83 20 84 5f 3e 34 73 10 3e
       7.913927e-05 -1.1737263e-36 0.21827745 0.14106447
000120 b2 55 09 8c 7e 68 e9 b7 7b 06 5f 3e e0 9f a5 b9
       -1.0579884e-31 -2.7824422e-05 0.21779816 -0.0003159037
000130 80 60 05 80 1a eb a3 b9 d9 a4 a4 b9 a9 a6 04 80
       -4.93795e-40 -0.00031264947 -0.0003140334 -4.27128e-40
000140 3c a7 04 80 09 7f a5 b9 32 67 80 b9 2d af 06 00
       -4.27334e-40 -0.000315659 -0.0002449095 6.13854e-40
000150 30 b1 a4 b9 e7 c3 02 80 f2 9c 02 00 74 78 a4 b9
       -0.00031412533 -2.53948e-40 2.39972e-40 -0.00031370262
000160 d0 50 a3 b9 5a 5e a4 b9 f9 a4 a3 b9 2c a8 89 b9
       -0.00031149993 -0.00031350815 -0.00031212697 -0.00026255974
000170 dc 90 04 00 98 35 06 00 d5 4c 06 00 50 68 a4 b9
       4.19308e-40 5.70239e-40 5.78575e-40 -0.00031358236
000180 82 f2 a5 b9 87 1d 06 80 60 e6 05 80 57 ad a4 b9
       -0.00031651935 -5.61605e-40 -5.4182e-40 -0.00031409666
000190 63 c8 0b bb ab 5a 05 80 74 29 f7 b9 6d 43 ee b9
       -0.0021329157 -4.91703e-40 -0.00047142396 -0.00045445134
0001a0 14 87 04 80 d5 4c 01 00 3c 2c 78 ba b0 b3 cc b8
       -4.15799e-40 1.19398e-40 -0.00094670407 -9.7609474e-05
0001b0 05 e4 01 80 57 8f 17 ba bd f1 04 00 51 58 05 00
       -1.73633e-40 -0.0005781552 4.54061e-40 4.9086e-40
0001c0 db 97 de b9 ff 82 7e bb ec b3 d2 ba a6 32 f2 37
       -0.0004245628 -0.0038835404 -0.0016075349 2.8872233e-05
0001d0 f3 c4 ce b8 70 0f 04 80 4c e8 06 00 4f e1 02 80
       -9.85953e-05 -3.7288e-40 6.34345e-40 -2.64496e-40
0001e0 5e a0 1c ba d9 b6 86 b9 eb d0 02 00 43 39 05 00
       -0.00059748243 -0.00025694704 2.58617e-40 4.79719e-40
0001f0 a9 f1 05 3c 79 55 c8 87 38 fb 06 00 2d ed c8 87
       0.008175292 -3.0142892e-34 6.41133e-40 -3.0232055e-34
000200 88 44 c1 87 56 53 06 00 75 ff 01 80 09 2f 89 87
       -2.9079691e-34 5.80908e-40 -1.83476e-40 -2.0641114e-34
000210 99 ab 89 85 78 cb 06 00 eb 3e fe 87 cd b0 05 00
       -1.2946453e-35 6.24004e-40 -3.8254652e-34 5.22602e-40
000220 b3 28 06 00 01 57 b4 87 cf 7f 0d 88 c5 d6 61 87
       5.65613e-40 -2.7134526e-34 -4.2580882e-34 -1.6990234e-34
000230 87 d1 54 87 56 76 be 85 71 12 05 00 e5 99 06 00
       -1.6010682e-34 -1.7910984e-35 4.65793e-40 6.0622e-40
000240 7c 4d 03 00 94 a2 de 87 ab 60 92 87 40 59 04 80
       3.03303e-40 -3.3498402e-34 -2.2024455e-34 -3.99359e-40
000250 48 11 05 80 92 3b 05 88 25 dc b4 36 50 7c 34 39
       -4.65377e-40 -4.0093256e-34 5.390046e-06 0.00017212448
000260 6b a0 04 b8 7a 77 3e b7 fe ad 01 80 46 2c 6e 39
       -3.1620653e-05 -1.13527e-05 -1.54252e-40 0.00022713942
000270 a1 4d ba 37 e2 e0 03 3b 68 d7 01 00 c4 29 48 b7
       2.2209077e-05 0.0020123054 1.69109e-40 -1.1930653e-05
000280 1d 41 01 00 79 4b 16 36 3e 40 ab b7 92 60 05 b8
       1.15194e-40 2.2395673e-06 -2.0414704e-05 -3.179961e-05
000290 15 1d cf 36 6c ac c9 b7 05 ed 23 39 b0 49 68 95
       6.1724663e-06 -2.4041357e-05 0.00015633188 -4.6910156e-26
0002a0 13 53 db b8 18 55 02 00 89 10 5d b7 df 0c ae 37
       -0.000104582075 2.14197e-40 -1.3176476e-05 2.074841e-05
0002b0 88 e6 03 00 de 0f e6 b9 e5 1e 36 b7 f1 3e e3 bd
       3.58206e-40 -0.0004388084 -1.08552385e-05 -0.110959895
0002c0 c0 f5 27 36 04 79 b8 3c 8d 3d 20 3e ef 5c 05 00
       2.5027985e-06 0.022518642 0.1564848 4.92516e-40
0002d0 0b 50 36 b8 e4 41 89 3d 79 fc 1f bb 87 d2 5b 00
       -4.3466727e-05 0.06702021 -0.002441196 8.432553e-39
0002e0 4c e1 cf bc 43 b5 19 1a c3 a8 da b8 bf 08 64 3e
       -0.025375985 3.178608e-23 -0.000104264844 0.22268961
0002f0 1d a2 60 3d 06 f6 d3 3d e1 87 08 3e 13 6d 7b 3b
       0.054842103 0.103496596 0.13333084 0.0038364574
000300 11 19 8a 39 7a bb a8 38 a8 1e 88 83 78 26 78 3d
       0.00026340087 8.0457845e-05 -8.0004e-37 0.06058356
000310 87 62 82 bb 8e 31 bb 8b 58 3c f9 b7 04 64 1c 3e
       -0.0039790305 -7.210434e-32 -2.9711213e-05 0.15272528
000320 d9 db f1 bd 8a a8 f5 36 2b b1 70 3d e5 9d ee 3c
       -0.11809511 7.3211895e-06 0.05876271 0.029128024
000330 0e 65 02 80 d9 b1 c3 b8 90 c9 07 3d 58 d8 22 bb
       -2.19923e-40 -9.331451e-05 0.03315121 -0.002484819
000340 81 b8 06 00 cf 33 0d 3d 64 b3 02 00 d8 fc ca b8
       6.172e-40 0.034473237 2.48024e-40 -9.6792064e-05
000350 d3 0c f2 bd 58 4a 8e 3d 34 65 5c 3e 0b a9 52 bd
       -0.11818852 0.06947774 0.21522981 -0.051430743
000360 71 7f 65 3b e7 1a 1e 39 7c 83 b0 38 30 1b 0c 82
       0.0035018588 0.00015078076 8.416825e-05 -1.0293378e-37
000370 58 6f 59 3e ea 18 08 3e a1 50 40 8a e1 61 a1 b8
       0.2123388 0.13290754 -9.259628e-33 -7.6953096e-05
000380 58 0b 20 3e 88 b4 53 3e 3d db 49 36 ad fd 43 3e
       0.15629327 0.20674336 3.0078947e-06 0.19139738
000390 66 64 6f 3e c4 d4 05 00 e4 c8 3c b8 0e 09 0c 3e
       0.23378143 5.35503e-40 -4.5009787e-05 0.13675329
0003a0 f9 05 20 bb b7 2d 54 00 17 e8 c0 3d c9 9b e2 18
       -0.0024417622 7.730581e-39 0.094192676 5.8576934e-24
0003b0 b5 6f da b8 1f ff 0b 3e 09 f6 1a 3e f2 96 0a 3e
       -0.00010415857 0.1367154 0.15132917 0.13534144
0003c0 cb a1 ae bd 96 1c 7b 3b 06 11 89 39 d6 3a a9 38
       -0.08526953 0.00383166 0.0002614336 8.069507e-05
0003d0 f5 80 79 83 45 38 55 bd 67 69 04 bd e1 90 ab 8b
       -7.332256e-37 -0.052055616 -0.032327082 -6.6084794e-32
0003e0 25 06 fe b7 d7 bb ad 3d
       -3.028202e-05 0.08483093

layer5.bias f4 [10]
000000 6f e3 59 3e 41 2c 9b 3b 12 c2 32 3e 3f 9a ed b5
       0.21278165 0.0047355 0.17456844 -1.7702768e-06
000010 1c 8d e8 b8 62 af 0f 84 97 f9 05 3b a6 48 bc 3d
       -0.00011088906 -1.6890101e-36 0.0020442957 0.09193544
000020 d2 02 a9 3d 3d be 19 be
       0.08252491 -0.15013976

layer6.weight f4 [1, 10]
000000 66 b0 97 3e 40 93 01 bb eb 4d 9b 3e 1c fd d8 38
       0.2962677 -0.0019771606 0.30332884 0.00010346828
000010 84 f7 e3 38 cb e7 c0 0b 14 85 b0 35 cc ae 53 3e
       0.00010870307 7.4304473e-32 1.3151753e-06 0.20672148
000020 25 63 d9 3c 82 02 42 3e
       0.026536534 0.18946269
