weights/_unorm_btc_mlp.pth (torch_old, 164819 bytes, 11 tensors)

layer1.weight f4 [130, 161]
0	0x3df34104	0.11877635
1	0x3d99b8bf	0.07505941
2	0x3cf1e4b8	0.029528007
3	0x3d1dca97	0.038523283
4	0x3e0c9f92	0.13732746
5	0x3cfbd908	0.030743137
6	0x3d557d7f	0.052121636
7	0xbd5ee12e	-0.054413967
8	0xbce2ed12	-0.027700935
9	0xbca4cabc	-0.020116203
10	0x3e167bf7	0.14695726
11	0xbc8eca10	-0.017430335
12	0xbc730cae	-0.014834566
13	0x3d351c59	0.044216488
14	0xbc1a9a29	-0.009436169
15	0xbb6a1523	-0.0035718165
16	0xbabb97fe	-0.0014312265
17	0x3b18e00a	0.0023326897
18	0xbc4a976e	-0.012365205
19	0x3cb43227	0.02199657
20	0xbd10016c	-0.035157606
21	0x3d57d9b1	0.05269784
22	0x3cb00abf	0.0214895
23	0x3db3291a	0.08748074
24	0x3df948e4	0.12172106
25	0x3d117789	0.03551439
26	0x3e18c451	0.14918639
27	0x3d0beb4b	0.03415994
28	0x3cbedb0c	0.023297809
29	0x3cf9d42a	0.030496676
30	0xbd93052f	-0.07178723
31	0xbc91c7f8	-0.017795548
32	0xbd0232a1	-0.031786565
33	0x3d54ac8e	0.051922373
34	0x3d2ca692	0.04215104
35	0xbc00b43a	-0.007855469
36	0x3cfbeb6c	0.030751906
37	0x3d8f307f	0.06991672
38	0x3dd66cfc	0.10470006
39	0xbd9b68fa	-0.07588382
40	0xbd2dac64	-0.042400733
41	0x3d89243b	0.066963635
42	0x3b8dbdbf	0.004325598
43	0x3c807223	0.015679425
44	0x3ddf4c07	0.10903173
45	0xba164fe6	-0.00057339517
46	0x3ddc079b	0.10743638
47	0x3d4be9a3	0.04978336
48	0x3b17f9eb	0.0023189734
49	0x3e3f5137	0.18683325
50	0x3e326643	0.17421822
51	0xbc2158f0	-0.0098478645
52	0x3da8c3f5	0.08240501
53	0xba3691c0	-0.00069644675
54	0xbd611c74	-0.054958776
55	0xbc6efaf6	-0.014586201
56	0x3d07cc93	0.03315408
57	0x3d8cc98a	0.06874378
58	0x3c7a1447	0.015263624
59	0x3d41a13b	0.047272902
60	0x3db7bf56	0.08972041
61	0xbc757d95	-0.014983554
62	0xbcad62da	-0.0211653
63	0xbc4f5cdb	-0.012656416
64	0x3cb98342	0.022645596
65	0xbd4849d5	-0.048898537
66	0x3c2ab234	0.0104184635
67	0x3cb88e98	0.022528931
68	0x3dcc0aa6	0.099629685
69	0x3bfbb424	0.0076813865
70	0x3cc3cbe4	0.023900934
71	0x3e0ba067	0.13635407
72	0x3e3e55b7	0.18587385
73	0x3d71ed23	0.05906404
74	0x3db0bd76	0.08629887
75	0xbc906f65	-0.017631242
76	0xbcf620d2	-0.030044947
77	0xbdcaf95a	-0.09910841
78	0x3c9a64be	0.018846866
79	0x3dbb0a3c	0.091328114
80	0xbcd35d89	-0.025801437
81	0xbbc4e5f3	-0.0060088574
82	0x3dea955b	0.114542685
83	0x3d0437ea	0.032279886
84	0x3deac853	0.1146399
85	0x3d70cda6	0.05878987
86	0x3d87ba75	0.06627361
87	0xbc8b702e	-0.017021265
88	0x3d4e9286	0.050432704
89	0xbb34df86	-0.002759905
90	0x3cf2b459	0.029627012
91	0x3d8df3c3	0.069312595
92	0x3e0d0e20	0.1377492
93	0x3e157b63	0.1459785
94	0x3c024535	0.007951071
95	0x3de46f8b	0.11154088
96	0x3dbdb2d1	0.09262622
97	0x3d35a52e	0.04434698
98	0xbcf05dbc	-0.029341571
99	0x3d872b3d	0.06600044
100	0xbdafe789	-0.08589084
101	0x3ce17583	0.027521854
102	0x3db04a78	0.08607954
103	0xba0fd36c	-0.00054865214
104	0x3d29808b	0.041382354
105	0x3de788ac	0.11305365
106	0x3dbde81d	0.09272788
107	0x3df60aba	0.12013765
108	0x3d860f70	0.06545913
109	0xbc63d798	-0.013906382
110	0x3d6b0781	0.057380203
111	0xbc7cb983	-0.015425089
112	0x3d806eaf	0.06271111
113	0x3d4a385d	0.04937016
114	0x3dd306be	0.1030402
115	0x3e0761e7	0.1322094
116	0x3dd34fe4	0.10317972
117	0x3c8dd8c2	0.017315272
118	0x3e3ba0df	0.18323086
119	0x3e455a9b	0.19272844
120	0xbcb128b3	-0.021625852
121	0x3cbc2144	0.022965081
122	0x3dcb0a87	0.09914117
123	0x3b953538	0.0045534633
124	0xbda9f3c0	-0.08298445
125	0x3c953da5	0.018217871
126	0xbc8515e9	-0.0162458
127	0x3c28fca0	0.010314137
128	0x3dc31084	0.095246345
129	0x3cb26d44	0.021780618
130	0x392f6254	0.0001672593
131	0xbca75ffb	-0.02043151
132	0xbbccd896	-0.006251405
133	0x3db37b10	0.08763707
134	0x3bb4eb11	0.005521186
135	0x3da5c8a5	0.080949105
136	0xbc42c2eb	-0.011887292
137	0xbc9c8e60	-0.019110858
138	0x3d10fdd9	0.035398338
139	0x3e0dd2f8	0.1385001
140	0x3d5d8d9f	0.05409014
141	0x3d0b6eda	0.034041263
142	0x3e1d64e2	0.15370515
143	0x3dd841ad	0.10559402
144	0x3beb7c44	0.0071864445
145	0x3df7f512	0.1210729
146	0xbdd96c25	-0.1061633
147	0xbdda73b0	-0.10666597
148	0x3db0e1b2	0.08636798
149	0x3dfc504a	0.123200014
150	0x3cbf4d77	0.023352368
151	0x3d397860	0.045280814
152	0x3c93eac6	0.018056285
153	0x3dd9dd2b	0.106378876
154	0x3c5220c6	0.012825197
155	0xbbb7fbe2	-0.0056147436
156	0x3ca6cbcb	0.020360848
157	0x3daf1947	0.08549743
158	0x3d8093e7	0.0627821
159	0xbd03e59a	-0.032201387
160	0x3cd37fd1	0.025817784
161	0x3dca432f	0.098760955
162	0x3dfc9679	0.12333388
163	0x3d85d559	0.065348335
164	0x3dd1e953	0.10249581
165	0x3d05b81a	0.032646276
166	0x3d079b1a	0.0331069
167	0xbd3daaf6	-0.04630562
168	0x3cf67236	0.030083757
169	0xbc5518bd	-0.013006386
170	0xbd449fc8	-0.04800394
171	0x3ddc9af7	0.10771745
172	0xbc0c22aa	-0.008553186
173	0x3d48b8c2	0.049004324
174	0x3dbd8970	0.0925473
175	0x3dab6e2d	0.08370624
176	0x3b23768c	0.0024942486
177	0xbd3a0696	-0.045416437
178	0xbd6ff3f0	-0.058582246
179	0xbd81b632	-0.06333579
180	0x3b9a5ada	0.0047105374
181	0x3cfc3fde	0.030792173
182	0x3de3fe86	0.11132531
183	0x3cdc62ae	0.026902523
184	0x3d53dac1	0.05172229
185	0x3e07c868	0.13260043
186	0x3ded1e07	0.11577993
187	0x3cc5a7f8	0.024127945
188	0x3e2c6f3b	0.16839306
189	0x3d57bf18	0.052672476
190	0xbd389f08	-0.04507354
191	0x3c4d123c	0.012516554
192	0xbdd214d2	-0.102578774
193	0xbd8905df	-0.06690573
194	0x3d750325	0.059817452
195	0xbd1742a9	-0.036928806
196	0xbd42a55f	-0.04752099
197	0x3d244aa6	0.040110253
198	0x3ce99693	0.028514182
199	0x3d30f7ad	0.043204952
200	0xba80302a	-0.0009779979
201	0xbc719cb7	-0.014746836
202	0x3d51959b	0.051168066
203	0x3d6de8d9	0.05808339
204	0xbd7546a7	-0.059881832
205	0x3dd00635	0.10157434
206	0x3d39c78e	0.045356326
207	0x3d9101c0	0.07080412
208	0x3e0e38c7	0.13888846
209	0x3da3b8d8	0.079942405
210	0x3daa5e75	0.083187975
211	0x3e243f8b	0.16039865
212	0x3c3f9145	0.01169235
213	0xbd32a21d	-0.043611635
214	0xbd0013cd	-0.031268883
215	0xbdcad749	-0.09904344
216	0xbd665e41	-0.05624223
217	0x3d82c8a3	0.06385925
218	0x3b4a8297	0.0030900592
219	0x3cc49607	0.02399732
220	0x3d905d8c	0.07049093
221	0x3d44d516	0.048054777
222	0x3d3d3311	0.04619128
223	0xbd44724a	-0.047960557
224	0x3d39123a	0.045183398
225	0x3d9de6c6	0.07710032
226	0x3d0718b2	0.032982536
227	0xbc2b9537	-0.010472587
228	0x3d71eac4	0.05906178
229	0x3cbadcbc	0.022810332
230	0x3d13dd80	0.03609991
231	0x3dd8b61e	0.10581611
232	0xbb4d9f48	-0.0031375457
233	0x3d5d59c7	0.054040696
234	0x3df2cbca	0.11855276
235	0xbd4b148c	-0.049580142
236	0xbd3d4f16	-0.046218
237	0x3c4e8427	0.01260475
238	0xbddd5764	-0.10807684
239	0xbde32388	-0.110907614
240	0x3be84828	0.00708868
241	0x3cf07ef5	0.029357413
242	0xbd5fef87	-0.05467179
243	0x3cb5cabe	0.022191402
244	0x3c987e8b	0.018615028
245	0x3d4cc5b2	0.049993224
246	0xbcfabd24	-0.030607767
247	0xbd33c2c4	-0.043886915
248	0x3ca2ef60	0.019889534
249	0xbd58bf78	-0.052916974
250	0x3dbb889e	0.09156917
251	0x3d8fb8ea	0.070176914
252	0x3b95f68c	0.00457651
253	0x3c446c13	0.0119886575
254	0x3d0d4c9f	0.0344969
255	0x3d97df2b	0.07415613

layer1.bias f4 [130]
0	0x3e165318	0.14680135
1	0x3db0bdfd	0.086299874
2	0x3da768dc	0.08174297
3	0x3c522478	0.012826078
4	0x0004eb7e	4.5182e-40
5	0xb8f397f5	-0.00011615447
6	0x3ca14952	0.019688282
7	0x3dcce444	0.10004476
8	0x3de99f83	0.114073776
9	0xbbfabd1b	-0.0076519377
10	0x3dfe5091	0.124177106
11	0x3daef34d	0.085425
12	0x3ddcd5db	0.10782977
13	0x829db40c	-2.3172418e-37
14	0x3e19265d	0.1495604
15	0xb94996e3	-0.00019225063
16	0x3a17be73	0.0005788572
17	0x3da0489d	0.0782635
18	0xbdb20602	-0.08692552
19	0x3e0e105b	0.13873427
20	0x0003b419	3.40113e-40
21	0x8001528b	-1.21446e-40
22	0x3d10cdb7	0.035352435
23	0x2fa4c59b	2.9971833e-10
24	0xba8633fb	-0.001023888
25	0xbd3c6a1e	-0.04599964
26	0x3d0d8f50	0.0345605
27	0xbda3355c	-0.07969162
28	0xbc47de01	-0.012198926
29	0x3dc8b05c	0.09799263
30	0x967ba51b	-2.0327717e-25
31	0x3d4978b4	0.049187377
32	0x00017dc2	1.36949e-40
33	0x9f16eb1d	-3.1958217e-20
34	0x00028b7a	2.33706e-40
35	0x3d60c2f3	0.054873418
36	0x3de918c8	0.1138168
37	0xb9dcfadb	-0.00042148572
38	0x3dc08fcf	0.09402429
39	0x3d39b536	0.04533883
40	0xb98d5acd	-0.00026961268
41	0x3de67e77	0.1125459
42	0xbda455eb	-0.080242
43	0x3bb3b8ba	0.0054846676
44	0x800199e2	-1.47038e-40
45	0x3cf093c6	0.029367339
46	0xb991fb4d	-0.0002784379
47	0xb9bf9f79	-0.00036549175
48	0x3de6d591	0.11271203
49	0x3ccc002a	0.024902422
50	0xbc403bc7	-0.011733002
51	0x3ddd6a80	0.10811329
52	0x0001bc0b	1.59293e-40
53	0x00010ade	9.5734e-41
54	0x80246800	-3.343386e-39
55	0x0005cfc1	5.33706e-40
56	0x3ca27e35	0.01983557
57	0x3df7dbc4	0.12102464
58	0x3d4d031c	0.050051793
59	0x800291b6	-2.35942e-40
60	0xbdd3f98e	-0.10350333
61	0x80032cf3	-2.91631e-40
62	0x3ddebb4c	0.10875568
63	0x3e0928d6	0.13394484
64	0x3d52b601	0.051443104
65	0x3db0f77b	0.08640953
66	0xb4c2fc32	-3.6318812e-07
67	0x0004e372	4.48934e-40
68	0x3ba3597a	0.0049850317
69	0x3c546e19	0.012965702
70	0xb6d1a7e1	-6.248229e-06
71	0x80056194	-4.94182e-40
72	0x3e157510	0.14595437
73	0x3c73a926	0.014871871
74	0x3c32d417	0.010914824
75	0xbbc6776d	-0.006056717
76	0x3d23a778	0.039954633
77	0xb99e797e	-0.00030226627
78	0x3e1f2a04	0.15543371
79	0x3df703b3	0.120612524
80	0x3cf70779	0.03015493
81	0x3ce348c6	0.027744662
82	0x3de29bf6	0.110649034
83	0xbda4f63c	-0.08054778
84	0x000221b0	1.95756e-40
85	0x3cb08dbe	0.021551963
86	0x8614c6ba	-2.7981707e-35
87	0xb9a67b31	-0.00031753772
88	0x00066318	5.86561e-40
89	0xbc1f73be	-0.009732185
90	0x000216f1	1.91901e-40
91	0x3cdb55c7	0.0267743
92	0x3e062e4e	0.13103601
93	0x80060a93	-5.54806e-40
94	0x3d6c5926	0.057702206
95	0x3d4e9df8	0.05044362
96	0xb9974845	-0.0002885481
97	0x3c9d9193	0.019234454
98	0x3df416e3	0.11918428
99	0x3ca4dcbe	0.02012479
100	0xbbc9b675	-0.006155784
101	0x3deb8a63	0.115010045
102	0x3c6bd045	0.014392917
103	0x3d64e5ae	0.055883102
104	0x3da76cc7	0.081750445
105	0xb90c7027	-0.0001339322
106	0x3bb0bef6	0.005393858
107	0x3cc69caf	0.024244634
108	0xb9a3a998	-0.0003121614
109	0xbc167272	-0.009182559
110	0x3d17e9a7	0.037088063
111	0xb9d54355	-0.00040676692
112	0x3dea65d6	0.11445205
113	0x3d131be8	0.035915285
114	0x3adc8406	0.0016824014
115	0x3d7c2732	0.061560817
116	0x3e120abb	0.14261906
117	0x0003cb36	3.48405e-40
118	0x3d006b48	0.03135231
119	0x8006eaac	-6.35197e-40
120	0x83715f4a	-7.093292e-37
121	0x8001563a	-1.22768e-40
122	0x80386338	-5.178381e-39
123	0x3cf10e04	0.029425628
124	0x3e0ae631	0.13564374
125	0x3c52a274	0.012856115
126	0x00044016	3.90332e-40
127	0x3b80d6d4	0.0039318595
128	0x0001f209	1.78661e-40
129	0x80fba5d6	-2.31102e-38

layer2.weight f4 [100, 130]
0	0x3b5b3bda	0.0033452422
1	0xbc5f1095	-0.013614793
2	0x3d41dc1a	0.047329046
3	0x3b5e6267	0.0033933164
4	0x997bdd3d	-1.30210746e-23
5	0x3868e3bb	5.55252e-05
6	0x3b559a76	0.0032593287
7	0x3d853f99	0.06506271
8	0x3de70b9d	0.11281512
9	0xbcf42a2b	-0.029805264
10	0xbd10926a	-0.03529588
11	0x3d89d528	0.067301095
12	0x3d0b6d16	0.03403958
13	0xb8788ff9	-5.9261893e-05
14	0x3d01acd8	0.031658977
15	0xbc4d8b53	-0.0125454245
16	0x39fc0ca1	0.00048074595
17	0x3dde942a	0.10868104
18	0xbc8da8f0	-0.01729247
19	0x3d4f0736	0.050543986
20	0xaa082d83	-1.2095017e-13
21	0x80052ca1	-4.75187e-40
22	0x3cbf7978	0.02337335
23	0xb9204a25	-0.0001528641
24	0xbc3596b7	-0.0110832965
25	0xbdfb3050	-0.12265074
26	0x3c163685	0.009168272
27	0x3bfa7759	0.007643622
28	0xbc3f853c	-0.01168948
29	0x3de9b2d5	0.11411063
30	0xb9aa888c	-0.00032526662
31	0x3cda5942	0.02665389
32	0x0002dff3	2.64009e-40
33	0x3997192f	0.00028819728
34	0x07154f5c	1.1232836e-34
35	0x3d197b82	0.0374713
36	0x3bfad9d2	0.0076553607
37	0x39e99657	0.00044553235
38	0x3ba09838	0.0049009584
39	0x3d59a446	0.05313518
40	0xb859dd8b	-5.194316e-05
41	0xbd2e868e	-0.04260879
42	0xbd1ced4c	-0.03831224
43	0x3b719885	0.003686459
44	0x9f4fefca	-4.4032304e-20
45	0x3d9c6e77	0.07638257
46	0x39961eb6	0.0002863311
47	0x39a43b28	0.00031324592
48	0x3dde222a	0.1084636
49	0x3dbae61b	0.091259204
50	0xbc9b4721	-0.018954815
51	0xbc446ddb	-0.011989082
52	0x8005e6a9	-5.41923e-40
53	0x9b0e0a45	-1.1749283e-22
54	0x817f32dc	-4.6872593e-38
55	0xadcca05c	-2.3263329e-11
56	0xbd3d4a06	-0.046213172
57	0x3dcf3dba	0.10119195
58	0x3d3fce5f	0.04682767
59	0x0000ab10	6.1366e-41
60	0xbc350c23	-0.011050257
61	0x39a68933	0.0003176421
62	0xbb25a6a1	-0.002527632
63	0xbc8763d2	-0.01652709
64	0xbdb68e3e	-0.08913849
65	0x3bc588f1	0.0060282876
66	0xbc265b1d	-0.010153559
67	0xa6707762	-8.342852e-16
68	0x3a0bc46b	0.0005331698
69	0x3c32a2b7	0.010903052
70	0x3606ce89	2.0087775e-06
71	0x00014ff6	1.2052e-40
72	0x3dc53156	0.09628551
73	0xbc913a9f	-0.017728148
74	0x3da763fb	0.08173367
75	0xbd78a11d	-0.060700525
76	0xbb82c92a	-0.003991266
77	0xb9cca9f2	-0.0003903653
78	0x3cea9fb3	0.028640604
79	0x3cdbc741	0.02682841
80	0xbcdc8b07	-0.026921762
81	0x3dc626c0	0.0967536
82	0xbc780e34	-0.015140105
83	0xbdaa9776	-0.0832967
84	0x84d1ce3e	-4.9325067e-36
85	0x3da5854a	0.080820635
86	0x8781645c	-1.9468749e-34
87	0x37f9fefb	2.9801848e-05
88	0x800533f2	-4.77812e-40
89	0xbcd71b3a	-0.0262581
90	0x0d8c7f42	8.658802e-31
91	0xbd4e29bd	-0.050332773
92	0x3ceb80dd	0.02874797
93	0x8004d0d3	-4.42254e-40
94	0x3d959d91	0.07305444
95	0x3d80c3cb	0.062873445
96	0xba8b1dbd	-0.0010613721
97	0xbbe92662	-0.0071151713
98	0x3dd93fab	0.10607847
99	0x3be955a7	0.0071208063
100	0xbd42be2f	-0.047544654
101	0x3b42078f	0.0029606556
102	0x3d24d9b0	0.040246665
103	0x3da71856	0.081589386
104	0x3cd52544	0.026018746
105	0xb9423040	-0.00018519256
106	0x3bcd2824	0.0062608887
107	0x3be728ba	0.0070544155
108	0x3903677a	0.00012531682
109	0xbc0d5e57	-0.008628449
110	0x3cba6b5b	0.02275627
111	0xb9a73784	-0.00031894085
112	0x3c802467	0.015642358
113	0x3dbdc453	0.092659615
114	0x3bbe6d4f	0.0058113704
115	0x3dec0725	0.115248
116	0xbca52d85	-0.020163307
117	0x23be49c8	2.0631089e-17
118	0x3cd95104	0.02652789
119	0x10449012	3.8765172e-29
120	0x861d1d39	-2.9549888e-35
121	0x00026d2e	2.22837e-40
122	0x019aec40	5.690967e-38
123	0x3d8059eb	0.062671505
124	0x3cbf4a34	0.023350812
125	0x3b1f8418	0.0024340209
126	0x066b21ce	4.4223423e-35
127	0xbc5837e9	-0.013196924
128	0x00043429	3.86054e-40
129	0xb8c59573	-9.421529e-05
130	0x3cbe3a30	0.023221105
131	0x3de75acd	0.11296616
132	0x3d818d64	0.06325796
133	0x3de0ff93	0.10986247
134	0x917461c8	-1.9278337e-28
135	0x3868d55e	5.5511824e-05
136	0x3b5151f9	0.0031939729
137	0x3dbdb97e	0.092638955
138	0x3d6fbd0e	0.058529906
139	0xbcc6519d	-0.024208838
140	0x3c4ee45a	0.012627685
141	0x3d88f24e	0.06686841
142	0x3c046bb8	0.008082323
143	0xb8553286	-5.083021e-05
144	0xbd862377	-0.06549733
145	0xbbeb57bd	-0.00718209
146	0x39faf09a	0.00047862978
147	0x3dd75854	0.10514894
148	0xbdb677cd	-0.08909569
149	0x3cea56fd	0.028605932
150	0xa408fe58	-2.9705737e-17
151	0x8003d30c	-3.51216e-40
152	0x3cbe54f0	0.02323386
153	0xb92dbb87	-0.00016568425
154	0xbd3c4f05	-0.045973796
155	0xbdb6056a	-0.088877514
156	0x3c1347dc	0.008989301
157	0xbdb926b8	-0.09040588
158	0xbc407cf5	-0.011748542
159	0x3dded164	0.10879782
160	0xb996fc63	-0.00028798272
161	0x3d2e9cd0	0.042630017
162	0x8006dd16	-6.30324e-40
163	0x398b83ea	0.0002661043
164	0x0002e3c8	2.65384e-40
165	0x3dabd68f	0.08390533
166	0xbc485ac9	-0.012228676
167	0x39e9788a	0.00044531032
168	0xbcec0a2e	-0.028813448
169	0x3d5a0c14	0.053234175
170	0xb85b514c	-5.2289382e-05
171	0x3dd38f02	0.10330011
172	0xbe01cac0	-0.12674999
173	0x3b70e498	0.0036757346
174	0x97b8e30d	-1.1948037e-24
175	0x3dc0805c	0.093994826
176	0x39962c70	0.00028643338
177	0x39a45ec8	0.00031351135
178	0x3e04cdca	0.12969127
179	0x3ae572c1	0.0017505513
180	0xbc9bb892	-0.019008908
181	0x3d766e2a	0.060163654
182	0x0004d687	4.443e-40
183	0x931643c9	-1.8966082e-27
184	0x811414e7	-2.7198304e-38
185	0xa88d3f5a	-1.5681619e-14
186	0xbd2ac2f9	-0.041689847
187	0x3dacf5fe	0.08445357
188	0x3d60a283	0.054842483
189	0x8006998b	-6.06094e-40
190	0xbd8a27a7	-0.06745844
191	0x39a68582	0.00031761458
192	0x3d8169ff	0.06319045
193	0x3dbb6f77	0.091521196
194	0x3cd698c7	0.026195897
195	0x3d3cea46	0.046121858
196	0xb9659ef0	-0.0002189835
197	0x9fa19b7b	-6.844337e-20
198	0x3a05f2d1	0.000510973
199	0xbcaf9130	-0.021431535
200	0x35fe90b5	1.896659e-06
201	0x000256dc	2.1483e-40
202	0xbd5e8b97	-0.054332342
203	0x3de7b5fa	0.11314006
204	0x3d2b3dea	0.041807093
205	0xbd1c2008	-0.038116485
206	0x3d84cb08	0.06484038
207	0xb9ce12f3	-0.000393055
208	0x3d89a7b3	0.06721439
209	0xbacfa81a	-0.0015842945
210	0x3dcbef76	0.09957783
211	0xbb80a786	-0.0039262203
212	0x3c947abf	0.018124936
213	0xbd8cdb24	-0.06877735
214	0x846370ce	-2.673552e-36
215	0x3c92a506	0.017900955
216	0x8716cc53	-1.1344791e-34
217	0x3854773d	5.0655788e-05
218	0x0001c148	1.61172e-40
219	0xbcacf7a4	-0.021114178
220	0x050b79d8	6.558128e-36
221	0x3ca5ddb6	0.020247322
222	0x3d11bf0c	0.035582587
223	0x0001079e	9.4568e-41
224	0xbc881119	-0.016609715
225	0x3dac5c00	0.08415985
226	0x39a5fdf6	0.00031660468
227	0x3d2e2968	0.042519957
228	0x3d83f672	0.0644349
229	0x3be745a6	0.0070578633
230	0xbc3b8911	-0.011446253
231	0xba8621cf	-0.0010233464
232	0xbd3ab7d8	-0.045585483
233	0x3d7eda5c	0.062219962
234	0x3d9279ba	0.07152124
235	0xb93d7712	-0.00018068802
236	0x3bc95b51	0.006144919
237	0x3be3a3b8	0.006947007
238	0x3a5a5301	0.00083284086
239	0xbc0c1744	-0.008550469
240	0x3cb926dc	0.022601537
241	0xb9aaf58d	-0.00032607876
242	0x3c98d319	0.018655347
243	0x3d6b2241	0.057405714
244	0x3bbcb73c	0.005759148
245	0x3dd2ab49	0.10286576
246	0x3d99f693	0.075177334
247	0x1ca55989	1.0941928e-21
248	0x3d9e0476	0.077156946
249	0x07e5a47f	3.4552773e-34
250	0x85b649ee	-1.7142355e-35
251	0x00007d2a	4.49e-41
252	0x0134befc	3.3197803e-38
253	0xbd31e24b	-0.0434287
254	0x3a87eaee	0.0010369697
255	0x3b1b93c0	0.002373919

layer2.bias f4 [100]
0	0x3dc0b960	0.094103575
1	0x3d99c22f	0.07507741
2	0x3daa0779	0.083022065
3	0xa7cef161	-5.743819e-15
4	0x3c2bdd65	0.010489796
5	0x3d867966	0.06566124
6	0x800a2aef	-9.33757e-40
7	0x3e0f537b	0.13996689
8	0x3b3b5ccf	0.0028589254
9	0x3dd25387	0.10269838
10	0x80055773	-4.90548e-40
11	0x3e1ef84b	0.15524404
12	0x3e0a42c9	0.13502039
13	0x3def2d85	0.11678604
14	0xbb27ff6b	-0.0025634419
15	0xb85e8b4c	-5.3058655e-05
16	0x3d969ede	0.0735452
17	0x3df40ddd	0.11916707
18	0x3da81036	0.08206217
19	0x80001ad9	-9.631e-42
20	0xa9739379	-5.408475e-14
21	0x3d3e6154	0.046479538
22	0x80039de5	-3.32148e-40
23	0x99372eaa	-9.470302e-24
24	0x3e1df626	0.1542593
25	0x3cf7d02c	0.030250631
26	0x3d499235	0.0492117
27	0xb566b6bb	-8.5947585e-07
28	0xb93bdb71	-0.00017915458
29	0x3d89810e	0.06714068
30	0x3c8a8f54	0.016914047
31	0x3c8126e6	0.015765619
32	0xb9a63c3a	-0.0003170686
33	0x3e255231	0.16144635
34	0x3de37a2f	0.11107289
35	0x3d01ba6c	0.031671926
36	0x3e195e49	0.14977373
37	0x000274a2	2.25511e-40
38	0x3d69adaa	0.057050385
39	0x98a2d30c	-4.208912e-24
40	0x3d9a1ba9	0.07524807
41	0x3ca33046	0.01992048
42	0x3e20feed	0.15722246
43	0x3e28e8c5	0.16495045
44	0xb99202ef	-0.00027849476
45	0xb9e8168e	-0.00044267293
46	0x00052ca0	4.75186e-40
47	0x3d1b5fff	0.037933346
48	0x3e07df00	0.13268661
49	0xaf0cd9b7	-1.2810274e-10
50	0xb9b1c697	-0.00033908032
51	0x86195300	-2.883708e-35
52	0x3d57693d	0.052590597
53	0x3c68f27b	0.014217968
54	0x00014d61	1.19594e-40
55	0x000190a3	1.43721e-40
56	0x3d0eccb5	0.034863193
57	0xb9a3d0e1	-0.0003124541
58	0x3cd7da51	0.026349219
59	0x9c5ad325	-7.2403047e-22
60	0x3e1f6914	0.15567428
61	0x8002ef5a	-2.69534e-40
62	0xbb4b5297	-0.003102457
63	0x3e19911f	0.14996766
64	0x8006f6bf	-6.39529e-40
65	0x3e29b48d	0.16572781
66	0x3de6d3b0	0.11270845
67	0x3c0fbe52	0.008773403
68	0x3caa0c2c	0.020757757
69	0x3d4edd5f	0.050504085
70	0x8b6eb871	-4.597589e-32
71	0xb92382a4	-0.00015593559
72	0x2d3c0ee8	1.0689873e-11
73	0x8004ed6b	-4.52512e-40
74	0x3d2aa1cf	0.04165822
75	0x3cb5c361	0.02218789
76	0x3db3611f	0.08758759
77	0x87cc52cf	-3.074318e-34
78	0x3c5abe2d	0.0133510055
79	0x3c4bc503	0.012437108
80	0xb9053bc6	-0.00012706136
81	0x3d291bf4	0.041286424
82	0x00046415	4.03245e-40
83	0x3e1ae2a2	0.15125516
84	0x80017d0a	-1.36691e-40
85	0x3dbf3450	0.0933615
86	0x0005986b	5.13855e-40
87	0x3e262008	0.16223156
88	0x80059862	-5.13842e-40
89	0xb9a672a9	-0.00031747416
90	0x00033dba	2.9765e-40
91	0x3da38470	0.07984245
92	0x3b8244d5	0.0039754906
93	0xb9e52325	-0.00043704468
94	0xaf4f11be	-1.8832844e-10
95	0xb98c87e3	-0.00026804124
96	0xb9757c52	-0.00023411334
97	0x3c92e8c0	0.01793325
98	0xb9a44b8c	-0.00031336804
99	0x3d9d76c7	0.076886706

layer3.weight f4 [50, 100]
0	0xb8344b17	-4.2985277e-05
1	0xb87f75a5	-6.0906303e-05
2	0xb85baf3c	-5.237687e-05
3	0x0004e1db	4.48364e-40
4	0xb81aab6a	-3.6876103e-05
5	0xb800490b	-3.0585605e-05
6	0x80043124	-3.8497e-40
7	0xb83da684	-4.521619e-05
8	0xa6fd209b	-1.7564239e-15
9	0xb86e64aa	-5.6837373e-05
10	0x0003602f	3.1001e-40
11	0xb7ae1ded	-2.0756352e-05
12	0xb81f1a23	-3.7932896e-05
13	0xb871c212	-5.763962e-05
14	0xb8933e67	-7.0211296e-05
15	0x8002eba6	-2.68206e-40
16	0xa402c182	-2.8353164e-17
17	0xb84caf33	-4.8800557e-05
18	0xb7a40561	-1.9552828e-05
19	0x00009692	5.4014e-41
20	0x00036e59	3.15092e-40
21	0xaea4dd28	-7.497142e-11
22	0x8000b46b	-6.4722e-41
23	0x00048c1a	4.17601e-40
24	0xb86e8432	-5.686674e-05
25	0x0006006e	5.51167e-40
26	0xb86eeabf	-5.6962246e-05
27	0x00018658	1.40029e-40
28	0x000621d3	5.63147e-40
29	0xb84bdfc9	-4.8607388e-05
30	0x800087b7	-4.8685e-41
31	0xb776d8a5	-1.4713184e-05
32	0x00034881	3.01516e-40
33	0xb818b582	-3.6408666e-05
34	0xb83ffa42	-4.577102e-05
35	0xae2c7e13	-3.922025e-11
36	0xb7f7c09f	-2.953439e-05
37	0x800512c6	-4.65912e-40
38	0xb838b8e9	-4.404123e-05
39	0x80004976	-2.6353e-41
40	0xb72c21d0	-1.02598715e-05
41	0x8001c0cf	-1.61002e-40
42	0xb858bb69	-5.1672952e-05
43	0xb84c84e1	-4.8761143e-05
44	0x80064f27	-5.79407e-40
45	0x8006870c	-5.99459e-40
46	0x80003be3	-2.1483e-41
47	0xb84bc04a	-4.8578055e-05
48	0xb8153ed1	-3.558287e-05
49	0x0006627c	5.86343e-40
50	0x00046a88	4.05558e-40
51	0x00055c7c	4.92355e-40
52	0xb7a90a6b	-2.0151221e-05
53	0x00068208	5.9766e-40
54	0x8001aa85	-1.53006e-40
55	0x800065ea	-3.656e-41
56	0xb79ee644	-1.8942294e-05
57	0x8003519a	-3.0478e-40
58	0x800174e6	-1.33771e-40
59	0x00024baa	2.10814e-40
60	0xb81f3ce6	-3.796527e-05
61	0x00012437	1.04827e-40
62	0xb86697b0	-5.4977543e-05
63	0xb728ef02	-1.0069229e-05
64	0x00026f31	2.23559e-40
65	0xb8663719	-5.4887587e-05
66	0xb82ccf25	-4.1200914e-05
67	0xb82de4bf	-4.145945e-05
68	0xb7ca87e6	-2.414356e-05
69	0xb7028022	-7.778437e-06
70	0x800651b3	-5.80321e-40
71	0x80042c00	-3.83126e-40
72	0x800556ec	-4.90359e-40
73	0x80025ba8	-2.16551e-40
74	0x824dce94	-1.5120306e-37
75	0x800504c1	-4.60883e-40
76	0xb7f63d04	-2.9353898e-05
77	0x0004cfa7	4.41834e-40
78	0x80055b0d	-4.9184e-40
79	0xb869f196	-5.5776523e-05
80	0x8003de4a	-3.55249e-40
81	0xb825ac0d	-3.94993e-05
82	0x0001c92e	1.64005e-40
83	0xb8761e95	-5.8679452e-05
84	0x00010f8a	9.741e-41
85	0xb84bac08	-4.8559188e-05
86	0x80000deb	-4.993e-42
87	0xb7adac7a	-2.0703523e-05
88	0x80041a05	-3.76676e-40
89	0x0003d7bf	3.52902e-40
90	0x8002f7d4	-2.72575e-40
91	0xb889a6f2	-6.563765e-05
92	0x00037434	3.17192e-40
93	0x8002b870	-2.49835e-40
94	0x80043f60	-3.90077e-40
95	0x000298c9	2.3848e-40
96	0x00058ed8	5.1042e-40
97	0xb7510632	-1.2458813e-05
98	0x8005735b	-5.00559e-40
99	0xb872519c	-5.77733e-05
100	0xba178e10	-0.0005781362
101	0xbb2601e3	-0.0025330714
102	0x3b61f6db	0.0034479413
103	0x80054b23	-4.86131e-40
104	0xb9a208f1	-0.0003090571
105	0xbcbd77c2	-0.023128394
106	0x80052efd	-4.76034e-40
107	0xba149092	-0.00056672946
108	0xb9a67d91	-0.00031755542
109	0xbc229cf3	-0.009925115
110	0x8002e46d	-2.65615e-40
111	0xb9a1f195	-0.00030888306
112	0x3bd5314c	0.006506121
113	0x3d11373c	0.035453066
114	0xba6ed251	-0.0009110319
115	0x0002363b	2.03125e-40
116	0xb9a6448a	-0.00031713053
117	0xbabb4222	-0.0014286677
118	0xbc374f64	-0.011188362
119	0x80069349	-6.03849e-40
120	0x80001f4c	-1.1227e-41
121	0xb9a67f11	-0.0003175666
122	0x8005b8ab	-5.25424e-40
123	0x800460d7	-4.02082e-40
124	0xbc236bb5	-0.00997441
125	0xb9a64042	-0.00031709863
126	0x3a471e72	0.0007595784
127	0x00063364	5.69448e-40
128	0x00011805	1.00452e-40
129	0x399d5e09	0.00030015435
130	0xb9a67aaf	-0.00031753394
131	0xb9a68b5b	-0.00031765815
132	0x8001dfaf	-1.72078e-40
133	0xbb6c41d7	-0.0036049986
134	0x3d104608	0.035223037
135	0xb9a67ab0	-0.00031753397
136	0xbb655f2f	-0.003499936
137	0x00031f2b	2.86687e-40
138	0x3bec06d1	0.007202961
139	0x0005c6d4	5.30504e-40
140	0xb9a68b5b	-0.00031765815
141	0xb9a683a8	-0.0003176008
142	0x3d0ec5e8	0.034856707
143	0xb806c072	-3.212732e-05
144	0x00065936	5.83016e-40
145	0x000239ea	2.04447e-40
146	0x0000834e	4.7103e-41
147	0xbc3a0b39	-0.011355215
148	0x3b9f2ca3	0.004857616
149	0x0005d8f9	5.37013e-40
150	0x800671d2	-5.91844e-40
151	0x0004d118	4.4235e-40
152	0xbb023e90	-0.0019873716
153	0xb9a67644	-0.00031750102
154	0x80068ce1	-6.01551e-40
155	0x8004d9a3	-4.45415e-40
156	0xbbf79c99	-0.0075565097
157	0x8002c5ef	-2.54676e-40
158	0xb9a638fd	-0.00031704447
159	0x8006f88d	-6.40176e-40
160	0x3c0e4e3d	0.008685646
161	0x0004cd2a	4.40941e-40
162	0x3b82472a	0.0039757686
163	0x3a8d398c	0.0010774597
164	0x800228aa	-1.98259e-40
165	0xbccc81d7	-0.024964256
166	0xb99d71a3	-0.0003003004
167	0x38ede003	0.00011342766
168	0xbbe909aa	-0.0071117477
169	0xbbe63181	-0.0070249443
170	0x8003b477	-3.40245e-40
171	0x8001a0dd	-1.49542e-40
172	0x80000baa	-4.184e-42
173	0x01202fdf	2.9421705e-38
174	0xb9a652aa	-0.00031723577
175	0xb9a675c0	-0.00031749718
176	0x3b5f453c	0.0034068367
177	0x0003c252	3.45215e-40
178	0xb9a67c9a	-0.00031754823
179	0x3b420c94	0.0029609548
180	0x800600d9	-5.51317e-40
181	0xbc0210dc	-0.00793859
182	0x8003f5fd	-3.6375e-40
183	0x3b1c31f9	0.0023833497
184	0x00026d54	2.2289e-40
185	0xbcd6431e	-0.02615505
186	0x0004d5f8	4.441e-40
187	0xb9dc840a	-0.00042060047
188	0x80004a58	-2.667e-41
189	0x80023c3e	-2.05282e-40
190	0x8006de0a	-6.30666e-40
191	0xbbe7c346	-0.007072839
192	0x8002cddd	-2.57521e-40
193	0x00007430	4.168e-41
194	0x00022a41	1.98829e-40
195	0x928a417f	-8.72517e-28
196	0x80038bcb	-3.25655e-40
197	0xbc49ca09	-0.012316235
198	0x00063d0d	5.72914e-40
199	0x395c6cfb	0.00021021433
200	0x3d7a6b67	0.061137583
201	0xbd758564	-0.059941664
202	0x3bd01650	0.006350316
203	0xb98fc0db	-0.00027418774
204	0xbb57ed82	-0.0032947962
205	0x3dbe4a5c	0.09291527
206	0x378c143f	1.6698728e-05
207	0x3de2aae6	0.110677525
208	0x3c95130a	0.018197555
209	0x3ca59479	0.020212399
210	0xb840f5c6	-4.600526e-05
211	0x3d9b90c9	0.07595975
212	0x3dfd7e9b	0.12377664
213	0x3dfbbc23	0.122917436
214	0x3d2b320c	0.041795775
215	0xb9de55d1	-0.00042407078
216	0x3d927eb3	0.07153072
217	0x3d6875f0	0.0567531
218	0x3d6f1b46	0.05837562
219	0x80008a56	-4.9626e-41
220	0x39a4205f	0.00031304636
221	0x3c702e13	0.014659422
222	0x00004477	2.456e-41
223	0x39a68b5a	0.00031765812
224	0xbaa6f77e	-0.0012738553
225	0x3c7a4c78	0.015277021
226	0xbd76fca1	-0.06029952
227	0xb97d5499	-0.00024159475
228	0xb9a3b1ac	-0.0003122216
229	0x3e061175	0.13092597
230	0x3ba3f509	0.0050035757
231	0x3c276d64	0.010218952
232	0xba856c46	-0.0010179363
233	0x3d74a14b	0.059724133
234	0x3ce3eab7	0.027821882
235	0x3c2548be	0.010088144
236	0x3df8680d	0.12129221
237	0xb80e93a7	-3.399295e-05
238	0xbd1fb359	-0.0389894
239	0x39a68b5a	0.00031765812
240	0x3da30ab3	0.07961025
241	0x3bb83d6f	0.005622558
242	0x3db03b7d	0.086050965
243	0xbcd33a8e	-0.025784757
244	0x39a65b6b	0.000317301
245	0x39de20dc	0.00042367622
246	0x0003031b	2.7662e-40
247	0x3dbbbdf4	0.0916709
248	0x3dbfd907	0.093675666
249	0xbd38bb76	-0.04510065
250	0xb887fc56	-6.484303e-05
251	0xb8ebe4dd	-0.00011248302
252	0x3cfdd4d9	0.030985283
253	0x3b6daddc	0.0036266958
254	0xb3ce37b9	-9.6027584e-08
255	0xb896a0c0	-7.1824994e-05

layer3.bias f4 [50]
0	0x800290ed	-2.3566e-40
1	0xb99c220e	-0.0002978001
2	0x3a105135	0.0005505265
3	0x3d241982	0.04006339
4	0x3bf1c684	0.0073784012
5	0x3e178e07	0.14800273
6	0x3d297b52	0.041377373
7	0x3d0024af	0.031284984
8	0x831a9ba1	-4.5435186e-37
9	0x3d9719a0	0.073779345
10	0x3c39963a	0.011327321
11	0x3c7c4330	0.015396878
12	0x3beb421e	0.0071795126
13	0x3dcbd93d	0.09953544
14	0x3dbbb1a7	0.09164744
15	0x3d0f811f	0.03503525
16	0x3dc449f8	0.09584421
17	0x3cec9148	0.02887787
18	0x3de7b924	0.1131461
19	0x8000ebca	-8.4585e-41
20	0x3e2549fb	0.16141503
21	0x3c906326	0.017625403
22	0x3b42cf5a	0.0029725642
23	0x00043248	3.8538e-40
24	0xb9798fb3	-0.00023800023
25	0xbd140f02	-0.036147125
26	0x9e182d08	-8.056125e-21
27	0x8000c7d1	-7.168e-41
28	0xb8b58b45	-8.6566935e-05
29	0x3ce7fdd9	0.028319286
30	0x00021445	1.90942e-40
31	0xb91df178	-0.00015062641
32	0x3a8c1c60	0.0010689609
33	0xb9a68b3a	-0.0003176572
34	0x3e17a729	0.1480986
35	0xb93e01c7	-0.00018120474
36	0x9814bce7	-1.9223923e-24
37	0x8006ba17	-6.1777e-40
38	0x8539e0dd	-8.739959e-36
39	0x3be3e097	0.0069542634
40	0x3dd87e42	0.10570957
41	0x3c5aa72e	0.013345523
42	0x8003a8b5	-3.36027e-40
43	0x3e2d2836	0.1690987
44	0x3dc8bd51	0.09801734
45	0x3dc44e90	0.09585297
46	0xbb5f3176	-0.003405658
47	0x3cc5deee	0.024154153
48	0x00028977	2.32984e-40
49	0xbb96a3a1	-0.004597143

layer4.weight f4 [25, 50]
0	0x8001a3b1	-1.50557e-40
1	0x8002205e	-1.95282e-40
2	0xaf05776d	-1.2138708e-10
3	0xad84e361	-1.5107639e-11
4	0x8004d60a	-4.44125e-40
5	0xa9289b67	-3.7438284e-14
6	0x907412c1	-4.8134963e-29
7	0x8d674315	-7.126312e-31
8	0x8004d2a0	-4.429e-40
9	0xab9e7626	-1.1259368e-12
10	0xabc294b9	-1.3825808e-12
11	0xa24788f6	-2.7042036e-18
12	0x80012992	-1.06748e-40
13	0xab0fcca9	-5.108783e-13
14	0xa51524d2	-1.2936165e-16
15	0x94a760b4	-1.6900833e-26
16	0xadcfd104	-2.3625997e-11
17	0x80064a4c	-5.77666e-40
18	0xac33d0f2	-2.5553418e-12
19	0x00027d4b	2.28618e-40
20	0xac18b8ac	-2.1703013e-12
21	0xa90ea92e	-3.1677074e-14
22	0xaff34828	-4.4252713e-10
23	0x80068ac1	-6.00788e-40
24	0x80001c22	-1.0092e-41
25	0xa01ee695	-1.3459414e-19
26	0x80061b62	-5.60836e-40
27	0x800614c5	-5.58464e-40
28	0x80035a32	-3.07862e-40
29	0x8a1b33c1	-7.472712e-33
30	0x00069c7e	6.07152e-40
31	0x8004bf98	-4.36073e-40
32	0xac2557a7	-2.3496567e-12
33	0x0005f81b	5.48181e-40
34	0xad8c809c	-1.5973271e-11
35	0x80045399	-3.97331e-40
36	0x0003d40a	3.51572e-40
37	0x000590b0	5.11082e-40
38	0x0001241c	1.04789e-40
39	0xaeb48f0f	-8.2108646e-11
40	0xad8697db	-1.5301474e-11
41	0xadc904b9	-2.2853152e-11
42	0x000646f8	5.76472e-40
43	0xab89fe4f	-9.80502e-13
44	0xaf1c4d61	-1.4215608e-10
45	0xafd4098c	-3.856936e-10
46	0x80021a65	-1.9314e-40
47	0xab8ebf27	-1.0142762e-12
48	0x8005b164	-5.22813e-40
49	0xad60ca1a	-1.2777801e-11
50	0xb98a9496	-0.00026432116
51	0xba020141	-0.00049592933
52	0xbd1bacee	-0.038006715
53	0x3dcb5e88	0.0993014
54	0x3b415223	0.002949842
55	0xbbb88ef4	-0.0056322757
56	0x3c7a48be	0.015276132
57	0x3b2b8474	0.0026171478
58	0xb808943e	-3.2562988e-05
59	0x3e17826a	0.14795843
60	0x3e1473f5	0.14497359
61	0xbcc36dfb	-0.023856154
62	0x3d764a9f	0.060129758
63	0x3c01d2eb	0.007923822
64	0x3de16aa5	0.11006669
65	0x3bb25ac8	0.005442951
66	0x3dafd870	0.08586204
67	0x3b55b374	0.0032608183
68	0x3e312478	0.17299068
69	0x3895f91a	7.1512724e-05
70	0x3e062441	0.13099767
71	0xbd358b26	-0.044322155
72	0x3cba53e8	0.022745088
73	0xb6abfd90	-5.1257157e-06
74	0x39a8ee30	0.0003222092
75	0xbd28013a	-0.041016795
76	0x39a68610	0.00031761872
77	0xb7874b0e	-1.6128204e-05
78	0x351ba5dd	5.798336e-07
79	0x39e082cc	0.0004282206
80	0x92f2f269	-1.5332106e-27
81	0x39a5dd8d	0.0003163632
82	0x3d73da2a	0.05953423
83	0xb581af37	-9.662243e-07
84	0x3d4b236a	0.04959432
85	0xb8dda9ae	-0.000105697065
86	0x2e0892cd	3.1053205e-11
87	0x80035018	-3.04239e-40
88	0x8a8cb05a	-1.3547846e-32
89	0x3e34d895	0.17660744
90	0x3e05f66b	0.13082282
91	0x3e2b8044	0.16748148
92	0x37a6d3e7	1.9887417e-05
93	0xbdb4e70d	-0.08833132
94	0x3e304cd3	0.17216806
95	0x3e2705b2	0.16310766
96	0xbc936986	-0.017994653
97	0x3e15c95e	0.14627597
98	0x00d3fe18	1.9468441e-38
99	0x3e31046f	0.17286848
100	0xb90f5edc	-0.0001367288
101	0x39dad6ae	0.0004174015
102	0x3e08efde	0.13372752
103	0x3c5a6a09	0.013330945
104	0x3b40b7f2	0.0029406515
105	0x3cf7fa29	0.030270653
106	0x3b7a73f2	0.0038216081
107	0x3b27764c	0.0025552688
108	0xb80e5978	-3.3938762e-05
109	0x3daca9ff	0.08430862
110	0xbb21ccea	-0.0024688789
111	0xbca4bf99	-0.020110892
112	0xbccac7bd	-0.024753446
113	0xba968804	-0.0011484628
114	0x3cb8d848	0.022564068
115	0x3bafe2b2	0.0053676004
116	0x3d64359c	0.05571519
117	0x3b520a90	0.0032049753
118	0x3d7bbea1	0.061461095
119	0x370fca6d	8.570595e-06
120	0x3d823fa0	0.06359792
121	0xbd28c7de	-0.041206233
122	0xbcd0a39e	-0.025468644
123	0xb58dc767	-1.0563352e-06
124	0x39a8ed3b	0.00032220208
125	0xbd865d83	-0.06560805
126	0x39a67afc	0.00031753618
127	0xb774251b	-1.4552173e-05
128	0xb699db0b	-4.5852553e-06
129	0x39ba3b21	0.0003552074
130	0x8001fa9f	-1.81741e-40
131	0x39a4d0a9	0.00031435982
132	0xbdabad6a	-0.083826855
133	0xb525d2eb	-6.1774216e-07
134	0xbdbbff61	-0.09179569
135	0xb8ddc11a	-0.00010574069
136	0x28982d37	1.6894999e-14
137	0x00047eaa	4.1278e-40
138	0x89dba396	-5.2876168e-33
139	0x3e0973b3	0.13423042
140	0xbcc1ca23	-0.023655957
141	0x3e2aebc0	0.16691494
142	0x3379dfb9	5.8178305e-08
143	0x3e1cffab	0.15331905
144	0x3dff9fd1	0.124816544
145	0xbd8ddf0f	-0.06927311
146	0x3cdeaf85	0.027183304
147	0x3e008aac	0.12552899
148	0x0051ccc9	7.512138e-39
149	0xbd0e45e5	-0.034734625
150	0xb92be8f8	-0.00016394618
151	0xb85233cd	-5.0116145e-05
152	0x3e32c7d0	0.17459035
153	0x3e2ceae6	0.16886482
154	0x3b4102d9	0.002945116
155	0x3df888c6	0.121354625
156	0x3b7da326	0.003870198
157	0x3b2a11b1	0.0025950486
158	0xb80cfc9d	-3.3613866e-05
159	0xbced9db7	-0.029005868
160	0x3c7850b6	0.015155962
161	0x3e161493	0.14656286
162	0xbdf99e12	-0.12188353
163	0x3d92f513	0.071756504
164	0xbcffdd23	-0.031233376
165	0x3bb15007	0.0054111513
166	0xbda6d656	-0.0814635
167	0x3b54703c	0.003241553
168	0xbd0b17d6	-0.03395828
169	0x377daddb	1.5120454e-05
170	0x3db1dbf5	0.086845316
171	0x3d6b6296	0.057467066
172	0x3c1dcee4	0.009631846
173	0xb5d88f7a	-1.6135011e-06
174	0x39a8edb1	0.0003222055
175	0x3d1003dc	0.03515993
176	0x39a67dd0	0.00031755725
177	0xb77b45a9	-1.4976985e-05
178	0xb67dcf98	-3.7820773e-06
179	0x39cf8bcf	0.00039586282
180	0x80507d11	-7.391705e-39
181	0x3a8fedf0	0.0010980945
182	0xbdab65b8	-0.08369011
183	0xb50945ea	-5.1138215e-07
184	0x3e1389bd	0.14408012
185	0xb8ddb9b6	-0.000105726926
186	0x299d8039	6.994444e-14
187	0x8006e858	-6.34362e-40
188	0x8a040222	-6.35597e-33
189	0x3e339954	0.17538959
190	0xbd96ef5a	-0.073698714
191	0x3d71537c	0.058917508
192	0x347c8962	2.3519308e-07
193	0x3e043287	0.129099
194	0x3dfdcb49	0.12392289
195	0x3e0460c3	0.12927537
196	0xbe125934	-0.14291841
197	0xbce01310	-0.02735284
198	0x00627aec	9.043975e-39
199	0xbd5d0a00	-0.053964615
200	0x25452ae6	1.7101561e-16
201	0x3964cce0	0.00021820096
202	0x3b2434b5	0.002505583
203	0x3b2588f4	0.0025258632
204	0x3b26e576	0.002546636
205	0x3b1c73a4	0.0023872638
206	0x3b196d92	0.0023411256
207	0x3b0c52cc	0.0021411655
208	0x000582ed	5.06145e-40
209	0x3b1d10db	0.0023966345
210	0x3b1ff1d2	0.002440561
211	0x3b29c737	0.0025906095
212	0xbaab8e0f	-0.0013088601
213	0x3b25b815	0.0025286723
214	0x3b2149f4	0.002461073
215	0x3b19455e	0.0023387293
216	0x3b1f0e57	0.0024270022
217	0x3a9cb82e	0.0011956745
218	0x3b22ab2a	0.002482126
219	0x8002584d	-2.15347e-40
220	0x3b1bfef6	0.0023803092
221	0x3b262eb0	0.0025357418
222	0x3b225cfb	0.002477466
223	0x80036054	-3.10063e-40
224	0x39a8c6ff	0.0003219172
225	0x3b192588	0.0023368318
226	0x0004cee9	4.41567e-40
227	0x0002168d	1.9176e-40
228	0xb75616d4	-1.2760709e-05
229	0x3ab80762	0.0014040286
230	0x0002315f	2.01382e-40
231	0x39582048	0.00020611391
232	0x3b201455	0.0024426181
233	0xb9a68a10	-0.00031764852
234	0x3b1fc289	0.0024377427
235	0xb8dfd8c6	-0.00010673846
236	0x1f9807cd	6.438741e-20
237	0x00020678	1.85992e-40
238	0x87d56ae9	-3.2111514e-34
239	0x3b21a669	0.0024665839
240	0x3b162a23	0.00229133
241	0x3b2000ca	0.0024414533
242	0x0006aca4	6.12945e-40
243	0x3b2365d0	0.002493251
244	0x3b232f2e	0.0024899947
245	0x3b2287db	0.0024800214
246	0xbbcdba20	-0.0062782913
247	0x3b1df623	0.0024103008
248	0x0000e138	8.0793e-41
249	0x3b1af6bc	0.00236456
250	0x00029cd7	2.39935e-40
251	0x80047572	-4.09473e-40
252	0xbe084dde	-0.13310954
253	0xbdb2eee5	-0.08736972
254	0x0000f411	8.7555e-41
255	0xbd6517ea	-0.05593101

layer4.bias f4 [25]
0	0x8005c506	-5.29856e-40
1	0x3c1f00fc	0.009704825
2	0xbc3ecab7	-0.011645011
3	0x3e166944	0.14688593
4	0x3c356902	0.011072399
5	0xb9a642d3	-0.00031711775
6	0xbd44236d	-0.047885347
7	0xb904b51d	-0.00012655971
8	0xbc58edbf	-0.013240277
9	0xbd02c13c	-0.031922564
10	0x3d9c461c	0.0763056
11	0xbcc08ba3	-0.023504084
12	0xbbcac32c	-0.006187817
13	0xb992b10c	-0.000279792
14	0x3e20591d	0.15658994
15	0xbd484f43	-0.048903715
16	0x3c8832e8	0.016625836
17	0xbe1ff262	-0.15619805
18	0xb98cd7b2	-0.00026863586
19	0xbc2fbe60	-0.010726541
20	0x3d0248ec	0.031807825
21	0xb9a61d6c	-0.00031683908
22	0x00032a60	2.90708e-40
23	0xb99ba74c	-0.0002968855
24	0x3d930d8d	0.07180319

layer5.weight f4 [10, 25]
0	0x3612c551	2.1870549e-06
1	0x3d7be1a1	0.061494473
2	0x3daf1b3b	0.08550116
3	0x3e24ff42	0.16112998
4	0x3b21f217	0.0024710947
5	0x3dd21ff5	0.102600016
6	0xbe240d6a	-0.16020742
7	0xb931f6f6	-0.00016972036
8	0x3e217141	0.15765859
9	0x3de9b803	0.114120506
10	0x3e3dd10b	0.18536775
11	0xbd47f663	-0.048818957
12	0x3d9f1713	0.07768073
13	0x39be45f9	0.00036291758
14	0x3e511f3c	0.20422071
15	0x3daa59e8	0.083179295
16	0x373e239d	1.1333174e-05
17	0xbcc81b0e	-0.024426963
18	0x39a67d32	0.00031755265
19	0x3db5ce62	0.08877255
20	0x3e568b71	0.2095163
21	0xbd2ef0bd	-0.042710055
22	0xb98c778a	-0.00026791944
23	0xb995f66b	-0.0002860309
24	0xbdf83f7b	-0.12121483
25	0x00049267	4.19861e-40
26	0xb988acdf	-0.0002606874
27	0xbcba86c1	-0.022769334
28	0x35c0effd	1.437496e-06
29	0x8006f53c	-6.38986e-40
30	0x909bcff4	-6.145712e-29
31	0x3a9331a8	0.0011230009
32	0x800241a2	-2.07216e-40
33	0x3ca636bb	0.02028977
34	0xa7bdd8c4	-5.2693056e-15
35	0xb0327778	-6.49258e-10
36	0xbd0b7e8b	-0.034056228
37	0x372cb928	1.0295109e-05
38	0x800671cf	-5.9184e-40
39	0xbdb85e28	-0.09002334
40	0x32403ab5	1.1189219e-08
41	0x80030a5c	-2.79223e-40
42	0x00064ea0	5.79218e-40
43	0x0000eda7	8.5254e-41
44	0x3be9a521	0.0071302806
45	0x3c275c52	0.010214882
46	0x8001826d	-1.38623e-40
47	0x8000fb35	-9.0116e-41
48	0x80057118	-4.99748e-40
49	0x3b3280a1	0.0027237313
50	0x00008b2a	4.9923e-41
51	0x3ba5b147	0.0050565335
52	0x3247280d	1.1592431e-08
53	0x3c37edc5	0.011226122
54	0x8004c1d0	-4.36869e-40
55	0x8a70b564	-1.15896955e-32
56	0xb64af891	-3.024503e-06
57	0x00050be0	4.63437e-40
58	0xbc657480	-0.014004827
59	0xb332fabb	-4.1671893e-08
60	0xbcbdb343	-0.023156768
61	0x3d06b861	0.03289068
62	0x9401933b	-6.541872e-27
63	0x0005a769	5.19233e-40
64	0xbc51b268	-0.012798883
65	0x30af5055	1.2755758e-09
66	0x0003d42b	3.51618e-40
67	0x2278c8e6	3.3716622e-18
68	0x0002601d	2.1815e-40
69	0xbd26b750	-0.040702164
70	0x33a85dff	7.8402074e-08
71	0x0e083bed	1.6792147e-30
72	0x8001475f	-1.17439e-40
73	0x000369ad	3.13416e-40
74	0x1904e803	6.8710944e-24
75	0x80054c23	-4.8649e-40
76	0xbc37c47c	-0.011216279
77	0x3d8e6c46	0.06954245
78	0xbe3719af	-0.17880891
79	0x0003dc76	3.54593e-40
80	0xad087890	-7.757475e-12
81	0x3e1d955c	0.15389007
82	0x0002906f	2.35484e-40
83	0xbdd1987f	-0.102341644
84	0x3e07c1da	0.13257542
85	0x3c45da9d	0.012076047
86	0x3db4edb7	0.08834403
87	0x3dece0a4	0.11566284
88	0x8000a275	-5.8279e-41
89	0xbc03729e	-0.008022932
90	0xbdf01739	-0.11723179
91	0xb94ae2c6	-0.00019348701
92	0x0006f41c	6.38583e-40
93	0x8000983b	-5.461e-41
94	0xbdf163cf	-0.11786615
95	0x3e2b71d9	0.16742648
96	0x8005df4c	-5.39281e-40
97	0x8006d00e	-6.25649e-40
98	0x8004fbde	-4.57695e-40
99	0xbdebbc6c	-0.11510548
100	0x00066ec8	5.90754e-40
101	0xbd6ebd89	-0.058286224
102	0xbdfe82aa	-0.12427266
103	0xbc7f7d0b	-0.015593777
104	0x8005785d	-5.02356e-40
105	0xbd4b6eda	-0.049666263
106	0x3bdd6f1e	0.006757631
107	0x8fd82c37	-2.1316275e-29
108	0xbdb931e2	-0.090427175
109	0xbe14ef98	-0.14544523
110	0x3e2e93ce	0.1704857
111	0xbcd4f41d	-0.025995309
112	0x3dc41fe2	0.09576394
113	0x8006bec5	-6.19448e-40
114	0xbd33b606	-0.043874763
115	0xbdea9d98	-0.1145584
116	0xb9a68b5b	-0.00031765815
117	0x3e2249e4	0.158485
118	0x0004b8c6	4.33626e-40
119	0x3d5b6318	0.0535613
120	0x3d6e8eab	0.058241528
121	0x0004029e	3.68281e-40
122	0x0004be98	4.35714e-40
123	0x8001a0ef	-1.49568e-40
124	0x3d22651f	0.039647218
125	0x2e6d504a	5.3958872e-11
126	0x3e5ac7fa	0.21365348
127	0xbd85c410	-0.065315366
128	0xbda0f917	-0.0786001
129	0x3b207349	0.0024482778
130	0x3e3824af	0.17982744
131	0xbdb9eb72	-0.09078111
132	0xb92fdbe0	-0.0001677121
133	0x3d585d03	0.052823078
134	0x3e4c0219	0.19922675
135	0xbc0f29b9	-0.008737975
136	0x3e4f9392	0.20271137
137	0x3d0b5951	0.034020726
138	0x39c35d46	0.00037262792
139	0xbd3dda8f	-0.04635101
140	0xbc30aba6	-0.010783112
141	0xb806a413	-3.2100896e-05
142	0xbc18610b	-0.009300481
143	0x39a64aa2	0.00031717593
144	0x3e55a934	0.20865327
145	0x3e62cb47	0.22147857
146	0x39a68453	0.00031760577
147	0xb890fbe5	-6.913374e-05
148	0xb995f756	-0.00028603774
149	0x3df6631b	0.120306216
150	0x3190ab2f	4.210413e-09
151	0x3e29f2cf	0.1659653
152	0x3d867a1e	0.06566261
153	0x3d5fe825	0.05466475
154	0x3b212536	0.002458883
155	0x3da444fe	0.08020972
156	0x3e15a39b	0.14613192
157	0xb930d6b2	-0.00016864648
158	0x3e49b55d	0.19698091
159	0x3dd1c3ab	0.10242399
160	0xbca223f8	-0.019792542
161	0x3e34b463	0.17646937
162	0x3d8a5b85	0.06755737
163	0x39c198c3	0.00036925645
164	0x3d3c5451	0.045978848
165	0x3d079e33	0.033109855
166	0xb7405701	-1.1464349e-05
167	0x3db645e1	0.08900047
168	0xbabb6e3f	-0.0014299824
169	0xbe0c7575	-0.13716681
170	0x3ba47579	0.0050188866
171	0x39a687b3	0.0003176309
172	0xb90769b8	-0.00012913987
173	0xb995f703	-0.00028603533
174	0xbe0a4eca	-0.13506618
175	0x28093ff2	7.618894e-15
176	0x3b32553e	0.0027211453
177	0xbd987823	-0.07444789
178	0xbd959df2	-0.07305516
179	0x3b1dd85b	0.0024085257
180	0x39a68127	0.00031758213
181	0x3da7a6bd	0.081861
182	0xb92cc134	-0.00016475172
183	0xbcaf30bb	-0.021385541
184	0x3d9ad87b	0.075608216
185	0xbd426d78	-0.04746768
186	0x3d8b9cbf	0.06817006
187	0x3db4a1a1	0.08819891
188	0x39c6381a	0.00037807302
189	0xbbeb1ca6	-0.007175046
190	0x3b306fb5	0.0026922051
191	0xb8ce99f1	-9.851519e-05
192	0x3c1199fc	0.00888681
193	0x39a60093	0.00031662415
194	0x3b22c44b	0.0024836238
195	0x3b2170cc	0.0024633883
196	0x39a679cf	0.00031752742
197	0xb76107be	-1.3412848e-05
198	0xb995f842	-0.0002860446
199	0x3b385d32	0.002813172
200	0x36d6828a	6.3928937e-06
201	0x3e6aa0c3	0.22912888
202	0x3dcb80b1	0.09936655
203	0x3ddec07d	0.10876558
204	0x3b221001	0.0024728777
205	0xbe17321d	-0.1476521
206	0x3e2749ab	0.16336696
207	0xb9322120	-0.00016987743
208	0x3bdce84e	0.00674156
209	0xbc7c1e1d	-0.015388039
210	0x3dff5aeb	0.12468513
211	0x3e4bcc5a	0.19902173
212	0x3dfc9d7a	0.12334724
213	0x39bd96bb	0.00036161192
214	0xbc933ab0	-0.01797232
215	0x3ba4c33f	0.005028158
216	0x377467c0	1.45676895e-05
217	0xbe151db2	-0.14562109
218	0x39a66ff2	0.00031745393
219	0x3e1a9133	0.15094452
220	0x3d5e8553	0.054326367
221	0x39a69fe7	0.00031781124
222	0xb99c7605	-0.0002984257
223	0xb995f63a	-0.00028602948
224	0x3e523d14	0.20531112
225	0x34518b27	1.9515265e-07
226	0xbdbc98cc	-0.09208831
227	0xbd97dac4	-0.07414773
228	0xbe17c83e	-0.1482248
229	0x3b21a7cd	0.0024666667
230	0xbd9d61a1	-0.07684637
231	0x3cac7f0b	0.021056673
232	0xb931903c	-0.00016933767
233	0x3d8e5e08	0.06951529
234	0x3de583b0	0.11206758
235	0x3df116c1	0.11771918
236	0x3be2f24e	0.0069258576
237	0x3e2322f6	0.15931305
238	0x39bfb011	0.0003656154
239	0x3d968f3f	0.07351541
240	0x3d32e49f	0.04367506
241	0x365cca95	3.2900473e-06
242	0x3df4f215	0.11960236
243	0x39a673c8	0.0003174825
244	0x3d9ad117	0.07559412
245	0xbd52a393	-0.051425528
246	0x39a68b5b	0.00031765815
247	0xb958720f	-0.00020641855
248	0xb995f6b3	-0.000286033
249	0x3d7d0caf	0.061779674

layer5.bias f4 [10]
0	0x3dfff43e	0.124977574
1	0x0000e786	8.3055e-41
2	0xad0416b1	-7.50837e-12
3	0x3db0b064	0.08627394
4	0x3dcef965	0.10106162
5	0x3e140052	0.14453247
6	0xbd06e154	-0.032929733
7	0x3d380b34	0.04493256
8	0xbc88f2b0	-0.016717285
9	0x3cbd3a0a	0.023098964

layer6.weight f4 [1, 10]
0	0x3e824385	0.25442138
1	0xbcab7719	-0.020930814
2	0xbca33e57	-0.019927187
3	0xbdb828df	-0.089921705
4	0xbe815acf	-0.25264594
5	0x3d823ece	0.06359635
6	0x3dc81566	0.097697064
7	0x3cf0c998	0.029393002
8	0x3eaa1fc4	0.3322736
9	0x3e25bbf7	0.16184984
