weights/_unorm_ltc_mlp.pth (torch_old, 164819 bytes, 11 tensors)

layer1.weight f4 [130, 161]
000000 78 65 3d 80 58 13 3b 80 b8 2a 3e 80 60 ce 0a 80
       -5.638365e-39 -5.425234e-39 -5.709125e-39 -9.92388e-40
000010 88 54 0a 80 4f 4c 18 83 a0 43 a4 80 80 4d 06 81
       -9.48679e-40 -4.4756383e-37 -1.508528e-38 -2.4667516e-38
000020 28 a6 3c 80 f8 7c 3d 80 28 cd 5a 80 f8 0f 30 80
       -5.569735e-39 -5.646796e-39 -8.338791e-39 -4.413832e-39
000030 d8 f2 6a 81 f8 7e 41 80 18 8e 4d 80 f0 93 43 80
       -4.3153244e-38 -6.014855e-39 -7.122307e-39 -6.206048e-39
000040 80 b3 4c 80 d8 a6 33 80 f8 ee 30 80 f0 23 34 80
       -7.04389e-39 -4.743463e-39 -4.49383e-39 -4.788338e-39
000050 30 91 31 80 a8 cc 4e 80 b0 26 2b 80 30 bb 47 80
       -4.552023e-39 -7.236586e-39 -3.962805e-39 -6.58747e-39
000060 30 6a 48 80 e0 86 3d 80 68 d6 0a 80 18 65 09 80
       -6.650249e-39 -5.650349e-39 -9.9527e-40 -8.62785e-40
000070 ca cb 11 83 78 b1 93 80 5c e7 0d 81 c0 0d 37 80
       -4.284561e-37 -1.3563482e-38 -2.6063602e-38 -5.055885e-39
000080 88 e7 39 80 30 19 66 80 68 9c 2d 80 34 aa 56 81
       -5.317681e-39 -9.376256e-39 -4.188705e-39 -3.9427707e-38
000090 f8 1b 56 80 d0 b2 5f 80 98 53 42 80 c0 85 5c 80
       -7.907886e-39 -8.788518e-39 -6.09113e-39 -8.496846e-39
0000a0 28 8c 31 80 e8 44 30 80 50 89 31 80 38 28 32 80
       -4.550218e-39 -4.432823e-39 -4.549198e-39 -4.606203e-39
0000b0 88 68 87 80 90 74 48 80 38 3c 3f 80 a8 47 3f 80
       -1.2435291e-38 -6.65397e-39 -5.807239e-39 -5.811342e-39
0000c0 90 70 3d 80 30 22 0a 80 a0 af 08 80 b2 9e 18 83
       -5.642345e-39 -9.30619e-40 -7.97686e-40 -4.485096e-37
0000d0 b0 ad b2 80 d4 9a 1c 81 88 91 36 80 30 67 3c 80
       -1.6409026e-38 -2.8763759e-38 -5.011324e-39 -5.547146e-39
0000e0 e0 cc 5a 80 08 d0 2f 80 e4 dd 84 81 38 71 43 80
       -8.33869e-39 -4.390896e-39 -4.880754e-38 -6.193593e-39
0000f0 f0 a7 5f 80 e0 59 39 80 98 40 44 80 28 23 32 80
       -8.784617e-39 -5.266864e-39 -6.267986e-39 -4.604386e-39
000100 e8 b9 32 80 c8 a0 34 80 58 0e 34 80 e0 61 62 80
       -4.658465e-39 -4.833123e-39 -4.780591e-39 -9.03499e-39
000110 b8 be 36 80 28 e5 30 80 a0 c8 27 80 70 95 2c 80
       -5.027534e-39 -4.49031e-39 -3.653555e-39 -4.09437e-39
000120 58 ad 09 80 18 11 0b 80 c7 af 19 83 58 3b b3 80
       -8.88703e-40 -1.016323e-39 -4.516444e-37 -1.6459842e-38
000130 18 1c e6 80 70 85 34 80 e8 59 3a 80 f0 26 50 80
       -2.1132242e-38 -4.823314e-39 -5.358711e-39 -7.360808e-39
000140 20 58 30 80 20 5e 79 81 20 fb 60 80 00 99 20 80
       -4.439717e-39 -4.5801608e-38 -8.906294e-39 -2.993622e-39
000150 70 50 3b 80 68 96 2d 80 a8 01 34 80 d0 8a 31 80
       -5.44715e-39 -4.186553e-39 -4.77604e-39 -4.549736e-39
000160 78 6e 35 80 e0 09 33 80 d0 49 30 80 f0 a9 19 80
       -4.90691e-39 -4.687153e-39 -4.434583e-39 -2.35685e-39
000170 68 b1 2e 80 10 b3 34 80 60 53 34 80 38 c5 09 80
       -4.288074e-39 -4.839681e-39 -4.805355e-39 -8.97268e-40
000180 40 b2 09 80 84 a5 18 83 f0 dc 9e 80 80 b6 e3 80
       -8.90464e-40 -4.485879e-37 -1.4589266e-38 -2.0912126e-38
000190 b8 89 39 80 30 16 4a 80 28 2e 60 80 e0 45 30 80
       -5.284027e-39 -6.803786e-39 -8.832765e-39 -4.43317e-39
0001a0 2a 0c 80 81 48 d6 4b 80 80 9c 5f 80 28 2a 3d 80
       -4.703723e-38 -6.964532e-39 -8.780514e-39 -5.617088e-39
0001b0 28 9d 3a 80 00 0f 33 80 18 b2 30 80 58 15 34 80
       -5.382836e-39 -4.688991e-39 -4.471992e-39 -4.783102e-39
0001c0 f8 9c 32 80 48 fc 19 80 30 ab 0c 80 50 0b 35 80
       -4.648085e-39 -2.386389e-39 -1.163436e-39 -4.87134e-39
0001d0 48 6e 39 80 80 13 38 80 90 ca 09 80 90 b7 08 80
       -5.274185e-39 -5.149783e-39 -8.99185e-40 -8.00534e-40
0001e0 be a3 18 83 d8 86 ad 80 b0 6b 01 81 88 ad 38 80
       -4.485675e-37 -1.5935914e-38 -2.377082e-38 -5.205039e-39
0001f0 60 f6 39 80 d8 9d 5d 80 30 13 30 80 cc f0 81 81
       -5.323006e-39 -8.597325e-39 -4.414987e-39 -4.773264e-38
000200 98 c1 46 80 28 df 4d 80 18 82 43 80 98 36 3e 80
       -6.497933e-39 -7.151387e-39 -6.199647e-39 -5.713385e-39
000210 c8 93 32 80 80 eb 30 80 20 fa 33 80 40 b5 32 80
       -4.644789e-39 -4.492585e-39 -4.773338e-39 -4.656795e-39
000220 80 a6 6f 80 f0 24 3e 80 f8 ad 47 80 a0 f2 4a 80
       -1.0253469e-38 -5.707051e-39 -6.582728e-39 -6.882864e-39
000230 d8 bd 44 80 a8 04 0a 80 a0 1e 09 80 7a 24 20 83
       -6.312917e-39 -9.20025e-40 -8.37506e-40 -4.7061647e-37
000240 48 1d b9 80 64 e4 1f 81 f0 d4 3c 80 78 a0 52 80
       -1.7000071e-38 -2.936755e-38 -5.586517e-39 -7.588076e-39
000250 60 83 5a 80 28 b0 32 80 88 33 72 81 b8 17 5c 80
       -8.312323e-39 -4.654968e-39 -4.4485352e-38 -8.457374e-39
000260 20 e9 70 80 d8 51 42 80 d8 9b 52 80 88 c6 32 80
       -1.0369205e-38 -6.090503e-39 -7.586417e-39 -4.662994e-39
000270 98 af 38 80 c0 c3 35 80 f8 b6 38 80 98 d1 21 81
       -5.205779e-39 -4.937503e-39 -5.208425e-39 -2.9721406e-38
000280 48 78 be 80 1a d6 03 00 78 f3 03 00 a8 cd 06 00
       -1.7491893e-38 3.52312e-40 3.62847e-40 6.24789e-40
000290 ee 99 01 00 49 96 00 00 fc 27 15 9f da ec 02 00
       1.47055e-40 5.3912e-41 -3.158505e-20 2.68637e-40
0002a0 5b cc 06 00 53 1f 01 80 7b 18 04 00 60 ed 02 00
       6.24322e-40 -1.03073e-40 3.76124e-40 2.68825e-40
0002b0 9a 16 04 80 d1 04 02 80 a7 86 00 00 ad 15 04 00
       -3.7545e-40 -1.85399e-40 4.8304e-41 3.75118e-40
0002c0 ac 49 04 80 37 15 02 80 53 82 06 80 fa 1c 04 00
       -3.9377e-40 -1.91281e-40 -5.97764e-40 3.77737e-40
0002d0 59 55 01 80 56 ec 00 00 bf 4c 03 00 a2 87 04 80
       -1.22452e-40 8.4781e-41 3.03038e-40 -4.15998e-40
0002e0 e0 ca 00 00 4e ee 06 80 16 b9 05 00 5d b2 05 80
       7.2778e-41 -6.365e-40 5.25574e-40 -5.23162e-40
0002f0 6a 40 03 00 b8 9c 53 a0 fd b4 05 00 a9 54 02 00
       2.98614e-40 -1.7924249e-19 5.24104e-40 2.14041e-40
000300 56 f3 06 00 68 41 04 00 e3 3e 04 80 42 7c 04 00
       6.38305e-40 3.90805e-40 -3.89901e-40 4.11917e-40
000310 5a d1 00 00 8e 97 06 00 5c 51 06 80 7d c2 00 00
       7.5101e-41 6.0538e-40 -5.80199e-40 6.9769e-41
000320 0b 3b 05 80 15 fb 00 00 92 8f 00 00 ba 2f 00 00
       -4.80358e-40 9.0071e-41 5.1503e-41 1.7121e-41
000330 32 3e 02 00 f2 4a 05 80 96 76 02 80 d8 16 01 80
       2.05982e-40 -4.86063e-40 -2.26212e-40 -1.0003e-40
000340 28 6e 00 80 f9 69 05 00 ac 22 05 80 de a4 05 80
       -3.9517e-41 4.97193e-40 -4.71615e-40 -5.1832e-40
000350 e2 5c 8c a1 c1 5b 03 80 06 ab 02 00 93 b5 02 80
       -9.511355e-19 -3.08422e-40 2.45023e-40 -2.48808e-40
000360 92 4e 05 00 51 d8 00 80 97 bc 00 00 d1 f4 06 80
       4.87363e-40 -7.76e-41 6.7653e-41 -6.38837e-40
000370 41 4a 03 00 ba 61 06 00 89 6f 02 00 e8 e1 01 00
       3.02144e-40 5.8607e-40 2.23682e-40 1.72875e-40
000380 0f 78 02 00 13 03 06 80 72 a2 00 00 f9 30 05 80
       2.2674e-40 -5.52116e-40 5.8274e-41 -4.76746e-40
000390 89 55 06 00 83 b1 01 80 25 6c 06 80 86 a0 01 00
       5.81697e-40 -1.55515e-40 -5.89808e-40 1.4942e-40
0003a0 99 5a 02 80 85 17 02 80 c8 f6 06 00 0b e7 6b a2
       -2.16171e-40 -1.92108e-40 6.39541e-40 -3.1970752e-18
0003b0 f1 f2 06 00 bd d1 04 80 84 e0 01 80 23 47 06 00
       6.38164e-40 -4.42582e-40 -1.72377e-40 5.76532e-40
0003c0 23 7b 06 80 85 ad 06 80 83 94 01 00 37 ed 05 00
       -5.95186e-40 -6.1326e-40 1.45111e-40 5.44274e-40
0003d0 c7 7d 06 80 20 d5 01 00 60 56 04 00 ed 2a 05 80
       -5.96133e-40 1.6829e-40 3.98327e-40 -4.74576e-40
0003e0 06 d4 06 00 cb a7 06 80 bc fc 06 00 3e 83 04 80
       6.27073e-40 -6.11206e-40 6.41677e-40 -4.14423e-40
0003f0 82 89 00 80 fa 3a 00 00 02 85 00 80 ae c2 05 80
       -4.9329e-41 2.1157e-41 -4.7714e-41 -5.29015e-40

layer1.bias f4 [130]
000000 b8 ea 58 80 e4 3b 06 80 06 de c4 81 88 b3 ea bb
       -8.165725e-39 -5.72498e-40 -7.2317617e-38 -0.007162515
000010 3b 9c ef 3c e6 e2 d3 3d c5 e7 57 3b 02 cb fc 84
       0.029249301 0.10346012 0.0032944542 -5.943135e-36
000020 1f 32 55 a9 1a 33 c2 3d 93 f7 20 3c cb 16 5c 3c
       -4.7338974e-14 0.09482403 0.009824651 0.013433169
000030 a7 0f a2 3d ff a5 7f 3d ea 0f 88 bc 3b ec 11 3c
       0.07913142 0.062414166 -0.01660915 0.008906419
000040 d3 63 40 bd 7c c5 cd a1 6d 7a c6 3d a9 f0 11 bd
       -0.0469702 -1.3943614e-18 0.096913196 -0.035629902
000050 cc fc 5b bd 27 a2 7c bd 14 98 26 3b 04 e3 97 bc
       -0.053707883 -0.061678078 0.0025420235 -0.018540867
000060 42 9f 28 bc fe d7 b5 bb 1a 33 2d 3c 9c 94 ad 3d
       -0.010291876 -0.00554943 0.010571266 0.084756106
000070 d2 ff ec 3b ac 8f 8a 3a 36 f1 b2 3d 01 b2 8b 3d
       0.0072326446 0.0010571382 0.087374136 0.06821061
000080 27 2c a5 3d de be 14 3b 9a 39 52 3b 0c 88 8d 3d
       0.08065062 0.0022696774 0.003207779 0.069107145
000090 26 19 22 3c 7d 52 9c 3d e7 79 65 3d 06 01 19 bb
       0.009893691 0.07632921 0.05602446 -0.0023346557
0000a0 70 bf 89 3c 3b 94 e8 bb 0a fa 0f 3c f0 9f b4 3c
       0.016814917 -0.0070977486 0.008787641 0.02204892
0000b0 13 14 18 ba 0f 22 21 bd 24 5a f9 b9 d0 75 c1 80
       -0.0005801331 -0.03933912 -0.0004756014 -1.7766514e-38
0000c0 b3 6a 55 3c a8 c4 18 bd 51 6e 18 bd 00 84 e3 3c
       0.013025927 -0.03729692 -0.03721458 0.027772903
0000d0 d1 7d 40 3d bf 3b 43 3c 29 40 d7 3d 10 4d 91 3d
       0.046994988 0.0119161 0.105102845 0.07094777
0000e0 58 42 8a 3d c6 bb bd 3a 68 ff 06 3c a5 79 07 3c
       0.06750935 0.0014475517 0.0082396045 0.008268748
0000f0 43 b6 a8 3c 74 f7 34 87 fb 5f 2f bb b8 03 52 3d
       0.020594722 -1.3614415e-34 -0.002676009 0.051273078
000100 01 5b aa 3b 61 47 8e 3c 23 3f 8e 3b a6 fe 2a 3b
       0.005198837 0.01736802 0.0043410226 0.0026091724
000110 ec 7a 48 bd 49 e0 93 83 68 43 17 3d c6 f6 42 bc
       -0.048945352 -8.691377e-37 0.036929518 -0.011899656
000120 c9 9e c5 3c 56 01 15 bc c5 cc 08 3d 06 97 7d 8e
       0.024123566 -0.009094557 0.03339841 -3.1257373e-30
000130 5b 06 2a 3c ca 63 07 3d 67 1b 05 80 3a 46 a8 bb
       0.010377492 0.03305415 -4.69008e-40 -0.005135325
000140 70 b9 33 bd f3 8c da 3d 3c d1 ac 3d a8 54 07 3b
       -0.04387802 0.10671415 0.08438346 0.0020649824
000150 e6 c1 4a 3b a8 05 be 3b f8 9d 0d 3c aa f5 fa 3c
       0.0030938326 0.005799014 0.00864362 0.03063472
000160 07 72 52 3d 15 1c 4d 3b 80 ee 16 3c f2 f3 b2 3d
       0.051378276 0.0031297256 0.009212136 0.08737935
000170 e3 fe e9 3c 86 e5 22 3c ab e7 6b 3d 5c 31 d6 bb
       0.028563922 0.009942418 0.057593983 -0.006536646
000180 c0 17 c1 bc 22 47 fd 3c 7c 36 20 3c 4c 7e 91 bb
       -0.023570895 0.030917708 0.009778615 -0.0044401046
000190 9f bc 48 3c 68 d2 0a 80 a1 57 26 3d 4b 6d 4e 3b
       0.012252002 -9.93835e-40 0.040610913 0.003149825
0001a0 bb a0 7c 3c de 27 7d bb 80 04 58 3a af ad 9e bc
       0.0154191805 -0.00386285 0.00082404166 -0.019369928
0001b0 3b 30 6c bb 3d 6d a7 3c aa 87 8c 3d da 0e 5c 3d
       -0.003603949 0.020437831 0.06861813 0.0537251
0001c0 c2 ad 31 bc e8 24 05 80 e3 85 c6 3d a3 7a be 3d
       -0.01084465 -4.72417e-40 0.096935056 0.09300735
0001d0 c9 79 93 3d 9b fb e4 3c ba 5a 24 3c 73 a3 eb bb
       0.07200963 0.027952006 0.0100313965 -0.0071911155
0001e0 58 17 d9 3a 1c 93 21 3d 3d b2 86 3c d7 29 69 3d
       0.0016562743 0.039446935 0.016442413 0.056924667
0001f0 ee 41 50 3b 52 e7 0b bd eb 2f 61 bc ef d9 71 bb
       0.0031777578 -0.03415615 -0.013744335 -0.003690358
000200 c4 3f a0 3d c1 ba 80 3c
       0.07824662 0.015714051

layer2.weight f4 [100, 130]
000000 d0 10 04 00 b5 bd 92 8c e7 a6 42 82 a6 58 b4 3d
       3.73373e-40 -2.2609038e-31 -1.4300768e-37 0.08805971
000010 37 c0 8b 3d d5 8e b4 3d 8a 68 69 3d 60 e7 23 8c
       0.068237714 0.088163055 0.05698446 -1.262669e-31
000020 0a e0 a5 1e e2 c9 a4 3c 9f b3 f3 bc 1c 06 4e bd
       1.7562715e-20 0.020115796 -0.029748736 -0.050298795
000030 db d8 65 bd 6a 60 a3 bb 5e 43 a2 3d bd 74 fe bc
       -0.056115013 -0.0049858587 0.079230055 -0.031061525
000040 42 0e 90 bb 88 a1 41 20 52 0d c8 3c b7 c6 b3 3c
       -0.004396231 1.6401182e-19 0.024420414 0.02194534
000050 f0 74 a3 3c 61 f8 3e bd 7c 71 6c bc 56 83 e2 3d
       0.019953221 -0.04662359 -0.014431354 0.110602066
000060 4e bc 53 bd 02 45 23 bd 21 06 1c bd f0 85 c8 3d
       -0.051693253 -0.039860733 -0.038091782 0.097911716
000070 e9 ce 1b 3d 73 b0 af ba f7 04 80 3d 1d 2e 88 bd
       0.03803912 -0.0013404026 0.06250947 -0.066494204
000080 b2 1a f1 3d cf 1f 03 bd ab 10 8e 3d 20 a3 72 bd
       0.1177267 -0.032012757 0.06936773 -0.0592376
000090 69 a1 d4 bc 06 0b 47 bb 90 33 45 bd ea c2 14 bc
       -0.025955873 -0.003037156 -0.048144877 -0.009079674
0000a0 29 b6 37 3d 87 51 d4 3d cd 1e 95 bc 64 c9 2c bd
       0.044851456 0.103671126 -0.018203164 -0.04218425
0000b0 77 73 6d bc 45 37 85 bc 1c 5f 9c bc 28 bc 04 00
       -0.014492861 -0.016261706 -0.01908832 4.3484e-40
0000c0 f5 6e 45 bd 20 e2 1e bc 8d 25 d5 3d 64 98 82 bd
       -0.04820152 -0.009697467 0.10407553 -0.063767225
0000d0 41 15 e9 3d 94 72 ff 3d 98 21 7e 3d f3 a9 2f bd
       0.11381007 0.12473026 0.062043756 -0.042886686
0000e0 b5 49 3d bb 19 7c e7 ba a5 89 8b 3d 27 40 a7 3c
       -0.0028883044 -0.0017660885 0.06813363 0.020416332
0000f0 b7 c0 1a bd a6 55 e4 03 b6 55 e1 bb d2 de f5 bd
       -0.037781443 1.34202995e-36 -0.0068766726 -0.1200539
000100 d9 79 8b bc 39 09 95 3d d5 4f 1e 3d 7a f8 09 bd
       -0.017025875 0.0727715 0.038650353 -0.03368423
000110 21 2f 23 bd 08 4a 61 82 6e fd 13 3c 53 97 84 bc
       -0.039839868 -1.6551635e-37 0.00903259 -0.016185438
000120 a2 39 91 3d 14 2c 8f 3d b3 b6 15 3d 6c 8d eb 8d
       0.07091071 0.06990829 0.03655119 -1.4517039e-30
000130 23 1e 70 3d 87 8c 71 3d 5f 22 00 00 39 3e ed bc
       0.05862249 0.058971908 1.233e-41 -0.028960334
000140 50 b3 ee 3d 26 56 ad 3d e1 35 af 3c 77 d3 d4 3d
       0.11655295 0.08463697 0.021387996 0.10391896
000150 f4 02 9e 3d 82 09 a8 bc 9b 0b 9d bc 53 d8 9d 3d
       0.07715407 -0.020512346 -0.019170573 0.07707276
000160 86 68 ee 3c da 7e 38 3c 82 0b 23 bd eb a1 31 bd
       0.029102575 0.0112607125 -0.039805897 -0.043367308
000170 0b a0 37 3d 8f 1a 9d bc 22 69 2e 3d 14 fd dc 3d
       0.044830363 -0.019177703 0.04258073 0.10790458
000180 16 ba 2a 3d 4f 21 d4 3d 0a 3b 19 bd 7e 76 d6 bc
       0.04168137 0.103579156 -0.03740982 -0.026179548
000190 a3 69 be bc de 21 01 80 6d 53 55 3c d6 ba eb 3d
       -0.02324373 -1.03985e-40 0.013020379 0.115102455
0001a0 9d f4 7c 3d 3b ea 3c bc e0 2d a6 bc 6f 1a d0 3d
       0.06175672 -0.011530454 -0.020285547 0.10161292
0001b0 be 7d 0d bc 58 c8 ec 3c 14 5c 1a 3d 3b 6f 7c bd
       -0.008635936 0.028904125 0.03768547 -0.061629515
0001c0 9b 0d 50 3d 68 2b 05 80 7a 61 9a 3d de b0 d8 3d
       0.050794225 -4.74749e-40 0.075381234 0.1058061
0001d0 9b d6 de 3d f4 5f ea bb aa 1e d8 bc 89 cc 92 3c
       0.108807765 -0.007152552 -0.02638181 0.017919796
0001e0 e6 2f 0e bd a1 3b 23 bc 6e b7 57 bd c6 02 52 3d
       -0.03471365 -0.009962947 -0.052665167 0.051272176
0001f0 79 83 57 3d 0f 68 20 3c 38 e4 32 bd a0 13 24 bd
       0.052615616 0.0097904345 -0.043674678 -0.04005778
000200 69 3c b4 3d 0b 09 68 bd a8 9a 01 00 9a 1a ac 85
       0.08800585 -0.05664925 1.47316e-40 -1.6184574e-35
000210 ce 79 f8 81 21 82 25 3c 95 77 eb 3a d7 de 79 3d
       -9.1275593e-38 0.010101826 0.0017964715 0.061003532
000220 0b a5 4f 3c 32 25 d1 8b 23 2c 4c 1d e3 d9 82 bb
       0.012673627 -8.0559837e-32 2.7021993e-21 -0.0039932593
000230 54 25 f3 bc db df 4d bd 38 ce cf 3d 1f bc d9 3d
       -0.029680885 -0.050262313 0.10146755 0.106315844
000240 33 dd 48 bd c7 3b fe bc 38 9f 94 3d 77 1a f7 1f
       -0.049039077 -0.031034363 0.07256931 1.0465235e-19
000250 38 00 d6 bc 39 8b 30 bd 40 bb 51 3d d7 11 dc bb
       -0.026123151 -0.043101523 0.051203966 -0.006715994
000260 4a 29 6a bc 3b 8d be bc 6d d1 2d bd 62 24 23 bd
       -0.014292071 -0.023260703 -0.042436052 -0.03982962
000270 b4 3a 1c bd a5 ff a5 3c 2d 40 1d bc 34 ed ad ba
       -0.03814192 0.020263502 -0.00959782 -0.0013269545
000280 99 e4 2f bd 24 09 bc 3b c9 07 ff 3d 33 6c 03 bd
       -0.042942617 0.0057383943 0.12452657 -0.03208561
000290 73 92 a3 3d af 15 a4 3d 30 a9 d3 bc 60 c1 ff 3c
       0.07986917 0.08011948 -0.02583751 0.031220138
0002a0 7e f5 e3 3d 1f 75 13 bc fe f3 c4 3c f0 7b cc 3d
       0.11130808 -0.009000092 0.024042126 0.09984577
0002b0 f8 86 93 bc 86 3b 74 3c 69 be 6b bc fc e8 de bb
       -0.018008694 0.01490677 -0.014388659 -0.0068026762
0002c0 1b ba 9b bc c0 44 02 00 3e 9b 45 bd 96 e9 0d 3d
       -0.01900964 2.08334e-40 -0.048243754 0.034646593
0002d0 d0 27 80 bb 61 ae 8b bd 68 e2 d5 3b ea 9c 4e 3d
       -0.003910996 -0.068203695 0.006527234 0.050442614
0002e0 3c c9 0c 3d 31 14 a4 3d 61 b1 3b 3d bd 08 e6 ba
       0.0343716 0.08011664 0.04582346 -0.0017550212
0002f0 07 da 8b 3d c7 37 1a 3d ce 9f 0a 3d 41 b5 91 03
       0.06828695 0.03765085 0.033843808 8.563948e-37
000300 ca d8 de bb 2a 6e 94 bd 40 38 8a bc bb 13 87 3d
       -0.0068007456 -0.072475746 -0.016872525 0.0659556
000310 62 45 1e 3d 95 4c 0a bd c5 94 7b 3d e7 c0 0f 82
       0.038640387 -0.03376444 0.061421175 -1.0561341e-37
000320 9b f4 d2 bc 68 73 b5 3c db d1 92 3d 99 a0 0e bc
       -0.025751403 0.022149757 0.07168933 -0.008705282
000330 35 29 04 bb f4 23 96 8d 87 af 4c bd d0 c5 cf 3a
       -0.0020166163 -9.253119e-31 -0.049972083 0.0015851799
000340 d2 97 02 00 0c 8f ed bc a6 19 81 3d f9 0f f6 3d
       2.38134e-40 -0.028998874 0.0630372 0.12014765
000350 28 42 bc bd ba 98 ac bc 3b 49 f8 bc d7 ef a6 bc
       -0.09192306 -0.02106892 -0.030308357 -0.020378036
000360 07 87 9b bc d5 b3 bb bb 0d bd 84 3a 3d 60 28 3c
       -0.018985284 -0.0057282248 0.0010127142 0.010276851
000370 57 67 23 bd aa 9a bc 3c 0f 31 9b 3d 4d 73 9b bc
       -0.039893474 0.023022968 0.075777166 -0.018975878
000380 d4 d6 70 3d 8c 89 89 bc 0d a5 0e bc 4e 5f de 3c
       0.058798626 -0.01678922 -0.008706343 0.027145054
000390 52 65 19 bd 58 90 d6 bc 58 1c bd bc f0 8e 03 80
       -0.037450142 -0.026191875 -0.023084804 -3.26783e-40
0003a0 9c 3f 39 bd 25 16 be 3d d1 a0 e3 3d fa b4 3b bc
       -0.04522668 0.092815675 0.11114658 -0.011456722
0003b0 72 8d a5 bc fc ec 82 3c e3 77 0c bc 03 d6 d0 bc
       -0.020209048 0.015982144 -0.008573505 -0.025492674
0003c0 0b 34 9c 3c 8d 10 29 bd bd f8 53 3d d0 92 02 80
       0.019067785 -0.04127555 0.051750887 -2.36337e-40
0003d0 b4 44 c0 bc f5 e6 c7 3d 7e af d7 3c d6 ee dd 3d
       -0.02347026 0.097608484 0.026328798 0.1083657
0003e0 db 39 d7 bc a0 7d e3 3d 77 29 0e bd 3e 2d 97 bb
       -0.026272705 0.111079454 -0.034707513 -0.0046135476
0003f0 0b dd 59 bd cd f9 26 3d 26 a0 57 3d cc ad d0 3c
       -0.05318932 0.040765572 0.052642964 0.025473498

layer2.bias f4 [100]
000000 df 2a 74 bd 0d 73 cc 3d 35 a0 03 bb 44 0a 66 bb
       -0.059611198 0.09982882 -0.0020084505 -0.0035101334
000010 cb 43 06 80 07 f4 ae 3d 5f 6c 43 bd 4d 21 d6 3d
       -5.75333e-40 0.08542638 -0.047710773 0.1045557
000020 86 ae 86 81 7e f1 36 3c a9 16 47 3d 65 74 bb b8
       -4.9474255e-38 0.011165975 0.048605595 -8.938535e-05
000030 a6 c9 a4 ba 05 e9 45 bc c0 9e 89 3c 47 47 0d bb
       -0.0012572303 -0.012079482 0.01679933 -0.0021557377
000040 81 f8 9f 3d ad 4e 5b 3d 0e 92 6a 3c 00 7e e5 3b
       0.0781107 0.053541828 0.014317049 0.0070035458
000050 01 55 3a 3d 3c f7 c4 3d b3 79 2a bb 5a a0 25 bd
       0.045491222 0.09617469 -0.002601248 -0.040436126
000060 bd c8 cd 3d 57 8e 3a 84 ca ac 18 bd 45 ae 08 bd
       0.100480534 -2.1929554e-36 -0.03727416 -0.03336932
000070 bf b3 96 3d 5c 15 83 3d bd f5 bc 3b 8a 48 29 3d
       0.073585026 0.06400558 0.005766599 0.041328944
000080 e9 aa 65 9d 5b c8 19 bd fc ea 75 3c e5 f3 a2 3d
       -3.0396256e-21 -0.03754459 0.015009638 0.079566754
000090 03 84 07 3b b1 db f4 9f a9 18 86 3d fa 43 c4 3c
       0.002067805 -1.0370147e-19 0.06547672 0.023958195
0000a0 c8 f9 01 00 e9 f3 9e ac 94 51 4e 3d e8 9b 01 00
       1.8144e-40 -4.5177096e-12 0.050370768 1.47764e-40
0000b0 9f c2 c5 3b cb ed 11 3c 21 45 aa 3b 3b 91 63 81
       0.0060351635 0.008906792 0.005196229 -4.1797513e-38
0000c0 1c 15 4c 3c bc 59 04 81 a8 3a 0e 80 53 e2 72 3d
       0.012456205 -2.4308952e-38 -1.306739e-39 0.05929787
0000d0 d5 66 a0 90 5a 78 96 bc bf 07 61 bd 11 98 16 88
       -6.326731e-29 -0.018367935 -0.054939028 -4.5317736e-34
0000e0 36 01 1b 3c 9b 7b 33 bc e3 f1 54 84 b8 3f 0e 3b
       0.009460738 -0.010954763 -2.503155e-36 0.002170546
0000f0 c5 98 c2 3d f7 ce b5 3d cb 8e ea 38 75 56 0c 8a
       0.09501795 0.08877366 0.00011184587 -6.7570156e-33
000100 7b 73 dd bc de 7e 43 3d 77 90 af 3d 5b 58 b1 b7
       -0.027032604 0.04772841 0.08572476 -2.1141188e-05
000110 8f d5 08 96 01 00 c3 3d 67 fe a9 8a 21 a4 d0 3d
       -1.105338e-25 0.09521485 -1.6369804e-32 0.10187555
000120 5b 9a 15 3b d2 ee eb 81 92 d5 b9 3d 7a ac 8a 3a
       0.0022827599 -8.6668057e-38 0.090739384 0.0010579966
000130 94 1f 88 3d dc 2d 31 3b e6 15 75 bd d1 31 08 82
       0.06646648 0.002703539 -0.059835337 -1.0005999e-37
000140 e2 cc af 3c 98 45 4c 3c 69 8c a8 3d b0 08 e5 3a
       0.02146 0.012467764 0.08229906 0.0017473903
000150 e6 3a 2f 3c bc ed b1 91 c5 98 68 b7 fa fb e0 3c
       0.010695195 -2.807219e-28 -1.3863847e-05 0.027463902
000160 dc 95 6b bd ad 4a 24 b8 b9 22 c4 3d 7b 91 a2 b9
       -0.057515964 -3.9170194e-05 0.09576935 -0.0003100744
000170 37 bb d2 95 f5 38 bb bc 55 7b 02 3c a0 6e cc 3d
       -8.51137e-26 -0.022854308 0.007963975 0.099820375
000180 46 e1 8b 3c 50 73 30 bb 04 4c 79 80 e2 41 21 3d
       0.017075192 -0.00269242 -1.1139364e-38 0.03936947

layer3.weight f4 [50, 100]
000000 14 79 d1 3d 1b 91 90 3d 70 4a d1 bb b3 ed 53 bc
       0.10228172 0.07058927 -0.0063870475 -0.01293509
000010 58 70 02 00 2f 58 55 bd 02 f8 f5 3d 8d e7 ad 3d
       2.23972e-40 -0.05208605 0.12010194 0.084914304
000020 10 09 03 00 66 1b cf 3c f2 92 b3 3d bc 2c db b8
       2.78758e-40 0.02528162 0.08768262 -0.00010451066
000030 bc 85 89 3d e6 2a fd bc cf 44 d0 3d 4a d7 81 bb
       0.06714961 -0.030904245 0.10169374 -0.003962432
000040 0d 0d 9b 3d e8 df 50 3d 3a ef 06 bd 90 09 af bc
       0.075708486 0.050994784 -0.032942988 -0.021366864
000050 ac f0 c2 3d 41 35 ab 3d f5 a6 a1 bb a4 d3 12 bd
       0.09518561 0.08359767 -0.004933233 -0.035846367
000060 10 17 bd 3c 40 86 1f 80 58 8e c9 bb a8 67 e8 bd
       0.023082286 -2.89506e-39 -0.006151002 -0.11347896
000070 58 d0 40 bc bd 99 f4 3c 81 ee 3d bc 1c 9e b4 3d
       -0.011768423 0.029858464 -0.011592508 0.088192195
000080 7a a2 50 9c 71 fe 99 3c cc a5 19 bd d3 91 a6 3b
       -6.9031423e-22 0.018798085 -0.03751163 0.0050833016
000090 74 94 1c bc cc 21 41 18 60 6a 02 3e 75 47 63 3c
       -0.009556878 2.4961728e-24 0.12735891 0.013872017
0000a0 a8 a8 00 80 16 01 b2 38 d7 64 10 bd fe 63 02 80
       -6.0502e-41 8.487904e-05 -0.03525242 -2.19541e-40
0000b0 3c b7 44 bc d3 6a b6 bc 42 4b fc bc ad de 61 00
       -0.012006577 -0.022267735 -0.030797604 8.987924e-39
0000c0 53 51 d5 bc ec 99 dc 89 48 8e 00 80 07 04 b3 3b
       -0.026039755 -5.310782e-33 -5.1041e-41 0.0054631266
0000d0 8c f7 f9 8d 9c f0 4f 3d 32 eb 30 bc ee 77 81 04
       -1.5405405e-30 0.050766572 -0.010798262 3.0437892e-36
0000e0 7c 61 6d bc 3e da d4 3d 70 b3 2e 80 a4 8f 12 bc
       -0.014488574 0.10393189 -4.288803e-39 -0.008945379
0000f0 9b f2 34 3d 44 42 9d bc b4 34 03 bb bf f9 97 87
       0.04417668 -0.019196637 -0.0020020427 -2.2866742e-34
000100 42 78 e5 bc 41 c1 0e 3c fc 19 92 3d 90 de 66 35
       -0.028011445 0.0087130675 0.071338624 8.600555e-07
000110 78 b1 da b5 ae 0a 77 bd dc 52 ba 10 9e 5f 55 3d
       -1.6293916e-06 -0.06031292 7.349173e-29 0.05209314
000120 4a 0e 8d bc 00 93 d2 01 35 58 f2 3d 52 0f 27 bb
       -0.017218728 7.735275e-38 0.118332304 -0.002549131
000130 73 80 ba 3d d1 12 1a bc e4 11 c8 bc 28 bd 02 00
       0.09106531 -0.0094039 -0.024422593 2.51527e-40
000140 7b 3e be 3d 61 b7 d7 bc 9f 68 89 bd cc ae 73 bc
       0.09289261 -0.026332559 -0.06709408 -0.014873218
000150 ae 25 e9 bc d6 65 7c 15 86 13 f5 bb d3 e4 ca ba
       -0.02846035 5.097133e-26 -0.007479134 -0.0015479572
000160 7c d6 ac ba bd cd 99 b8 09 67 50 3d 88 4e b0 b9
       -0.001318648 -7.33393e-05 0.050879512 -0.00033627846
000170 bb 12 c6 88 4d 92 2c 3c 06 66 aa bc c7 e0 ed 3d
       -1.1921095e-33 0.010532928 -0.020800602 0.116151385
000180 6d d5 a1 3c df 8e 8a bb 51 e7 a8 25 55 21 fc 3c
       0.01975509 -0.0042284573 2.93001e-16 0.030777613
000190 a7 5b 8b 3b 60 61 89 3b 0a 23 cf bb 10 b5 52 bc
       0.004252869 0.004192516 -0.0063213157 -0.0128605515
0001a0 15 27 06 80 79 68 d3 3c f4 32 01 3e 9f 82 b9 3d
       -5.65033e-40 0.025806652 0.12617093 0.09058117
0001b0 21 14 17 00 7f 62 8a 3d a9 22 8a 3d 33 72 da b8
       2.119437e-39 0.06757068 0.06744892 -0.00010416321
0001c0 a5 5f 71 3c 3f fe fc bc b9 a4 a4 bc 1f b1 80 bb
       0.014732276 -0.030882953 -0.020098077 -0.0039273645
0001d0 a9 8c 5e 3c 4f f3 e5 3c 64 33 06 bd d5 1e ae bc
       0.013583341 0.02807012 -0.032763854 -0.021254936
0001e0 00 34 dd bc 86 62 fa 3d 09 25 a0 bb 15 73 f6 3d
       -0.027002335 0.12225823 -0.0048872274 0.12033669
0001f0 88 52 cc 3c c0 0a 38 80 5e 62 43 bd b6 40 f6 bd
       0.024941698 -5.146644e-39 -0.047701232 -0.120240614
000200 22 d6 8f 3b 58 40 de bb 9a 57 3c bc 1a d7 93 3d
       0.0043895403 -0.0067825727 -0.011495495 0.07218762
000210 f8 b9 b0 9c ca bf 32 3d ea 2a 19 bd 24 8c e9 3d
       -1.1694775e-21 0.043639936 -0.03739444 0.11403683
000220 b3 1d 1b bc 4c 6c 0b 19 e6 2c 02 3e f8 fc 90 3b
       -0.00946753 7.208002e-24 0.1271244 0.0044246875
000230 a8 2b 02 00 0b 60 0a 39 2b 3f f2 3c fb 8e 04 00
       1.99332e-40 0.00013196484 0.029571136 4.18634e-40
000240 2d f4 42 bc 0d 52 b3 bc 9c 7d fb bc 63 c8 a5 00
       -0.011899036 -0.02188971 -0.030699544 1.5224742e-38
000250 10 0f d4 bc 25 83 3a 8a 68 3a 02 00 ed 3f bc 3d
       -0.025886089 -8.98024e-33 2.04623e-40 0.091918804
000260 6f d8 53 8e 3c 81 c4 3d 52 ac f4 3d 00 8c 05 05
       -2.6111967e-30 0.09594962 0.1194693 6.279344e-36
000270 29 7d 6e bc fd eb 09 3e e8 af 51 80 44 1c 11 bc
       -0.014556208 0.13468929 -7.501778e-39 -0.008856837
000280 dc a2 a9 3a be e4 8f 3d 94 94 02 bb d7 5f 1f 8f
       0.0012942213 0.07026051 -0.0019924985 -7.857763e-30
000290 c5 09 33 bd 9b 6e 37 3d b7 7a 8a 3d ec f0 8a 35
       -0.04371049 0.044783216 0.06761687 1.0351919e-06
0002a0 00 8d fd b6 ce 5d 38 3d 21 b4 1d 11 83 af cb 3d
       -7.556402e-06 0.045011334 1.2440623e-28 0.099455856
0002b0 16 36 8c bc 36 dc 31 02 ff 3b c8 3b 1a e3 26 bb
       -0.017115634 1.3067104e-37 0.0061106677 -0.0025464953
0002c0 f1 29 60 3d 5f 98 18 bc 42 11 4f 3c 78 3d 00 80
       0.0547275 -0.009313672 0.012638392 -2.2051e-41
0002d0 3f 6f d0 3d c4 7a d6 bc 7f ac b2 bc 2c f9 71 bc
       0.101774685 -0.026181586 -0.021810768 -0.01476888
0002e0 41 c6 e2 bc 1d a0 d5 15 11 fc f3 bb 82 81 d1 bc
       -0.027682425 8.628263e-26 -0.00744582 -0.02557445
0002f0 5a 82 00 3e 35 de 99 b8 89 0e 28 3d 55 64 b2 b9
       0.12549725 -7.336998e-05 0.041029487 -0.0003402556
000300 78 6d e9 90 ea 89 dc 3d 24 8b a9 bc ca 28 df 3d
       -9.207096e-29 0.107684925 -0.02069623 0.10896452
000310 20 4d 1b bd 9b 59 89 bb c3 d1 35 2b 26 f3 19 3d
       -0.03791535 -0.00419159 6.459522e-13 0.0375854
000320 67 c6 20 3d 0b 7b 49 3d 85 9c ce bb ed 65 52 bc
       0.03925171 0.04918961 -0.0063052797 -0.012841684
000330 ab fd 06 00 71 2a 40 bd a2 60 a0 3c 9e 4d fe 3d
       6.42012e-40 -0.046915475 0.019577328 0.12417148
000340 92 fb 35 01 42 21 7b 3a af 25 c4 3d 3b 53 da b8
       3.3424942e-38 0.0009579846 0.095775 -0.00010410553
000350 1f c6 bd 3c 12 f1 fc bc 2e 74 c3 3d 02 6b 80 bb
       0.02316576 -0.03087667 0.09543644 -0.0039190063
000360 b0 2d c7 3d cd 79 a6 3c d0 27 06 bd 95 44 ae bc
       0.09725511 0.020321751 -0.032752812 -0.021272937
000370 7b 48 07 3e 76 f6 1f bd 9e c6 9f bb 2b 2e a4 3d
       0.13211243 -0.039053403 -0.004875972 0.08016618
000380 b5 3e cb 3d a0 49 3f 80 17 5c f1 bc d6 61 1a 3d
       0.0992407 -5.812048e-39 -0.029462857 0.03769096
000390 cc 7d 9d 3d ed 7b 7d bc d9 62 3c bc 6b 76 dd 3d
       0.076900095 -0.015471441 -0.0114981765 0.10813602
0003a0 ca 26 c7 9c bd 40 49 3d 88 1e 19 bd d3 16 15 3c
       -1.3178742e-21 0.049134005 -0.037382632 0.00909968
0003b0 3f e1 1a bc f9 9e 38 19 11 95 63 bd 6c 6e 13 bd
       -0.009453117 9.544681e-24 -0.055562083 -0.03599398
0003c0 f0 f4 02 00 89 84 14 39 63 b5 06 3d a5 89 01 00
       2.71538e-40 0.00014163753 0.032887828 1.41213e-40
0003d0 22 e8 42 bc 56 af a9 bc b3 b6 fb bc 88 1b bb 00
       -0.011896165 -0.02071349 -0.030726766 1.7183114e-38
0003e0 4b 33 d4 bc ab 17 52 8a d8 dd 02 00 3b 3d bf bc
       -0.025903365 -1.0115584e-32 2.63254e-40 -0.023344627
0003f0 3e bf 6e 8e e1 91 1c 3d 31 25 88 3d 8b f6 1f 05
       -2.9427845e-30 0.03822506 0.06647719 7.521427e-36

layer3.bias f4 [50]
000000 ed 12 aa 3d 86 f2 e9 3d ae cd c3 3d b1 80 6f 3d
       0.08304391 0.11423211 0.09560715 0.05847234
000010 2d 08 bd b4 9c 1d 19 81 c1 44 e4 8f f8 97 87 3c
       -3.5209942e-07 -2.8122906e-38 -2.2509019e-29 0.016551957
000020 ec 29 09 95 9d d9 a9 88 c5 d1 5f 3a 10 c1 36 b9
       -2.77e-26 -1.0222478e-33 0.0008538033 -0.00017428794
000030 f3 25 d5 3b 9c 42 dc ba 4a 03 00 00 09 7d b3 bb
       0.006504768 -0.0016804519 1.18e-42 -0.005477552
000040 f1 71 06 bd f4 4f 46 bb ea df fc bc ab bc 68 3b
       -0.032823507 -0.0030260058 -0.03086849 0.0035512845
000050 1e ff 4a b9 ad 05 5e bd 61 30 42 bb 51 97 66 bb
       -0.0001935926 -0.05420463 -0.0029630887 -0.0035185406
000060 48 c4 f0 bb 2a d6 b5 bc 20 c5 8f 91 72 0d 00 80
       -0.0073476173 -0.022196848 -2.268291e-28 -4.823e-42
000070 2e 1a f0 bc 19 03 d6 3d b6 ae 6e 92 df e3 c0 b6
       -0.029309358 0.104498096 -7.5314906e-28 -5.7485736e-06
000080 b3 e3 23 83 dc 7c ac 3d 86 2b bc 96 8f f5 e1 3d
       -4.816278e-37 0.084222525 -3.0400505e-25 0.11033165
000090 9f 52 f8 3d 79 b6 1e 93 a5 a1 7d bc 75 81 3e bd
       0.12125134 -2.003237e-27 -0.015480434 -0.04651018
0000a0 1f 73 6a 3d e0 ce 15 bd f0 79 b4 3d 35 aa cc 3c
       0.057238694 -0.036574244 0.0881232 0.024983505
0000b0 58 2d 71 bc df 34 ee 3c b1 ad 19 3d 1c 8b 90 3d
       -0.014720283 0.029077945 0.03751916 0.07057783
0000c0 6e c4 9c 3d 17 3e 96 bc
       0.076546535 -0.018340154

layer4.weight f4 [25, 50]
000000 56 12 13 3e 8b a9 d8 b9 12 17 f2 3d 92 27 b5 3d
       0.14362463 -0.0004132505 0.118208066 0.08845438
000010 d5 83 44 18 0e d5 00 80 13 24 8a 97 51 75 ac 3d
       2.5398964e-24 -7.643e-41 -8.927147e-25 0.08420814
000020 55 3d 3e b9 45 ae ab 8f 05 b6 d1 ba 30 6e 38 b9
       -0.0001814266 -1.6929028e-29 -0.0015999681 -0.00017588655
000030 dd a9 88 3b 66 72 a2 ba f5 ee a4 12 7f b0 aa bd
       0.00417064 -0.0012393713 1.0408763e-27 -0.08334445
000040 a0 1d 10 3e c2 1f 0f bb 3a 3a 28 bc 8d b1 ab bb
       0.14073801 -0.0021838997 -0.010267789 -0.0052396716
000050 a5 15 98 39 2a 24 a0 3d 4d 5d 0b bb 01 20 04 bb
       0.00029007826 0.07819398 -0.0021265328 -0.0020160677
000060 ee 7f 18 3e cc 52 26 3e 83 cf 8e 91 ad 5c 06 a6
       0.14892551 0.16242522 -2.2531539e-28 -4.661619e-16
000070 d8 29 10 3e 96 60 a5 3d f4 26 5d a0 dc 07 de 38
       0.14078462 0.08075063 -1.8732317e-19 0.00010587249
000080 be 85 c2 83 7a 14 a4 bc 80 37 2f 1c b9 3a 1a 3d
       -1.1433001e-36 -0.020029295 5.7974375e-22 0.03765366
000090 d5 08 86 3d 28 42 0d 98 30 b7 87 bd 9f e6 91 bd
       0.06544653 -1.8257223e-24 -0.06626737 -0.071240656
0000a0 06 f4 9d 38 67 bd 11 3e 50 25 9f 3d bb a9 b5 3d
       7.531796e-05 0.14232408 0.07770789 0.08870264
0000b0 ed ae 08 3d 92 a9 b4 bd 55 7d 45 bd cf 3c 12 bd
       0.033369947 -0.088214055 -0.04821523 -0.035702523
0000c0 3c 1c 14 3e 19 06 c6 bd 2b 32 0e 3e 5b 84 a0 3d
       0.14463896 -0.09669132 0.13886325 0.07837745
0000d0 0c d4 19 3c e8 fa d7 bb 3b c4 21 1a 8f ba 01 80
       0.009388935 -0.0065911897 3.3452533e-23 -1.5876e-40
0000e0 46 d3 a6 97 d7 45 dd 3d a8 11 58 b9 e7 53 cf 8f
       -1.0780831e-24 0.108043365 -0.00020605943 -2.0444094e-29
0000f0 15 ba d1 ba c8 fa 37 b9 29 a7 76 bd 8a 91 a2 ba
       -0.0016000891 -0.00017545663 -0.06021801 -0.0012402993
000100 11 50 67 15 c0 0e ac 3d 7d 84 f7 3d d1 38 0f bb
       4.671324e-26 0.08401251 0.12085817 -0.0021853934
000110 4c f9 f0 bb a9 ca ab bb eb 20 98 39 63 13 a7 bd
       -0.0073539373 -0.005242665 0.00029016225 -0.081579946
000120 6b 7a 0b bb 6b 32 04 bb fe 23 c1 3c 51 bc 15 3e
       -0.0021282684 -0.0020171653 0.023576733 0.14622618
000130 5a 77 ac 91 b8 18 0f a8 80 87 03 3d 14 8e 43 bd
       -2.7210371e-28 -7.943455e-15 0.032111645 -0.047742918
000140 15 5f 80 a1 62 91 02 39 a8 ec ea 83 80 85 c7 3d
       -8.698785e-19 0.00012451925 -1.38076175e-36 0.0974226
000150 3d f8 53 1c f6 7c 26 3d 00 be d2 3d 4c a8 2a 98
       7.0134884e-22 0.040646516 0.10290146 -2.2056953e-24
000160 42 d6 33 3e be 6d e2 3d f0 bc 6e 3d 7a d0 6f bd
       0.17562202 0.11056088 0.058285654 -0.058548428
000170 b1 0a 53 bc 88 69 95 bc 10 f0 50 bd 40 03 f7 3d
       -0.012880967 -0.018238798 -0.05101019 0.12061167
000180 27 c6 74 3b 4b b9 bd 3d b3 93 84 3d 22 07 9d bd
       0.0037349553 0.092638575 0.06473484 -0.07667376
000190 c2 c3 de 3c 37 99 96 bd 90 33 20 3d c3 fc b7 bb
       0.027192954 -0.07353442 0.039111674 -0.0056148483
0001a0 e1 35 73 0e 5f ef 05 00 27 e7 a0 96 cb f4 fb 3c
       2.9978004e-30 5.45048e-40 -2.5995272e-25 0.030756375
0001b0 f5 ff ef b7 84 db c7 8e 2d a4 d2 ba 01 15 3a b9
       -2.861021e-05 -4.9268673e-30 -0.0016070657 -0.00017746167
0001c0 45 78 4e 3d 3a 19 a6 ba 50 8b 24 00 49 29 71 bd
       0.050407667 -0.0012672313 3.356054e-39 -0.058877263
0001d0 6a 16 b8 3d f3 93 13 bb 3b d8 cf bd 85 14 b0 bb
       0.0898865 -0.0022518605 -0.101486646 -0.00537354
0001e0 9c a2 96 39 f8 99 d3 3d 02 69 0f bb 37 98 08 bb
       0.00028731383 0.103321016 -0.0021882658 -0.002084268
0001f0 6f be b2 bd 07 c3 c3 bd ee 76 a6 90 f1 e2 d5 95
       -0.087277286 -0.09558683 -6.5658695e-29 -8.6388065e-26
000200 9d 99 43 bb 41 94 02 3e f3 70 2a 9b 16 ff 48 37
       -0.00298462 0.12751867 -1.4098566e-22 1.1980321e-05
000210 20 30 e2 82 0e b1 20 3d d7 4c 4b 1b 5a dd a3 bd
       -3.3235338e-37 0.039231353 1.6816595e-22 -0.08001204
000220 c4 1d f1 3d 44 58 24 97 08 d2 15 3e 17 7b a7 3d
       0.117732555 -5.3102665e-25 0.14630902 0.081777744
000230 23 ef 91 bd 02 d1 16 3e 98 7f 02 3c 6a b5 32 38
       -0.0712569 0.14728168 0.007964991 4.2607462e-05
000240 26 6e 96 bd 96 69 0e 3e 08 11 ea bd da b9 97 3d
       -0.07345228 0.13907465 -0.1142903 0.07408495
000250 66 1b 9c bd 60 c2 8f 3c 78 5c 01 87 b1 4d 26 87
       -0.07622413 0.01754874 -9.732055e-35 -1.2511283e-34
000260 78 b2 e2 86 c8 b6 2c 86 bd fe 04 80 40 5d 06 80
       -8.527399e-35 -3.248389e-35 -4.58725e-40 -5.84465e-40
000270 72 bc 04 00 e5 a6 f3 86 b1 71 03 80 98 c5 00 00
       4.34943e-40 -9.165167e-35 -3.16291e-40 7.0883e-41
000280 dc 03 c0 84 b8 28 01 00 ee 73 ec 84 ee 2b 6b 84
       -4.5142527e-36 1.06443e-40 -5.5589798e-36 -2.7644289e-36
000290 34 10 03 80 57 53 2c 87 50 cc 07 87 af 4e 83 84
       -2.81319e-40 -1.2964333e-34 -1.0216313e-34 -3.087021e-36
0002a0 18 78 2b 85 e5 51 b0 84 5b 8d 04 80 cc d8 0d 87
       -8.062439e-36 -4.145261e-36 -4.18051e-40 -1.0671372e-34
0002b0 b2 e4 8c 84 f3 f0 2d 84 81 20 e7 86 da cb ff 86
       -3.3123865e-36 -2.044669e-36 -8.69403e-35 -9.621987e-35
0002c0 a7 de 01 80 38 1a 01 80 c4 88 13 87 a5 97 1b 87
       -1.71708e-40 -1.01241e-40 -1.1099243e-34 -1.1705468e-34
0002d0 86 02 07 80 21 84 00 00 a8 ba 05 80 96 76 fd 86
       -6.43754e-40 4.7399e-41 -5.26137e-40 -9.534227e-35
0002e0 0b 96 06 00 19 63 db 86 4b f7 1d 87 83 39 06 00
       6.04838e-40 -8.2524255e-35 -1.188404e-34 5.71644e-40
0002f0 ee 21 2b 87 55 32 b7 86 20 f2 ea 86 22 4e 1f 87
       -1.2874581e-34 -6.8910905e-35 -8.837679e-35 -1.1984792e-34
000300 66 3c c4 86 02 1b 69 86 56 9a 1b 87 8a 8a 06 87
       -7.3815753e-35 -4.3842272e-35 -1.1706259e-34 -1.0121753e-34
000310 e3 74 1c 87 6e e5 18 87 b3 4a e4 86 e8 aa 13 85
       -1.1770486e-34 -1.1502632e-34 -8.587383e-35 -6.943297e-36
000320 a3 3e 96 3a 2e f2 94 3a 61 af 96 3a 52 09 34 3a
       0.0011462759 0.0011363679 0.0011496359 0.0006867844
000330 79 f7 0c 86 28 e3 05 00 0b 9b 89 14 98 51 89 3a
       -2.6512888e-35 5.40666e-40 1.3894619e-26 0.0010476587
000340 e1 db a3 2b 38 4e ad 0c 1a f2 b5 3a e6 17 3b 39
       1.1642875e-12 2.6701947e-31 0.0013881356 0.00017842613
000350 07 4d 9c 3b 9d 32 93 3a 45 20 02 00 06 c6 9e 3a
       0.0047699246 0.0011230294 1.95247e-40 0.0012113459
000360 67 be 83 3a 55 6a ff 3a b9 93 81 3b 7e aa 7d 3b
       0.0010051251 0.0019486645 0.0039543775 0.0038706358
000370 2c af 6d b9 e2 03 92 3a 52 97 f1 3a e6 fd 16 3b
       -0.00022667338 0.0011140073 0.0018431938 0.002303952
000380 0c 44 8d 3a c7 76 8f 3a aa 65 89 0e 88 e1 00 00
       0.0010777726 0.0010945433 3.3871006e-30 8.0905e-41
000390 aa 3c 8f 3a ec 07 8e 3a 09 23 ce 16 95 26 45 a6
       0.0010928113 0.0010836101 3.3303205e-25 -6.8400393e-16
0003a0 30 28 d6 00 8a 0c 95 3a 2c 49 18 99 cc 81 8f 3a
       1.9667213e-38 0.0011371535 -7.872993e-24 0.0010948717
0003b0 93 12 8b 3a 4d f9 06 15 44 5f 8d 3a 8a 00 7e 3a
       0.0010610394 2.7257748e-26 0.0010785838 0.00096894114
0003c0 e0 1d 82 3a 10 bf 93 3a e0 56 70 3a 7d d8 67 3a
       0.0009927116 0.0011272151 0.0009168219 0.000884421
0003d0 cb 3b 96 3a be 7a 97 3a 2c 37 82 3a 1a 83 80 3a
       0.0011461911 0.0011556966 0.0009934655 0.0009804696
0003e0 48 9b 8b 3a 48 e4 8b 3b 69 79 9b 3d 44 56 a0 bd
       0.0010651136 0.0042691566 0.075915165 -0.07828954
0003f0 e2 dc 51 3c 5a 41 96 3c 3f aa 99 1c de 04 03 80
       0.01280901 0.018341709 1.0168698e-21 -2.77253e-40

layer4.bias f4 [25]
000000 23 ac 22 bd dc a4 6a 3c 49 89 00 3e 87 48 a0 84
       -0.039714944 0.014321532 0.1255237 -3.7682425e-36
000010 68 44 5e ba 68 ad 94 bb d0 1c 85 ba de a9 bd 3d
       -0.0008478821 -0.004537273 -0.0010155682 0.09260915
000020 27 43 33 bb b3 67 60 bd 37 45 25 bd b7 53 e9 90
       -0.0027353258 -0.054786395 -0.04034921 -9.203128e-29
000030 72 51 af bd 8f b5 f4 3d 78 ab c8 8b a8 de 32 3c
       -0.08560456 0.11948692 -7.7295195e-32 0.010917343
000040 b9 c9 86 95 1e 2c 94 3d 5e 0c 2e bb 41 21 e5 3d
       -5.444043e-26 0.07234977 -0.0026557664 0.11187983
000050 98 95 a9 bd 69 27 4b 94 1b 2e 37 bb 0c 14 67 3d
       -0.08280486 -1.0256653e-26 -0.0027951065 0.056415603
000060 aa bb 73 8e
       -3.004242e-30

layer5.weight f4 [10, 25]
000000 b3 82 60 8f ae 8b 44 91 25 b1 4c 82 b0 7e 00 00
       -1.10692244e-29 -1.5504716e-28 -1.5038391e-37 4.5447e-41
000010 80 48 06 80 f7 7e 64 94 3a 1a 00 80 ac 60 ac 8d
       -5.77021e-40 -1.1536098e-26 -9.408e-42 -1.0623591e-30
000020 1e b1 02 80 00 58 5c 96 65 1c 0d 93 34 2e 02 80
       -2.47209e-40 -1.7799226e-25 -1.7810702e-27 -2.00246e-40
000030 ec f2 22 8b 78 f6 ac 90 88 46 03 80 76 f8 8e 93
       -3.138282e-32 -6.8221783e-29 -3.00808e-40 -3.609084e-27
000040 f7 4e 01 00 44 17 67 92 41 28 00 80 65 36 aa 90
       1.20163e-40 -7.2919425e-28 -1.444e-41 -6.7136985e-29
000050 33 0a 6d 8e 51 cb 05 80 9a 5b 03 00 fa 36 e4 95
       -2.9217416e-30 -5.32114e-40 3.08367e-40 -9.2175204e-26
000060 cc e2 06 80 dc e2 e4 b9 74 1f 0c 3e 55 21 48 3d
       -6.32372e-40 -0.00043656572 0.13683873 0.048859913
000070 dd be b3 04 2d 36 93 ba 9b 57 fd 3d e1 66 64 bb
       4.2257978e-36 -0.0011231356 0.12370225 -0.003485136
000080 f6 1a 5e 3e ae 93 a9 ba e8 e4 53 3e b8 6b d4 bc
       0.21689972 -0.0012937689 0.2069279 -0.02593027
000090 3a 9a 2b 9b 75 ee 4b 3e c0 f7 ac 3d 13 8e b8 0d
       -1.4194622e-22 0.19915183 0.08445692 1.1374079e-30
0000a0 87 55 10 3e 79 fe 1f a0 7f c2 26 3e b4 ad 9f b9
       0.14095126 -1.3552022e-19 0.16285132 -0.00030456262
0000b0 18 bf 34 3d c7 1f e5 3a 93 67 95 9b 3d ef 9a 36
       0.044127554 0.0017480784 -2.4716916e-22 4.6174086e-06
0000c0 9c 37 a4 3d 2d b6 3a 8d b6 e1 51 3e 3f 99 34 3e
       0.08018419 -5.753496e-31 0.20496258 0.17636584
0000d0 64 e9 93 3d 0d 94 e4 04 2a 1c 93 ba 57 e7 3f 3e
       0.0722225 5.3738506e-36 -0.0011223604 0.18740593
0000e0 69 b0 dd 3a cf 11 71 3e c7 27 e1 39 76 9c d0 3c
       0.0016913536 0.2354195 0.0004294498 0.025465231
0000f0 34 a4 23 3e 32 38 5a 9b c1 22 e1 3c e1 ad 29 3e
       0.15980607 -1.8050695e-22 0.027482392 0.16570236
000100 fc a4 ea 0d f9 9f 4a 3e c9 88 4b a0 82 06 c2 3d
       1.4461082e-30 0.19787587 -1.7240027e-19 0.094738975
000110 3b a7 9e b9 92 bf 5b 3d 2a 3e 6c 3d 25 fa bd 9b
       -0.00030260705 0.053649493 0.05767647 -3.142908e-22
000120 1e 9a d1 36 86 18 65 3e 48 63 6d 8d 14 53 bc 3c
       6.246627e-06 0.22372636 -7.315077e-31 0.022988833
000130 8c 25 1b be de f7 e6 bd 84 b1 3a 04 4b ad 93 ba
       -0.15151042 -0.11277746 2.1945706e-36 -0.0011266855
000140 85 b1 61 bb 04 08 12 3b 4c 2f 28 3e 41 86 c4 39
       -0.0034438085 0.002228261 0.16424292 0.0003748406
000150 7f 89 a3 bd fd 9c 5f 3e 35 40 b2 9a a0 46 13 be
       -0.0798521 0.2183723 -7.3722807e-23 -0.1438241
000160 2b 66 53 3d d0 c4 3f 0d 69 2e 0e 3e 52 1b a6 9f
       0.051611107 5.9093324e-31 0.13884892 -7.034893e-20
000170 46 e1 13 3e 9b 24 a4 b9 f9 4e 1c 3e 28 f5 0d 3e
       0.14441404 -0.0003130779 0.152645 0.13863051
000180 95 37 1b 9b 69 22 24 b6 98 77 51 3e 8a 01 c2 8c
       -1.2839259e-22 -2.4457934e-06 0.20455778 -2.989136e-31
000190 94 dc 0b a4 16 8a 1f a4 e2 d1 6d a3 73 8a 01 80
       -3.0327657e-17 -3.4594592e-17 -1.289224e-17 -1.41502e-40
0001a0 4d ad 63 a1 73 cf 45 a4 15 a9 00 80 a8 82 f9 a3
       -7.7139953e-19 -4.2893282e-17 -6.0655e-41 -2.7051969e-17
0001b0 73 9d 0e a0 5b 46 63 a4 ab 91 34 a4 8e 6f 04 00
       -1.2079963e-19 -4.9282372e-17 -3.9154664e-17 4.0736e-40
0001c0 65 9b d2 a3 ac b0 18 a4 1a 7d 05 00 44 3b 3a a4
       -2.2834058e-17 -3.3109393e-17 5.04055e-40 -4.038252e-17
0001d0 a8 54 00 00 f9 05 2c a4 bf 7a 99 a0 b4 58 19 a4
       3.0369e-41 -3.7301614e-17 -2.6000435e-19 -3.325172e-17
0001e0 e9 8b 02 a4 75 97 03 80 00 af 06 80 64 c8 5b a4
       -2.8307765e-17 -3.29839e-40 -6.13791e-40 -4.7657793e-17
0001f0 f5 cf 04 00 88 d4 12 be c5 86 9f 3d d6 d2 66 bd
       4.41943e-40 -0.14338887 0.07789377 -0.056353413
000200 71 41 84 03 48 a9 95 ba 05 aa c2 3d 0b fe 9c 3a
       7.773287e-37 -0.0011418248 0.09505085 0.0011977566
000210 3a 65 6c bd b5 3d d3 39 8d 87 30 3e 94 4e d3 3c
       -0.057713725 0.00040291031 0.17239209 0.025794305
000220 3b aa fc 99 20 d4 2a 3e f8 43 58 3e 08 ee 87 0c
       -2.6124945e-23 0.16682482 0.21119678 2.0943303e-31
000230 37 32 ef 3d e9 8c eb 9e 98 dd 3e 3d 0e 58 b5 b9
       0.116794996 -2.4939872e-20 0.046598047 -0.00034588616
000240 bb 78 5d 3e e6 92 22 3e f7 0c 5c 9a 82 ae fa b7
       0.21628086 0.1587635 -4.5505407e-23 -2.9883584e-05
000250 db af 69 bd 92 81 09 8c e4 8d 69 b6 16 a3 fc 36
       -0.057052474 -1.0593087e-31 -3.4802297e-06 7.529171e-06
000260 15 04 8f 38 46 86 05 00 2e 93 2f 3a d6 3a e3 b6
       6.819532e-05 5.07346e-40 0.00066976517 -6.7719766e-06
000270 b7 2a e7 b8 29 91 0f b8 10 11 74 b8 35 23 89 37
       -0.000110228946 -3.4229048e-05 -5.8190024e-05 1.6348067e-05
000280 70 f4 19 38 92 74 01 00 7b 87 06 b8 45 b1 19 b5
       3.6705693e-05 1.33653e-40 -3.2074266e-05 -5.72549e-07
000290 18 30 02 00 3e ac fe b7 d6 64 03 80 ad 7d ca b8
       2.00924e-40 -3.0359366e-05 -3.1168e-40 -9.6555195e-05
0002a0 79 db 5e 39 f2 d8 87 38 52 aa cb b8 31 b6 04 00
       0.0002125333 6.477711e-05 -9.711519e-05 4.327e-40
0002b0 51 c1 b4 38 bf 0e ee 37 33 53 03 80 ef 38 40 b7
       8.619077e-05 2.8378678e-05 -3.05353e-40 -1.1457348e-05
0002c0 b5 05 8d b7 d1 a8 83 b4 a0 35 05 00 bd ce 75 9f
       -1.6811167e-05 -2.4523482e-07 4.78415e-40 -5.2051778e-20
0002d0 07 bc f1 b7 c9 b2 55 8b d8 b5 03 b7 7a 21 21 97
       -2.8816996e-05 -4.115681e-32 -7.850547e-06 -5.206416e-25
0002e0 94 a4 22 b8 69 fe c3 b7 e8 cf 02 80 c1 d2 8e b6
       -3.8777085e-05 -2.336428e-05 -2.58254e-40 -4.2564648e-06
0002f0 89 6e 78 b7 c7 d3 06 00 90 7a d1 b7 38 9a 02 00
       -1.4807688e-05 6.26984e-40 -2.4971814e-05 2.38994e-40
000300 63 82 ac b7 ae b9 38 9a 30 a0 7d b7 31 2a 18 b7
       -2.0564714e-05 -3.82003e-23 -1.5117272e-05 -9.0697295e-06
000310 75 5a 05 00 1a b5 8d 94 a4 54 18 b8 b5 bb 00 00
       4.91627e-40 -1.4308794e-26 -3.631845e-05 6.7337e-41
000320 e8 62 02 b9 7c e9 14 b9 9f fd ff b7 80 ce 01 80
       -0.00012434612 -0.0001420136 -3.051647e-05 -1.65914e-40
000330 4e fb af ae 5d 35 32 b9 51 9b 52 a6 2f 8b e4 b8
       -8.002719e-11 -0.00016995282 -7.306888e-16 -0.00010897812
000340 14 1e fa aa ce de 44 b9 d5 4e 26 b9 1d 38 01 00
       -4.4429792e-13 -0.00018775018 -0.00015860361 1.11965e-40
000350 e2 b0 b8 b8 ff 76 0e b9 23 73 03 00 24 b4 29 b9
       -8.806751e-05 -0.00013586505 3.1681e-40 -0.00016184204
000360 77 59 05 00 67 09 1f b9 bb e3 85 ac 6d 92 0f b9
       4.91271e-40 -0.00015166924 -3.8053705e-12 -0.0001369209
000370 52 85 f0 b8 9f a1 02 00 b5 a4 82 aa 76 9c 40 b9
       -0.00011468925 2.4165e-40 -2.3206927e-13 -0.00018368833
000380 7c 3b 01 80 7c bf 00 b8 09 e7 00 b8 23 b3 fd b7
       -1.13174e-40 -3.0695912e-05 -3.0732746e-05 -3.0243367e-05
000390 11 73 03 00 20 d5 e0 b7 78 d5 00 b8 f5 ef a3 b6
       3.16785e-40 -2.6802125e-05 -3.0716386e-05 -4.885713e-06
0003a0 c9 b6 01 b8 75 d8 bd b7 d9 83 00 b8 ff f2 ff b7
       -3.092623e-05 -2.2631351e-05 -3.064037e-05 -3.0511523e-05
0003b0 e8 01 00 80 9c 77 00 b8 d3 13 02 b8 69 c2 02 80
       -6.84e-43 -3.0628973e-05 -3.1012878e-05 -2.53412e-40
0003c0 1d 59 01 b8 d4 50 05 80 c8 9f 00 b8 99 80 ca b7
       -3.083899e-05 -4.88173e-40 -3.0666386e-05 -2.414016e-05
0003d0 fd db 00 b8 5e e6 01 b8 e0 f6 00 80 7f 27 9d b7
       -3.0722458e-05 -3.0970543e-05 -8.8562e-41 -1.873425e-05
0003e0 40 5b 00 b8 ce 02 03 80
       -3.060256e-05 -2.76513e-40

layer5.bias f4 [10]
000000 4d 85 01 00 78 d0 9c 3d ce 98 f2 3a d4 e5 ce bb
       1.39655e-40 0.0765695 0.0018508674 -0.0063140187
000010 ba 19 f3 a0 e7 87 04 bd 82 8c bb 32 ec f3 94 90
       -4.1182826e-19 -0.03235617 2.183356e-08 -5.875153e-29
000020 b8 78 7c 8f d2 23 68 b7
       -1.2447809e-29 -1.3836618e-05

layer6.weight f4 [1, 10]
000000 bb 02 04 00 70 0b 44 3e 7f 3e 79 3e bb bc cb 3d
       3.68321e-40 0.19144988 0.24340247 0.09948107
000010 02 2e 05 ab 5c 7e 10 3d 5d 20 0b 34 4c 75 42 36
       -4.731494e-13 0.035276756 1.2957157e-07 2.8976528e-06
000020 53 54 78 b9 e1 5f b7 b8
       -0.00023682536 -8.743979e-05
