weights/mape_unorm_btc_lstm.pth (torch_old, 22988 bytes, 11 tensors)

lstm.weight_ih_l0 f4 [92, 23]
000000 80 b5 89 bc 88 ce 97 bb 09 cd 3e bc 51 56 ca bc
       -0.016810179 -0.0046327747 -0.011645564 -0.024699362
000010 ce a5 10 bd 9f 54 9d 3b ae b3 0f 3d f5 f6 c9 3c
       -0.035314374 0.0048013474 0.035083465 0.024653891
000020 4c 38 47 3d ec e1 40 3d 3d 93 7d 3b 30 c7 fe ba
       0.048637673 0.047090456 0.0038692497 -0.0019438025
000030 a1 8b 12 3d ef 0c 6d 3c 1c aa 94 bb fd a3 b4 bc
       0.03577769 0.014468416 -0.00453688 -0.022050852
000040 1f 0c 3a 3d ee b4 57 3b a0 fc 3d 3a c3 33 02 ba
       0.045421716 0.003291424 0.0007247422 -0.00049668195
000050 72 ba 32 ba 23 7b 0e 3d a1 0d d9 3c ce 7f 0f 3d
       -0.00068179436 0.0347854 0.026495757 0.035033993
000060 4d ab 80 ba 49 99 80 3c 21 8b 2b bc 7e d4 5f b9
       -0.0009816677 0.015698092 -0.010470183 -0.00021346097
000070 97 94 43 39 ff bc 44 bb 9f 32 f6 3c 22 00 25 bd
       0.00018652003 -0.0030019877 0.030053435 -0.04028333
000080 78 3e bf bc 60 ec 4d bd 2f fb 22 bb 4a 75 f4 bc
       -0.023345217 -0.050274253 -0.0024868955 -0.029841084
000090 ff bb cb bc 1b e5 0f 3d ea e4 58 3c c9 90 07 bd
       -0.024869917 0.0351306 0.013238171 -0.033097062
0000a0 3a 50 99 bc f7 ff 49 b9 a4 c6 4a ba 2a b7 4d 3c
       -0.018715013 -0.00019264208 -0.0007735288 0.012555877
0000b0 14 13 5b bb 4c c4 67 3c 7b 2b ef bb 47 dd 00 3c
       -0.003342812 0.014145922 -0.0072988844 0.007865257
0000c0 28 be 00 bb a6 48 49 bc 2c 77 c7 bc f8 6c 3c ba
       -0.0019644592 -0.012285387 -0.024348818 -0.00071878685
0000d0 f5 85 75 3d 48 1c ae 3c f4 b9 8e 3c f6 ab 8d 3c
       0.059942205 0.02125372 0.017422654 0.017293911
0000e0 dc 51 6d 3c 82 f5 ef 39 b7 12 1f 3d 09 00 0a 3d
       0.014484849 0.0004576855 0.038836207 0.03369144
0000f0 f0 13 eb 3c 4d fa b7 ba 41 8a db 3a 80 8a 15 3c
       0.02869603 -0.0014036387 0.0016749577 0.009127259
000100 3c f9 f7 3a 47 91 0c 3a 03 4d 71 bb a7 26 e4 3c
       0.0018918882 0.0005362224 -0.0036819584 0.027850462
000110 df 64 11 ba 84 90 9c bc 12 2e 88 bb e3 6f 5e bc
       -0.0005546342 -0.01911188 -0.0041558826 -0.013576481
000120 35 d4 ec bc d2 a2 27 bd 84 cf 9c 3b ab 2a 51 3d
       -0.028909782 -0.040926762 0.00478548 0.051066082
000130 65 be cd 3c c4 96 88 3d df ff 8f 3d 8f a1 f0 3b
       0.025115201 0.06669381 0.070312254 0.007343478
000140 6f a3 81 3a a5 fa 2a 3d 16 9c ba 3c 0e 8c e6 3a
       0.0009890626 0.04174294 0.022779506 0.0017589347
000150 8c 3c c0 bc 3e d2 74 3d ae af ef 3b 28 a0 8a 3b
       -0.023466371 0.059770815 0.007314644 0.004230518
000160 49 4a 30 3b a7 01 16 3b d4 bb 1f 3d 1d 14 0f 3d
       0.0026899746 0.0022889168 0.038997486 0.03493129
000170 ff ff d1 3c 3a ca 2c 3b 73 8c 2e 3c db 68 46 bc
       0.025634764 0.0026365654 0.010653603 -0.01210996
000180 c9 19 3e bc ed 1b 71 ba f0 19 ad 3c 52 a1 05 3d
       -0.011602827 -0.00091975817 0.021130532 0.03262455
000190 b4 53 8f bb 7e 01 07 3c 66 98 16 bd bc 8b f4 ba
       -0.004373992 0.008240102 -0.036766432 -0.0018657367
0001a0 9d b1 3f bc 8a 66 8f bc 18 9c 28 3d 8a 0b 10 3c
       -0.011700061 -0.01750495 0.041164488 0.008791814
0001b0 ab 4e 4a bc 1e 95 1d bc b0 00 a0 37 f3 82 c7 ba
       -0.0123478575 -0.009618072 1.9073806e-05 -0.0015221521
0001c0 68 be c2 3b ae ae a2 3b 70 41 64 3c a0 65 15 3d
       0.0059431084 0.004964671 0.013931617 0.03647387
0001d0 48 8d 2c 3b 25 22 93 3c 1b cc 40 bc 06 42 f1 ba
       0.0026329327 0.017960617 -0.011767413 -0.0018406517
0001e0 00 4e 2b 39 ab 84 73 3b 42 7f 00 3d 69 d8 12 bd
       0.00016336888 0.0037157934 0.031371363 -0.035850916
0001f0 4e 06 8f bc 9c 4c 43 bd 8b 04 dc ba 95 ab de bc
       -0.017459061 -0.047680482 -0.0016786022 -0.027181426
000200 22 76 b0 bc 0e e7 18 3d 6b e9 7a 3c e5 2e d7 bc
       -0.021540705 0.037329726 0.01531444 -0.026267478
000210 e4 46 91 bc 03 13 68 3a bf 39 a7 39 5e 28 62 3c
       -0.017733999 0.00088529306 0.00031895746 0.01380357
000220 7c 0f 0c bb ea 42 69 3c 7e fc d0 bc 88 42 17 bc
       -0.0021371534 0.014237145 -0.025511023 -0.009232171
000230 e0 4a 98 bc fd 14 16 bd 62 65 45 bd 11 1c 9e 3b
       -0.01859039 -0.03664111 -0.04819239 0.004825123
000240 9c d8 48 3d 98 c2 c1 3c 83 42 88 3d 92 23 8d 3d
       0.0490347 0.02365236 0.06653311 0.0689155
000250 74 01 e9 3a a3 75 1f bb 65 50 27 3d 6b 2a aa 3c
       0.0017776922 -0.0024331592 0.040848155 0.02077218
000260 02 89 66 bb 50 e7 e6 bc 8b 1d 6f 3d c5 58 7f 3b
       -0.0035176878 -0.02818647 0.058377784 0.0038962823
000270 3b 22 7c 3a 0f 92 15 ba f3 f4 5c ba f0 4a 17 3d
       0.0009618138 -0.00057056634 -0.0008428834 0.0369367
000280 3d ba 06 3d b3 8c 8a bc 6a c6 a1 bb 93 86 3f bc
       0.032892454 -0.016912794 -0.004936983 -0.0116898
000290 9f 5a cd bc 7f ce 11 bd f3 52 9d 3b 46 4d 0d 3d
       -0.025067626 -0.03559732 0.004801148 0.03449752
0002a0 87 de d2 3c 12 28 48 3d 00 a9 41 3d f6 dc 6a 3b
       0.025740875 0.04886634 0.04728031 0.003583727
0002b0 1d 42 01 bb 88 c6 15 3d 52 c4 6c 3c 9a 9d b1 bb
       -0.0019723244 0.036566287 0.014451103 -0.005420399
0002c0 0f 0a b8 bc 54 59 3a 3d 5b d2 55 3b 14 6f 3e 3a
       -0.022465734 0.045495346 0.0032626602 0.0007264477
0002d0 ea 11 01 ba f9 88 27 ba 74 71 09 3d 00 dc d2 3c
       -0.0004923629 -0.0006390955 0.033555463 0.02573967
0002e0 2f b0 c6 bc 7a 25 13 bc 65 1a 96 bc a4 0d 07 bd
       -0.024253933 -0.008981103 -0.018323133 -0.032971993
0002f0 28 17 37 bd 4a 6c 9d 3b 06 fc 40 3d 29 8b aa 3c
       -0.044699818 0.004804169 0.04711535 0.02081831
000300 a2 f4 87 3d e2 a2 8e 3d 90 e7 47 3b a8 03 af ba
       0.06638457 0.06964661 0.0030503012 -0.001335253
000310 b2 1b 19 3d 2b a8 a4 3c e6 e7 d3 ba fd 7b e4 bc
       0.037379928 0.02009972 -0.0016167134 -0.027891153
000320 d3 a5 69 3d 8d 2b a0 3b e3 d1 fd 3a 3e d8 8b 39
       0.057042908 0.004888004 0.0019364919 0.0002667326
000330 d0 92 09 b7 df e2 14 3d 1f df 09 3d ee d8 9e bc
       -8.200019e-06 0.036349174 0.03366005 -0.01939055
000340 d7 b0 5c bb b5 63 61 bc e8 15 03 bd d3 2b 34 bd
       -0.003367474 -0.013756682 -0.032003313 -0.043987107
000350 3e 43 9d 3b c8 8c 54 3d f5 95 d7 3c 7d e7 66 3d
       0.0047992757 0.051892072 0.026316622 0.05637311
000360 8c 42 5a 3d 7d d1 ec 3b 57 f3 4d 3a 31 17 33 3d
       0.05328612 0.0072271214 0.000785639 0.04372329
000370 1a 0f d0 3c 92 70 9a 3b 0f 13 c1 bc 1c a7 53 3d
       0.025397826 0.0047131265 -0.023568658 0.05167304
000380 ee b5 ef 3b da 6c 8b 3b 6b 2f 28 3b aa 0b 12 3b
       0.007315389 0.0042549195 0.002566303 0.0022284784
000390 43 20 32 3d e8 63 18 3d c1 75 b2 bc d6 b5 c2 bb
       0.0434878 0.037204653 -0.021784665 -0.0059420867
0003a0 45 4c 7b bc 6b d7 07 bd 0a e8 36 bd 76 86 9d 3b
       -0.015338008 -0.033164423 -0.044654883 0.0048072888
0003b0 f8 5b 39 3d 2d f1 d4 3c 7d 94 68 3d e9 db 59 3d
       0.045253724 0.025993908 0.056782234 0.05318824
0003c0 ba 7d 9d 3b ca a1 9f ba 04 2d 2b 3d e2 69 b2 3c
       0.0048062475 -0.0012178954 0.041790977 0.021779004
0003d0 70 72 0e ba 34 75 ce bc 76 5a 53 3d cb 76 a2 3b
       -0.00054339226 -0.025202371 0.051599942 0.004958009
0003e0 9f 2f 04 3b 0a 33 11 3a 72 fe 88 39 2d b1 1a 3d
       0.0020169986 0.00055389164 0.00026129518 0.037766624
0003f0 1d 8b 00 3d 41 c2 8a bc 9b 5d 94 bb b8 84 3c bc
       0.03138267 -0.01693833 -0.00452776 -0.011506252

lstm.weight_hh_l0 f4 [92, 23]
000000 da 7e ee bc 98 4b 81 bb b3 2d db bb 17 e5 f6 bc
       -0.029113222 -0.003945779 -0.0066887974 -0.030138535
000010 83 9d 41 bb 68 e4 1f bb e9 92 e5 bc b9 c9 f0 bc
       -0.0029543347 -0.0024397615 -0.028024154 -0.029393064
000020 1e d1 f6 bc fe 99 f2 bc c5 54 eb bc 2a 38 ec bc
       -0.030129012 -0.029614445 -0.028726945 -0.028835375
000030 40 38 02 bd 64 99 08 bb 9e 27 83 bb 9f 29 e7 bc
       -0.031791925 -0.002084338 -0.0040025255 -0.028218089
000040 05 cb 01 bd d1 5c eb bc f8 5a 49 bb 59 c3 0b bb
       -0.031687755 -0.028730782 -0.0030724388 -0.0021326153
000050 84 74 f4 bc 40 8a c5 bb 95 94 e9 bc fe 47 e2 3c
       -0.029840715 -0.0060284436 -0.028513232 0.02762222
000060 d2 2b a1 bd 30 e8 81 bd 87 57 eb 3c 04 08 8d bd
       -0.07869686 -0.063431144 0.02872826 -0.068862945
000070 5c 64 ab bd e1 09 e5 3c 3f 63 e3 3c 25 76 01 3d
       -0.083687514 0.027958812 0.027757285 0.031606812
000080 ae 02 d9 3c e1 92 e0 3c 48 3c e4 3c 8b 90 d6 3c
       0.026490536 0.027413787 0.027860776 0.02619197
000090 5f e3 7d bd 82 bc 8c bd 84 f2 d4 3c 95 4d 17 3d
       -0.061984416 -0.068718925 0.025994547 0.036939222
0000a0 dd 21 dc 3c 2f 48 4b bd c8 93 7a bd 74 10 eb 3c
       0.026871616 -0.049629387 -0.06117609 0.028694369
0000b0 3a a9 c9 bd e4 e4 e0 3c 16 3a 6e bd f9 49 0d bc
       -0.098467305 0.027452894 -0.058160864 -0.0086235935
0000c0 38 c9 6e ba f3 08 72 bd db 1e cc b9 3b b3 db bb
       -0.00091089634 -0.059090566 -0.000389329 -0.0067047155
0000d0 2d f1 80 bd 0c 45 67 bd 29 ed 71 bd 5f e1 84 bd
       -0.06296001 -0.056462333 -0.059064064 -0.064882986
0000e0 28 01 70 bd 67 ec 70 bd 0a dc 80 bd 22 8a d2 bc
       -0.058594853 -0.0588192 -0.06291969 -0.025700632
0000f0 44 b6 d4 bc 7c dc 80 bd 60 c4 61 bd 06 59 71 bd
       -0.025965817 -0.06292054 -0.05511892 -0.05892279
000100 68 f9 b6 ba e2 c8 43 bd 2a d2 70 bd 22 25 8b bd
       -0.0013959827 -0.047799 -0.058794178 -0.06794192
000110 66 59 6f bd 65 da b8 bc 5d 8a 3e 3c 54 a7 af 3b
       -0.058434866 -0.022565076 0.011629668 0.0053605232
000120 77 e3 cb bc 29 75 70 3b 51 59 cf 3b a5 49 78 bc
       -0.024888737 0.0036690927 0.006327786 -0.015154277
000130 0a e5 bf bc 23 a9 f5 bc 02 d4 f3 bc 90 49 ca bc
       -0.023424644 -0.029987877 -0.02976418 -0.02469328
000140 6e 6e 03 bd 47 b7 e6 bc c4 1d 0b 3c 40 a7 a7 3a
       -0.032087736 -0.028163565 0.008490983 0.0012790933
000150 75 06 aa bc 5a 7a ec bc bf 71 f4 bc 3d 13 8c 3b
       -0.020755032 -0.028866936 -0.029839395 0.0042747543
000160 a7 49 aa ba a1 fb d1 bc 4b e0 14 bb 0a d1 bd bc
       -0.0012991921 -0.025632681 -0.0022716697 -0.023170967
000170 28 f2 a3 bb f9 51 5b bd 58 bb 80 bd 7c 49 27 b8
       -0.0050032325 -0.053544972 -0.06285733 -3.988434e-05
000180 57 f7 64 bd fa 40 80 bd 7e c5 82 bb 0a c3 f1 bb
       -0.055899944 -0.06262393 -0.003990828 -0.007377987
000190 c3 91 e5 bb 1c 41 07 bc 39 e6 81 b9 d3 c4 16 bc
       -0.0070059015 -0.008255269 -0.00024776327 -0.0092022
0001a0 f2 fa 2e bc 1d 3c a5 bd 3b dc 8a bd fd 8c 2d bc
       -0.010679947 -0.08068106 -0.06780287 -0.010592696
0001b0 dc 92 3f 3a d7 be e8 bb bc 19 2b bd 48 8c 88 bd
       0.00073079555 -0.007102828 -0.04177259 -0.066673815
0001c0 52 06 9a ba 0f d9 b1 bd 42 4f 4b bc 33 30 e9 3c
       -0.0011751151 -0.08683979 -0.012409033 0.028465366
0001d0 82 46 95 bd 3b 6a 77 bd 02 a4 f4 3c 2c 52 92 bd
       -0.07288839 -0.060404044 0.029863361 -0.07144579
0001e0 66 49 a6 bd fc 4f f0 3c 42 c6 f8 3c c8 e9 f5 3c
       -0.081194684 0.029335015 0.030367974 0.030018702
0001f0 52 5f ea 3c 89 f8 ed 3c e5 be dd 3c 15 1c c6 3c
       0.028609905 0.029049175 0.027068565 0.024183312
000200 86 ba 6b bd e8 a9 83 bd 6d 7c fb 3c 89 1f ef 3c
       -0.05755093 -0.064288914 0.03069898 0.029189842
000210 67 eb ee 3c 7f 36 5f bd a6 cb 86 bd 1d cf f2 3c
       0.029164983 -0.05449533 -0.065818116 0.029639775
000220 02 57 d9 bd a6 86 f0 3c 5f 70 00 bd 22 07 fb 3a
       -0.106122985 0.02936108 -0.031357165 0.0019151906
000230 af d9 c4 bb 8c 37 10 bd 37 d3 49 bb f8 27 42 3a
       -0.006007395 -0.035209224 -0.003079606 0.00074064685
000240 fd 21 01 bd ac 5e 00 bd de 8c 0e bd f6 57 15 bd
       -0.031526554 -0.031340286 -0.03480231 -0.03646084
000250 97 b6 0a bd 81 4f 10 bd e9 12 13 bd 13 7a 29 b9
       -0.033865537 -0.03523207 -0.035906706 -0.00016162572
000260 e1 17 c7 bb 5b 1f 07 bd 9e 66 0f bd 4b 3c 13 bd
       -0.0060758446 -0.032988887 -0.035009973 -0.03594617
000270 cc 71 00 bc 81 4c 68 bb df f0 0f bd 81 47 b4 bb
       -0.007839631 -0.003544599 -0.035141822 -0.005501688
000280 9c 6a 09 bd 42 1f eb bc d8 d7 7c bb d8 95 d9 bb
       -0.033548936 -0.028701428 -0.0038580801 -0.006640177
000290 ba 22 f3 bc 7e ee 3a bb a5 28 14 bb ec f8 e2 bc
       -0.029679645 -0.00285235 -0.0022607234 -0.027706586
0002a0 df bb ea bc 4a 20 f1 bc c3 4a f3 bc c8 8e e9 bc
       -0.028654037 -0.029434342 -0.029698735 -0.028510466
0002b0 8f ac e8 bc d8 66 fd bc 1d 92 31 bb bc 98 91 bb
       -0.028402595 -0.030932829 -0.0027095147 -0.004443256
0002c0 65 e2 e5 bc 46 12 ff bc 5c 70 e7 bc 23 1d 4d bb
       -0.028062055 -0.031136643 -0.02825182 -0.0031297884
0002d0 15 72 17 bb 07 8d f0 bc 4f 44 d4 bb 20 f7 e7 bc
       -0.002310877 -0.029364122 -0.0064778696 -0.02831608
0002e0 c3 e2 c8 bc d7 d3 35 3a 07 df d1 b9 c3 9f d3 bc
       -0.02452219 0.00069361686 -0.00040029755 -0.025833016
0002f0 dc 70 1a bb 13 66 00 3b 7c 69 a0 bc af ca c1 bc
       -0.0023565805 0.001959209 -0.019581549 -0.023656217
000300 9f f1 d2 bc 44 10 9e bc 61 d9 df bc bd b5 dc bc
       -0.02574998 -0.019294865 -0.027325334 -0.026942128
000310 f0 2f e4 bc a4 f3 17 3b 2d 39 da bb d4 c1 ae bc
       -0.02785489 0.0023185993 -0.006659648 -0.021332659
000320 37 de d4 bc 8a 1a c5 bc a4 d7 11 3b e3 cc a2 bb
       -0.025984867 -0.024060506 0.0022253776 -0.004968272
000330 3b 72 d8 bc f1 37 be bb e1 fc ca bc f4 96 05 bd
       -0.026421657 -0.0058050086 -0.024778785 -0.032614663
000340 74 be 14 bc a3 e3 89 bb e3 a3 d4 bc 4e 38 3e 3b
       -0.009078611 -0.0042080446 -0.025957054 0.002902526
000350 4e ee b6 bb d8 5f ed bc 7e 7f 15 bd 51 48 d3 bc
       -0.0055826074 -0.028976366 -0.03649854 -0.02579132
000360 4a 90 1b bd 1c 03 0e bd 4d f5 ef bc d3 5e 0b bd
       -0.0379794 -0.034670934 -0.029291773 -0.03402598
000370 bf e6 17 3a 30 96 5e bb eb 31 f0 bc ad 5b 15 bd
       0.0005794577 -0.003396403 -0.029320678 -0.036464382
000380 04 69 cd bc e0 e2 70 ba 12 b3 27 b9 68 4a d4 bc
       -0.02507449 -0.00091890804 -0.0001599307 -0.025914386
000390 e7 23 13 bb 9f 53 ef bc d7 ef fb bc e1 7c b0 39
       -0.002245182 -0.029214678 -0.030754013 0.00033662378
0003a0 7f 0a cb bb 49 a5 01 bd d0 23 15 b8 0b 07 52 3b
       -0.0061963196 -0.03165177 -3.555772e-05 0.0032047655
0003b0 6e 5b f1 bc e6 fa f6 bc 40 21 09 bd 18 c1 e0 bc
       -0.029462542 -0.030148935 -0.033478975 -0.027435824
0003c0 90 c4 01 bd 45 dc 06 bd fb e6 d8 bc ee 78 0f bb
       -0.031681597 -0.03292491 -0.026477328 -0.0021892148
0003d0 f3 5d dd ba 37 0d e7 bc 77 ff 03 bd f1 74 03 bd
       -0.0016888961 -0.028204544 -0.032226052 -0.032093946
0003e0 9a 2b 92 bb a6 6d 51 bb 5e 9f 04 bd f6 0c 8c bb
       -0.004460764 -0.0031956225 -0.032378547 -0.004274006
0003f0 57 e9 05 bd 34 a0 e7 bc ad 2d 74 bb 5b 0a ce bb
       -0.032693233 -0.028274633 -0.003725867 -0.0062878556

lstm.bias_ih_l0 f4 [92]
000000 62 4f 89 bb 26 9f 20 bd f0 37 7f 3c 93 60 5c bb
       -0.0041903714 -0.039214276 0.015577301 -0.0033626899
000010 97 45 e7 bc 01 bf 17 bd 49 c1 01 bc 3d f4 91 bb
       -0.028231425 -0.03704739 -0.007919618 -0.0044541643
000020 6b 6f f7 bb af 91 44 bb 14 28 9c bb d4 59 86 bb
       -0.007551124 -0.002999406 -0.00476552 -0.004100064
000030 bf 1f cf bb e0 d6 ff bb 7d 7c 51 3c 8e b5 8c bb
       -0.006320923 -0.0078075975 0.012786028 -0.004294104
000040 33 b7 9b bb c6 91 83 bb 85 ad 29 bd 6c 15 05 3b
       -0.0047520637 -0.0040151803 -0.041425247 0.0020306958
000050 dd 24 64 bb 15 c2 0e 3d 64 39 96 bb e1 65 12 3b
       -0.0034812011 0.03485306 -0.004584478 0.0022338557
000060 a6 a9 76 bd 83 33 09 bc d4 80 1f 3b fc bc 5d bd
       -0.060220383 -0.008374098 0.0024338262 -0.054135308
000070 d9 28 81 bd f9 2a 14 3b 7c 4f 01 3b 10 74 18 3b
       -0.06306619 0.0022608622 0.0019731214 0.0023262538
000080 2a 10 0e 3b 9d 8e 09 3b b6 0c 1a 3b c1 46 12 3b
       0.0021677115 0.0020989545 0.0023506111 0.0022320005
000090 04 bd 8e bc 0b 01 b0 bc 46 c0 0f 3b 6f c9 0d 3b
       -0.017424114 -0.021484872 0.0021934672 0.0021634956
0000a0 dc e9 17 3b 1f 85 41 b6 7a 4e 25 3b a8 11 28 3b
       0.0023180163 -2.8836728e-06 0.0025223778 0.002564529
0000b0 1d 64 38 bd 6c 97 0d 3b 78 d4 95 3b fd ee ff bc
       -0.04501735 0.0021605147 0.0045724474 -0.031241888
0000c0 5f 8a 16 3a 76 d9 ac 3b ba cd c8 bc 2f 12 03 bd
       0.0005742665 0.005274947 -0.02451216 -0.031999763
0000d0 74 76 9f 3b 5a ee ad 3b 52 f2 3c 3b dd 59 c8 3b
       0.0048664156 0.0053079547 0.0028830958 0.006114228
0000e0 fb 69 a3 3b d7 37 8a 3b f0 4f 58 3b 51 14 26 bc
       0.004986999 0.0042180824 0.003300663 -0.01013668
0000f0 27 cc 57 b8 bb 8c 97 3b 4e b4 26 3b 4c d1 a8 3b
       -5.1450126e-05 0.0046249307 0.002543706 0.0051519033
000100 25 36 12 bd ff be ca 3a ec c7 a3 3b 7a fe ca 3b
       -0.035696167 0.0015468298 0.004998198 0.0061948868
000110 95 ec 9d 3b 25 b8 cc 37 b2 0a af bd 7f 84 39 bd
       0.0048194625 2.4404444e-05 -0.08546962 -0.045292374
000120 cb 07 c1 ba 99 65 c1 bd 7c b2 be bd 85 ce 36 38
       -0.0014727054 -0.09443206 -0.09311387 4.3584518e-05
000130 b8 58 14 3b a0 72 da 37 6c 98 be 37 35 f1 dd 3a
       0.0022635888 2.6041002e-05 2.2720742e-05 0.0016932847
000140 c7 24 f5 37 fd 99 2d 38 d7 a7 90 bd 43 73 93 bd
       2.9223402e-05 4.1389827e-05 -0.07063263 -0.07199719
000150 fc 9c 54 38 7b e9 26 38 ee 24 b7 37 9f df 94 bd
       5.0690942e-05 3.979493e-05 2.1832497e-05 -0.07269215
000160 cc 69 22 3b 72 c5 2c 38 c0 19 cd bd 65 23 dd 37
       0.0024782298 4.119188e-05 -0.10014677 2.6361735e-05

lstm.bias_hh_l0 f4 [92]
000000 7f 4f 89 bb 28 9f 20 bd e6 37 7f 3c 75 60 5c bb
       -0.004190385 -0.039214283 0.015577292 -0.0033626829
000010 94 45 e7 bc 01 bf 17 bd 58 c1 01 bc 3e f4 91 bb
       -0.02823142 -0.03704739 -0.007919632 -0.0044541648
000020 65 6f f7 bb a7 91 44 bb 3b 27 9c bb e6 59 86 bb
       -0.007551121 -0.0029994042 -0.004765419 -0.004100072
000030 c8 1f cf bb ec d6 ff bb 7e 7c 51 3c 86 b5 8c bb
       -0.0063209273 -0.007807603 0.012786029 -0.0042941
000040 33 b7 9b bb da 91 83 bb 83 ad 29 bd 6e 15 05 3b
       -0.0047520637 -0.0040151896 -0.04142524 0.0020306963
000050 d5 24 64 bb 14 c2 0e 3d 71 39 96 bb e5 65 12 3b
       -0.0034811993 0.034853056 -0.0045844843 0.0022338566
000060 aa a9 76 bd 82 33 09 bc d1 80 1f 3b 00 bd 5d bd
       -0.060220398 -0.008374097 0.0024338255 -0.054135323
000070 d8 28 81 bd f9 2a 14 3b 85 4f 01 3b 14 74 18 3b
       -0.063066185 0.0022608622 0.0019731235 0.0023262547
000080 30 10 0e 3b 9c 8e 09 3b b4 0c 1a 3b c5 46 12 3b
       0.002167713 0.0020989543 0.0023506107 0.0022320014
000090 08 bd 8e bc 0f 01 b0 bc 40 c0 0f 3b 71 c9 0d 3b
       -0.017424121 -0.02148488 0.0021934658 0.002163496
0000a0 de e9 17 3b 1f 85 41 b6 7a 4e 25 3b a1 11 28 3b
       0.0023180167 -2.8836728e-06 0.0025223778 0.0025645273
0000b0 1e 64 38 bd 6e 97 0d 3b 78 d4 95 3b ff ee ff bc
       -0.045017354 0.0021605152 0.0045724474 -0.031241892
0000c0 5d 8a 16 3a 85 d9 ac 3b bc cd c8 bc 33 12 03 bd
       0.00057426636 0.005274954 -0.024512164 -0.031999778
0000d0 6d 76 9f 3b 55 ee ad 3b 5a f2 3c 3b f3 59 c8 3b
       0.0048664124 0.0053079524 0.0028830976 0.0061142384
0000e0 fc 69 a3 3b d9 37 8a 3b fa 4f 58 3b 52 14 26 bc
       0.0049869996 0.0042180833 0.0033006654 -0.010136681
0000f0 27 cc 57 b8 bd 8c 97 3b 4e b4 26 3b 50 d1 a8 3b
       -5.1450126e-05 0.0046249316 0.002543706 0.005151905
000100 1f 36 12 bd fd be ca 3a f3 c7 a3 3b 79 fe ca 3b
       -0.035696145 0.0015468296 0.004998201 0.0061948863
000110 93 ec 9d 3b 25 b8 cc 37 ac 0a af bd 7b 84 39 bd
       0.0048194616 2.4404444e-05 -0.085469574 -0.04529236
000120 bf 07 c1 ba 9b 65 c1 bd 7c b2 be bd 85 ce 36 38
       -0.001472704 -0.09443208 -0.09311387 4.3584518e-05
000130 b6 58 14 3b a0 72 da 37 6c 98 be 37 35 f1 dd 3a
       0.0022635884 2.6041002e-05 2.2720742e-05 0.0016932847
000140 c7 24 f5 37 fd 99 2d 38 d5 a7 90 bd 43 73 93 bd
       2.9223402e-05 4.1389827e-05 -0.070632614 -0.07199719
000150 fc 9c 54 38 7b e9 26 38 ee 24 b7 37 a1 df 94 bd
       5.0690942e-05 3.979493e-05 2.1832497e-05 -0.07269216
000160 cd 69 22 3b 72 c5 2c 38 b9 19 cd bd 65 23 dd 37
       0.00247823 4.119188e-05 -0.10014672 2.6361735e-05

layer1.weight f4 [20, 23]
000000 88 63 68 08 41 b6 be 3f 74 18 35 3f a0 db b6 06
       6.993196e-34 1.489937 0.7074044 6.87835e-35
000010 9e 65 5a 3f 1f 36 bc 3f 80 64 68 08 70 66 68 08
       0.85311306 1.4704016 6.9933098e-34 6.9935375e-34
000020 30 65 68 08 fe 94 b6 06 dc 5c 68 08 80 64 68 08
       6.9933906e-34 6.8679715e-35 6.9924116e-34 6.9933098e-34
000030 34 60 68 08 dd c7 b0 3f 62 3d ab 3f 9c 63 68 08
       6.9928047e-34 1.3810993 1.3378108 6.993205e-34
000040 a8 67 68 08 60 dc b6 06 de 29 a4 3f 28 75 1f 3e
       6.993681e-34 6.8784603e-35 1.2825277 0.15572035
000050 5c cb b6 06 11 41 d6 3f 90 64 68 08 a0 df b6 06
       6.87596e-35 1.6738607 6.993317e-34 6.878938e-35
000060 ea 76 08 3f 18 d7 3e 3e 9c c8 b6 06 1e 4c 2d 3f
       0.5330645 0.18636739 6.875556e-35 0.6769427
000070 69 eb 37 3f 30 db b6 86 30 e1 b6 06 60 dc b6 06
       0.7184358 -6.878286e-35 6.8791674e-35 6.8784603e-35
000080 20 e3 b6 06 72 a5 b6 06 a0 db b6 06 20 e3 b6 06
       6.879452e-35 6.870389e-35 6.87835e-35 6.879452e-35
000090 fe 4a 62 3e d7 b2 e0 3e fc bf b6 86 5c cb b6 06
       0.2209892 0.43886444 -6.8742887e-35 6.87596e-35
0000a0 5c bb b6 06 b2 03 bd 3e 89 43 21 bc 02 8a b6 06
       6.873609e-35 0.36916882 -0.009842762 6.8663575e-35
0000b0 a6 2a 21 3f 10 c3 b6 86 92 8b b6 06 8e 9c b6 86
       0.629557 -6.874741e-35 6.866587e-35 -6.869083e-35
0000c0 42 ad b6 86 f0 da b6 86 d0 dd b6 86 f0 d9 b6 86
       -6.871537e-35 -6.878249e-35 -6.8786715e-35 -6.878102e-35
0000d0 30 b4 b6 86 f2 8c b6 06 4c b5 b6 86 ce a0 b6 86
       -6.872555e-35 6.866789e-35 -6.872718e-35 -6.869707e-35
0000e0 f0 d5 b6 86 90 bd b6 86 ec c5 b6 06 30 e1 b6 86
       -6.8775144e-35 -6.873933e-35 6.875161e-35 -6.8791674e-35
0000f0 ce 8b b6 86 ce 95 b6 86 92 9b b6 06 f0 df b6 86
       -6.8666216e-35 -6.868091e-35 6.868938e-35 -6.878984e-35
000100 6c ca b6 86 32 aa b6 86 4e a5 b6 86 d0 bc b6 86
       -6.8758223e-35 -6.871087e-35 -6.8703684e-35 -6.8738226e-35
000110 2c ca b6 06 be a0 b6 06 1c e4 2e 3f 85 f7 3e 3e
       6.8757856e-35 6.869698e-35 0.6831682 0.18649109
000120 fc bf b6 06 62 b6 5c 3f f4 9f 5c 3f fc b0 b6 06
       6.8742887e-35 0.86215794 0.8618157 6.8720846e-35
000130 9c c8 b6 06 9c c3 b6 06 fc bf b6 06 3e ab b6 06
       6.875556e-35 6.8748213e-35 6.8742887e-35 6.871241e-35
000140 5c bb b6 06 5c bb b6 06 22 7f e1 3e 30 51 3c 3f
       6.873609e-35 6.873609e-35 0.44042307 0.7356138
000150 a0 db b6 06 02 86 b6 06 00 e0 b6 06 24 f8 27 3f
       6.87835e-35 6.86577e-35 6.878993e-35 0.6561301
000160 f5 b1 2f 3e 5c bb b6 06 81 14 69 3f fe 92 b6 06
       0.17157729 6.873609e-35 0.9104691 6.8676777e-35
000170 1c 64 68 08 d6 cb c3 3f c1 54 28 3f a0 e2 b6 06
       6.993264e-34 1.5296581 0.65754324 6.8793787e-35
000180 14 62 5a 3f 42 85 bb 3f 84 61 68 08 d4 5d 68 08
       0.85305905 1.4650042 6.992959e-34 6.9925255e-34
000190 34 61 68 08 02 8a b6 06 84 61 68 08 34 60 68 08
       6.992922e-34 6.8663575e-35 6.992959e-34 6.9928047e-34
0001a0 84 61 68 08 f7 9c af 3f ab 22 ab 3f 88 63 68 08
       6.992959e-34 1.3719777 1.3369955 6.993196e-34
0001b0 90 65 68 08 5c bb b6 06 b1 c0 a4 3f e0 55 1a 3e
       6.9934347e-34 6.873609e-35 1.2871305 0.15071821
0001c0 5c bb b6 06 49 9f cf 3f 5c 60 68 08 2c cd b6 86
       6.873609e-35 1.6220485 6.992823e-34 -6.8762264e-35
0001d0 cc c2 b6 86 12 9f b6 86 f2 9b b6 86 ec b1 b6 86
       -6.874702e-35 -6.8694524e-35 -6.868993e-35 -6.8722224e-35
0001e0 72 98 b6 86 50 d4 b6 86 32 9b b6 86 8c ba b6 86
       -6.868479e-35 -6.8772756e-35 -6.868883e-35 -6.8734897e-35
0001f0 50 ca b6 86 30 c7 b6 86 f0 dc b6 86 30 d7 b6 86
       -6.875806e-35 -6.875347e-35 -6.878543e-35 -6.877698e-35
000200 30 d7 b6 86 10 c6 b6 86 72 a5 b6 86 cc cf b6 86
       -6.877698e-35 -6.875182e-35 -6.870389e-35 -6.876612e-35
000210 52 8a b6 86 4e a5 b6 06 ec ce b6 86 50 be b6 86
       -6.8664034e-35 6.8703684e-35 -6.8764835e-35 -6.874043e-35
000220 cc c2 b6 86 b2 ab b6 06 a8 67 68 08 b8 23 df 3f
       -6.874702e-35 6.8713075e-35 6.993681e-34 1.7432775
000230 3e c7 36 3f be a0 b6 06 38 5e 5a 3f 0e 09 bc 3f
       0.7139777 6.869698e-35 0.85300016 1.4690263
000240 30 65 68 08 1c 61 68 08 1c 5d 68 08 5c bb b6 06
       6.9933906e-34 6.992911e-34 6.992441e-34 6.873609e-35
000250 88 68 68 08 80 64 68 08 70 68 68 08 e0 4f bc 3f
       6.9937836e-34 6.9933098e-34 6.9937726e-34 1.4711876
000260 fc 12 ab 3f bc 60 68 08 30 65 68 08 a0 db b6 06
       1.3365169 6.992867e-34 6.9933906e-34 6.87835e-35
000270 d1 09 a4 3f e3 78 38 3e 5c cb b6 06 e8 42 cf 3f
       1.2815496 0.18014865 6.87596e-35 1.6192293
000280 88 63 68 08 0e a3 b6 06 58 4e 9a 3d 67 85 ef 3d
       6.993196e-34 6.870038e-35 0.07534474 0.11695366
000290 12 9f b6 86 b1 9f 96 3d 2e 45 f5 3d cc c2 b6 06
       -6.8694524e-35 0.073546775 0.119760856 6.874702e-35
0002a0 ae 94 b6 86 cc c1 b6 86 4c b5 b6 86 8e 9f b6 86
       -6.8679256e-35 -6.874555e-35 -6.872718e-35 -6.8695236e-35
0002b0 12 a4 b6 86 2e 99 b6 86 bf 96 de 3c b6 be 91 3d
       -6.870187e-35 -6.868587e-35 0.02717149 0.07116453
0002c0 50 d4 b6 86 0c b0 b6 86 92 ad b6 06 21 c0 9d 3d
       -6.8772756e-35 -6.871947e-35 6.871583e-35 0.07702661
0002d0 4d b5 1e bc 32 89 b6 06 a4 9a bd 3d d0 cc b6 06
       -0.00968678 6.866238e-35 0.09258011 6.8761736e-35
0002e0 42 89 b6 86 cc c1 b6 06 20 e3 b6 86 fe 98 b6 86
       -6.8662473e-35 6.874555e-35 -6.879452e-35 -6.868559e-35
0002f0 1c c3 b6 86 50 b2 b6 86 4e 92 b6 86 50 c9 b6 86
       -6.874748e-35 -6.87228e-35 -6.8675766e-35 -6.8756593e-35
000300 fe 9b b6 86 a0 e1 b6 86 42 a2 b6 06 9c bb b6 86
       -6.869e-35 -6.879232e-35 6.869921e-35 -6.873646e-35
000310 b2 96 b6 06 2c b7 b6 86 fc bb b6 86 6c ce b6 06
       6.868222e-35 -6.872994e-35 -6.873701e-35 6.87641e-35
000320 be ab b6 86 02 86 b6 86 fc d1 b6 86 a0 df b6 86
       -6.8713143e-35 -6.86577e-35 -6.8769335e-35 -6.878938e-35
000330 7c b2 b6 86 5c c7 b6 86 5c bb b6 86 1c 68 68 08
       -6.872305e-35 -6.8753723e-35 -6.873609e-35 6.993734e-34
000340 6b cd d2 3f 83 74 33 3f 9c c3 b6 06 72 52 5a 3f
       1.6468939 0.7009966 6.8748213e-35 0.8528205
000350 d0 d1 bb 3f 34 60 68 08 8c 60 68 08 84 61 68 08
       1.4673405 6.9928047e-34 6.992845e-34 6.992959e-34
000360 60 dc b6 06 90 63 68 08 88 63 68 08 10 68 68 08
       6.8784603e-35 6.9931996e-34 6.993196e-34 6.9937285e-34
000370 76 c6 98 3f 82 e2 aa 3f a8 67 68 08 88 66 68 08
       1.1935565 1.3350375 6.993681e-34 6.9935485e-34
000380 9c c3 b6 06 05 7f a4 3f 7e 1f 20 3e be a0 b6 06
       6.8748213e-35 1.2851263 0.15637013 6.869698e-35
000390 ce eb ce 3f 28 68 68 08 1c c3 b6 86 6c bc b6 86
       1.6165712 6.9937396e-34 -6.874748e-35 -6.873765e-35
0003a0 00 e0 b6 06 02 86 b6 86 02 86 b6 86 72 88 b6 86
       6.878993e-35 -6.86577e-35 -6.86577e-35 -6.866128e-35
0003b0 10 d9 b6 86 ce 8b b6 06 9c c8 b6 86 92 8b b6 86
       -6.8779736e-35 6.8666216e-35 -6.875556e-35 -6.866587e-35
0003c0 f2 8a b6 06 5c cb b6 86 6c bc b6 86 f2 8c b6 06
       6.866495e-35 -6.87596e-35 -6.873765e-35 6.866789e-35
0003d0 3e ab b6 86 4c b5 b6 86 5c c9 b6 86 7c c9 b6 86
       -6.871241e-35 -6.872718e-35 -6.875666e-35 -6.8756846e-35
0003e0 9c c3 b6 86 a0 e2 b6 86 1c c1 b6 86 fc b0 b6 86
       -6.8748213e-35 -6.8793787e-35 -6.874454e-35 -6.8720846e-35
0003f0 fe 92 b6 86 34 60 68 08 63 c6 e0 3f 3b 5f 33 3f
       -6.8676777e-35 6.9928047e-34 1.7560543 0.70067185

layer1.bias f4 [20]
000000 46 f0 e2 3f ed ac 31 3f 32 8b b6 86 3e 8e 79 3f
       1.7729576 0.6940449 -6.866532e-35 0.9748267
000010 6f 4f f1 3f ec bd b6 86 37 56 01 40 11 d0 e0 3d
       1.8852366 -6.8739856e-35 2.0208871 0.109771855
000020 9c bb b6 86 25 0d 01 40 fc bf b6 86 1d 6d fd 3f
       -6.873646e-35 2.0164273 -6.8742887e-35 1.9798924
000030 52 66 de 3f 50 d7 b6 86 30 e1 b6 86 a0 e1 b6 86
       1.7374976 -6.8777164e-35 -6.8791674e-35 -6.879232e-35
000040 ce 1e f1 3f 59 e4 f4 3f d2 b8 cb 3f 14 2a 59 3f
       1.8837526 1.9132186 1.5915778 0.8482983

layer2.weight f4 [15, 20]
000000 2b e2 d9 3f f9 50 34 3f 50 b2 b6 06 e8 50 7b 3f
       1.7022146 0.70436054 6.87228e-35 0.9817033
000010 f8 bf f2 3f 08 ce b6 86 32 07 02 40 8a 20 ee 3d
       1.8964834 -6.8763527e-35 2.0316892 0.116273
000020 be a0 b6 06 2e 23 f9 3f 3e ab b6 06 e4 bd 02 40
       6.869698e-35 1.9463861 6.871241e-35 2.04284
000030 26 40 ed 3f 8c af b6 06 2c ca b6 06 30 be b6 86
       1.8535202 6.8718734e-35 6.8757856e-35 -6.8740246e-35
000040 24 e1 f4 3f 1b bd f7 3f a3 7b cc 3f 75 e8 5a 3f
       1.9131207 1.9354585 1.5975231 0.8551095
000050 35 08 e3 3f 12 5c 34 3f cc d0 b6 06 45 6a 7b 3f
       1.773688 0.7045299 6.876759e-35 0.9820903
000060 6d 5d e0 3f ac c8 b6 86 eb 98 de 3f c8 21 ee 3d
       1.7528511 -6.875565e-35 1.7390417 0.11627537
000070 9c c8 b6 06 ad 7e e3 3f a0 db b6 06 47 8d e1 3f
       6.875556e-35 1.7773033 6.87835e-35 1.762124
000080 f1 26 da 3f ac c1 b6 06 f0 d5 b6 06 f2 9c b6 86
       1.7043134 6.8745366e-35 6.8775144e-35 -6.86914e-35
000090 84 67 ee 3f d4 1a e2 3f 94 6b cc 3f 6b fa 5a 3f
       1.862534 1.7664437 1.597033 0.8553836
0000a0 30 d7 b6 86 50 d8 b6 06 b2 ab b6 06 72 88 b6 86
       -6.877698e-35 6.8778634e-35 6.8713075e-35 -6.866128e-35
0000b0 6e ae b6 06 10 c6 b6 86 4c b5 b6 86 32 97 b6 06
       6.871709e-35 -6.875182e-35 -6.872718e-35 6.868295e-35
0000c0 30 c0 b6 06 42 ad b6 86 ec bd b6 86 52 a8 b6 86
       6.8743185e-35 -6.871537e-35 -6.8739856e-35 -6.8708115e-35
0000d0 50 bd b6 86 d0 c3 b6 86 ae a9 b6 06 f0 df b6 86
       -6.873896e-35 -6.874851e-35 6.8710113e-35 -6.878984e-35
0000e0 2e a9 b6 86 52 86 b6 06 d0 c9 b6 86 90 ba b6 06
       -6.870938e-35 6.8658157e-35 -6.875733e-35 6.873492e-35
0000f0 32 9b b6 86 32 97 b6 86 42 aa b6 86 4c d2 b6 86
       -6.868883e-35 -6.868295e-35 -6.871096e-35 -6.8769794e-35
000100 12 87 b6 86 2e 9a b6 86 12 ab b6 86 4c bd b6 86
       -6.865926e-35 -6.868734e-35 -6.8712156e-35 -6.873894e-35
000110 f0 b6 b6 06 f0 de b6 86 ae a1 b6 86 ae a7 b6 86
       6.8729593e-35 -6.878837e-35 -6.869836e-35 -6.8707174e-35
000120 ee 9a b6 86 b2 88 b6 06 f0 df b6 86 6c ce b6 06
       -6.868844e-35 6.8661647e-35 -6.878984e-35 6.87641e-35
000130 ae 8d b6 86 40 ca b6 86 88 d5 b6 86 50 c8 b6 86
       -6.866897e-35 -6.875797e-35 -6.8774547e-35 -6.8755124e-35
000140 04 0f e7 3f 3b 56 34 3f 90 c4 b6 06 3c 5b 7b 3f
       1.8051457 0.7044408 6.8749614e-35 0.9818609
000150 1a 0f db 3f f2 89 b6 86 61 ef d2 3f 15 21 ee 3d
       1.7113984 -6.8663483e-35 1.6479303 0.11627404
000160 a0 db b6 06 e0 71 02 40 be a0 b6 06 76 18 02 40
       6.87835e-35 2.0382004 6.869698e-35 2.032743
000170 fb f5 f7 3f 32 89 b6 06 f0 e1 b6 06 70 b5 b6 86
       1.9371942 6.866238e-35 6.8792776e-35 -6.872739e-35
000180 f8 87 d7 3f 28 c2 f8 3f 6a 91 cc 3f 70 f0 5a 3f
       1.6838369 1.9434252 1.5981877 0.8552313
000190 ee a9 b6 86 50 ca b6 06 f2 94 b6 06 4c b5 b6 06
       -6.871048e-35 6.875806e-35 6.8679646e-35 6.872718e-35
0001a0 f0 c1 b6 86 4e a1 b6 86 52 86 b6 86 32 8a b6 86
       -6.8745757e-35 -6.8697807e-35 -6.8658157e-35 -6.866385e-35
0001b0 52 86 b6 06 4e 92 b6 86 30 e3 b6 06 50 d7 b6 86
       6.8658157e-35 -6.8675766e-35 6.8794613e-35 -6.8777164e-35
0001c0 70 b7 b6 86 30 e3 b6 06 12 a4 b6 06 12 86 b6 86
       -6.873033e-35 6.8794613e-35 6.870187e-35 -6.865779e-35
0001d0 70 b7 b6 86 32 89 b6 06 ee a9 b6 06 ae a1 b6 86
       -6.873033e-35 6.866238e-35 6.871048e-35 -6.869836e-35
0001e0 50 d8 b6 06 8c bf b6 86 30 be b6 86 ce 95 b6 06
       6.8778634e-35 -6.8742244e-35 -6.8740246e-35 6.868091e-35
0001f0 8e 8e b6 06 92 ab b6 86 d0 b7 b6 86 50 d4 b6 06
       6.8670256e-35 -6.871289e-35 -6.873088e-35 6.8772756e-35
000200 4c b5 b6 06 ce 95 b6 86 ee a9 b6 86 ae a1 b6 86
       6.872718e-35 -6.868091e-35 -6.871048e-35 -6.869836e-35
000210 72 88 b6 06 30 d6 b6 06 50 d7 b6 86 50 d4 b6 06
       6.866128e-35 6.877551e-35 -6.8777164e-35 6.8772756e-35
000220 30 e3 b6 86 ce 92 b6 06 30 db b6 86 cc b0 b6 06
       -6.8794613e-35 6.86765e-35 -6.878286e-35 6.872057e-35
000230 ac c1 b6 06 50 ca b6 86 12 8b b6 86 0c cf b6 86
       6.8745366e-35 -6.875806e-35 -6.8665136e-35 -6.876502e-35
000240 50 d4 b6 86 32 a5 b6 86 10 bf b6 06 32 9a b6 86
       -6.8772756e-35 -6.8703524e-35 6.874153e-35 -6.868736e-35
000250 f2 9b b6 86 f2 89 b6 86 32 8b b6 06 f0 df b6 06
       -6.868993e-35 -6.8663483e-35 6.866532e-35 6.878984e-35
000260 f0 de b6 86 30 e3 b6 86 d0 cc b6 06 f0 d7 b6 86
       -6.878837e-35 -6.8794613e-35 6.8761736e-35 -6.877808e-35
000270 f2 94 b6 86 b0 ca b6 86 50 d5 b6 06 ee a9 b6 86
       -6.8679646e-35 -6.8758614e-35 6.8774226e-35 -6.871048e-35
000280 88 d1 d1 3f 2c 51 34 3f 8e 9f b6 06 3f 51 7b 3f
       1.6392069 0.7043636 6.8695236e-35 0.98170847
000290 c1 c4 ee 3f f2 88 b6 86 76 5a ef 3f 8d 20 ee 3d
       1.8653795 -6.8662014e-35 1.8699481 0.11627302
0002a0 5c bb b6 06 2a fb f4 3f be a0 b6 06 8f 02 eb 3f
       6.873609e-35 1.9139149 6.869698e-35 1.8360156
0002b0 c8 22 db 3f d2 aa b6 06 ec ca b6 06 50 d5 b6 86
       1.7119989 6.871179e-35 6.875896e-35 -6.8774226e-35
0002c0 0b a7 f9 3f 8e fa 03 40 34 25 cd 3f b8 e8 5a 3f
       1.9504102 2.0621676 1.6026978 0.8551135
0002d0 70 bd b6 06 f0 d9 b6 86 cc b3 b6 86 70 d6 b6 06
       6.8739144e-35 -6.878102e-35 -6.872498e-35 6.877588e-35
0002e0 70 bd b6 86 50 d8 b6 06 f2 94 b6 86 f0 df b6 86
       -6.8739144e-35 6.8778634e-35 -6.8679646e-35 -6.878984e-35
0002f0 2c b5 b6 86 10 bf b6 86 2c bb b6 86 6c ca b6 86
       -6.8727e-35 -6.874153e-35 -6.8735815e-35 -6.8758223e-35
000300 d2 ab b6 86 8c af b6 86 50 b2 b6 86 f2 9c b6 86
       -6.871326e-35 -6.8718734e-35 -6.87228e-35 -6.86914e-35
000310 90 d9 b6 06 32 9c b6 86 70 db b6 06 2c b5 b6 86
       6.878047e-35 -6.86903e-35 6.8783225e-35 -6.8727e-35
000320 cf 0a fa 3f 80 58 34 3f 4e 9f b6 06 6d 61 7b 3f
       1.9534549 0.7044754 6.869487e-35 0.98195535
000330 99 98 e4 3f 32 89 b6 86 07 8b 00 40 58 21 ee 3d
       1.7859069 -6.866238e-35 2.0084856 0.116274536
000340 1e a3 b6 06 5a e3 f4 3f 5c cb b6 06 ad 50 e8 3f
       6.870047e-35 1.9131882 6.87596e-35 1.814962
000350 72 9f 01 40 4c b5 b6 06 f0 b7 b6 06 f2 96 b6 86
       2.0253568 6.872718e-35 6.873106e-35 -6.8682585e-35
000360 b4 b5 f5 3f 5a 43 fe 3f af b1 cc 3f 56 f4 5a 3f
       1.9196076 1.9864304 1.5991725 0.8552908
000370 34 1f f9 3f 62 52 34 3f 50 b2 b6 06 94 53 7b 3f
       1.9462647 0.70438206 6.87228e-35 0.98174405
000380 82 16 f2 3f 92 86 b6 86 4c 5b e1 3f b3 20 ee 3d
       1.8913119 -6.8658524e-35 1.7605987 0.11627331
000390 5c bb b6 06 a2 76 f7 3f a0 db b6 06 e5 fd 01 40
       6.873609e-35 1.9333079 6.87835e-35 2.0311215
0003a0 7b e2 ea 3f 52 aa b6 06 12 a9 b6 06 30 e0 b6 86
       1.8350366 6.8711054e-35 6.870922e-35 -6.8790205e-35
0003b0 d6 96 04 40 70 2c f8 3f da 7c cc 3f a2 ea 5a 3f
       2.0717063 1.9388561 1.5975602 0.8551427
0003c0 2c cd b6 86 10 bf b6 06 d0 cc b6 06 70 b8 b6 86
       -6.8762264e-35 6.874153e-35 6.8761736e-35 -6.87318e-35
0003d0 ac c4 b6 86 50 cc b6 06 6e 9a b6 86 f2 94 b6 06
       -6.8749774e-35 6.8761e-35 -6.8687705e-35 6.8679646e-35
0003e0 f0 d5 b6 06 4e 91 b6 86 92 ab b6 06 8c bf b6 86
       6.8775144e-35 -6.8674297e-35 6.871289e-35 -6.8742244e-35
0003f0 cc c2 b6 86 2c b5 b6 86 10 bf b6 06 ae a1 b6 06
       -6.874702e-35 -6.8727e-35 6.874153e-35 6.869836e-35

layer2.bias f4 [15]
000000 4b 37 f0 3f fd 7e dd 3f f2 97 b6 06 cc c2 b6 86
       1.8766874 1.7304379 6.8684055e-35 -6.874702e-35
000010 56 df de 3f 72 88 b6 86 2e a9 b6 86 f0 b6 b6 06
       1.7411907 -6.866128e-35 -6.870938e-35 6.8729593e-35
000020 76 39 f5 3f ee a4 b6 06 e2 dc f3 3f dc 28 00 40
       1.9158161 6.8703133e-35 1.9051783 2.0024939
000030 50 db b6 86 30 b7 b6 06 92 a5 b6 86
       -6.878304e-35 6.872996e-35 -6.8704075e-35

layer3.weight f4 [7, 15]
000000 f2 89 b6 06 ae 8a b6 86 f0 df b6 06 8c af b6 06
       6.8663483e-35 -6.866456e-35 6.878984e-35 6.8718734e-35
000010 4e a5 b6 86 8e 9f b6 06 2e 9a b6 06 f2 92 b6 06
       -6.8703684e-35 6.8695236e-35 6.868734e-35 6.867671e-35
000020 ae a1 b6 86 30 e1 b6 06 50 bd b6 86 92 98 b6 86
       -6.869836e-35 6.8791674e-35 -6.873896e-35 -6.8684973e-35
000030 ac c1 b6 06 ac c1 b6 86 d0 c9 b6 06 52 a8 b6 86
       6.8745366e-35 -6.8745366e-35 6.875733e-35 -6.8708115e-35
000040 d2 9f b6 86 70 b8 b6 06 cc c2 b6 06 70 bd b6 86
       -6.8695626e-35 6.87318e-35 6.874702e-35 -6.8739144e-35
000050 32 97 b6 86 d0 c3 b6 86 2c cd b6 86 b2 88 b6 86
       -6.868295e-35 -6.874851e-35 -6.8762264e-35 -6.8661647e-35
000060 ce 95 b6 86 2c bb b6 06 32 9a b6 86 f0 da b6 06
       -6.868091e-35 6.8735815e-35 -6.868736e-35 6.878249e-35
000070 f2 9c b6 06 4e 92 b6 06 16 1b 33 3f 72 c8 3c 3f
       6.86914e-35 6.8675766e-35 0.69963205 0.73743355
000080 50 bd b6 06 f0 e2 b6 06 64 13 54 3f d0 c3 b6 06
       6.873896e-35 6.8794246e-35 0.8284209 6.874851e-35
000090 ce a0 b6 06 90 e2 b6 86 35 9e 33 3f 92 98 b6 06
       6.869707e-35 -6.8793695e-35 0.7016328 6.8684973e-35
0000a0 83 93 49 3f ca 88 3d 3f 8e 8e b6 06 8c bf b6 06
       0.7874071 0.7403685 6.8670256e-35 6.8742244e-35
0000b0 ae a1 b6 06 f2 c0 f9 3f ec 9e e7 3f 32 ac b6 06
       6.869836e-35 1.9512007 1.8095374 6.871381e-35
0000c0 ae a9 b6 06 33 55 d7 3f 2e 9a b6 06 72 9a b6 06
       6.8710113e-35 1.6822876 6.868734e-35 6.868773e-35
0000d0 80 b5 b6 06 f2 c2 ec 3f 2c b5 b6 06 61 f4 eb 3f
       6.872748e-35 1.8496993 6.8727e-35 1.8433954
0000e0 76 eb ef 3f 50 ca b6 06 2e a9 b6 06 10 bf b6 06
       1.8743732 6.875806e-35 6.870938e-35 6.874153e-35
0000f0 5c 9d d9 3f bf 1a df 3f 6c ce b6 06 f0 bc b6 06
       1.7001147 1.7430037 6.87641e-35 6.873841e-35
000100 af bb dd 3f 50 d4 b6 86 12 a3 b6 06 70 d4 b6 86
       1.7322901 -6.8772756e-35 6.87004e-35 -6.877294e-35
000110 ea fd d9 3f f2 8c b6 06 3f c6 d9 3f a7 f5 d7 3f
       1.7030613 6.866789e-35 1.7013625 1.6871842
000120 70 dd b6 06 72 a2 b6 86 b2 89 b6 06 e8 4a 03 40
       6.8786164e-35 -6.8699483e-35 6.8663116e-35 2.051447
000130 c0 a8 ed 3f ac c9 b6 06 90 ce b6 06 57 c6 ef 3f
       1.8567123 6.875712e-35 6.876431e-35 1.8732404
000140 ae a9 b6 86 ae 94 b6 86 32 a7 b6 86 9c 19 05 40
       -6.8710113e-35 -6.8679256e-35 -6.870646e-35 2.079688
000150 0c cf b6 86 6a 68 05 40 1d e5 f0 3f ae 95 b6 06
       -6.876502e-35 2.084498 1.881992 6.8680726e-35
000160 32 9a b6 06 08 c6 b6 06 37 38 f2 3f 33 64 e3 3f
       6.868736e-35 6.875177e-35 1.8923405 1.7764953
000170 70 d4 b6 86 e2 87 b6 06 a2 3d 07 40 50 cb b6 86
       -6.877294e-35 6.866045e-35 2.1131368 -6.875953e-35
000180 cc c1 b6 86 d0 d5 b6 86 ff bb f8 3f ee 9c b6 06
       -6.874555e-35 -6.877496e-35 1.9432372 6.869138e-35
000190 a9 73 db 3f 2c 78 04 40 d2 aa b6 06 0c c3 b6 86
       1.7144672 2.0698347 6.871179e-35 -6.8747387e-35
0001a0 d2 95 b6 06
       6.868093e-35

layer3.bias f4 [7]
000000 42 aa b6 06 4e a5 b6 06 1c 6a 36 3f d1 8b e0 3f
       6.871096e-35 6.8703684e-35 0.7125566 1.7542669
000010 f0 34 d0 3f c5 d5 01 40 e3 a2 eb 3f
       1.6266155 2.0286725 1.8409084

layer4.weight f4 [1, 7]
000000 ae 9b b6 86 f2 89 b6 86 df ed 3f 3f f8 c9 00 40
       -6.868954e-35 -6.8663483e-35 0.7497234 2.0123272
000010 83 39 da 3f 22 e2 04 40 ac 9e 0d 40
       1.7048801 2.076302 2.2128096
