weights/mape_norm_btc_lstm.pth (torch_old, 22988 bytes, 11 tensors)

lstm.weight_ih_l0 f4 [92, 23]
0	0x3e62499f	0.22098397
1	0x3dc7f18f	0.097628705
2	0x3d575133	0.052567672
3	0x3e5c6733	0.21523742
4	0x3bb7076e	0.0055856025
5	0x3e6d1fea	0.23156705
6	0x3db1b0ac	0.086762756
7	0x3e851f18	0.26000285
8	0xbddd8500	-0.10816383
9	0x3e52a51b	0.20570795
10	0x3e4e7ab9	0.20164002
11	0xbb9a0b2a	-0.004701038
12	0x3e0a12fa	0.13483801
13	0xbd89e35d	-0.06732819
14	0xbe1609d9	-0.14652194
15	0x3c9b4823	0.018955296
16	0x3e30bfcd	0.17260666
17	0x3dbf2e9e	0.093350634
18	0x3e1d78bb	0.15378086
19	0x3e6bd4ce	0.23030397
20	0x3dfcf771	0.12351883
21	0x3e0379bc	0.12839407
22	0x3d4e7177	0.050401177
23	0x3e3390ef	0.17535757
24	0xbe0a9e32	-0.13536909
25	0x3dff1173	0.124545
26	0xbd6f27ce	-0.05838757
27	0xbdd2820d	-0.102787115
28	0x3e1ec585	0.15505035
29	0x3e1bd3c6	0.15217504
30	0xbd967731	-0.07346953
31	0x3d3f1b79	0.04665706
32	0x3cd336da	0.025782991
33	0x3d64c5bb	0.055852633
34	0x3def3e34	0.11681786
35	0xbe337637	-0.17525564
36	0x3e08add2	0.13347557
37	0x3d8a0e6c	0.06741032
38	0x3c4491bf	0.011997639
39	0xbc94c41e	-0.018159922
40	0x3c463363	0.0120972125
41	0xbdaf7620	-0.085674524
42	0x3e72e468	0.23719943
43	0x3d43f17b	0.047837716
44	0xbd22baeb	-0.03972904
45	0xbe15f2c9	-0.14643396
46	0xbe04ba55	-0.12961705
47	0x3bc42a61	0.0059864973
48	0x39952066	0.00028443633
49	0x3e7e1db4	0.24816018
50	0xbdf01721	-0.117231615
51	0x3c03d8ca	0.008047292
52	0xbe02286b	-0.1271073
53	0x3e5c6395	0.21522363
54	0x3dc647a8	0.09681636
55	0x3e505b55	0.2034734
56	0xbd8382e3	-0.06421449
57	0xbe19a037	-0.15002523
58	0xbe35bfe8	-0.17748988
59	0xbc38d4df	-0.011281221
60	0x3e2d0ef2	0.16900232
61	0x3d279f3c	0.040923342
62	0x3df290db	0.11844035
63	0xbd79e6e9	-0.06101123
64	0xbdaf4410	-0.08557904
65	0x3ded7407	0.11594396
66	0x3d96bb12	0.073598996
67	0xbdcc3d71	-0.099726565
68	0xbe348698	-0.17629468
69	0xbdd39df4	-0.103328615
70	0x3e2609ab	0.16214626
71	0xbdb05cd6	-0.08611457
72	0xbdc59b1e	-0.09648727
73	0x3e29b6a2	0.16573575
74	0x3e332448	0.17494309
75	0x3d364c95	0.044506628
76	0xbe0a6b59	-0.13517512
77	0x3e091de7	0.13390313
78	0x3dc15932	0.09440841
79	0x3e277f64	0.1635719
80	0x3e416748	0.18887055
81	0xbe3d8c45	-0.1851054
82	0x3d964846	0.07338004
83	0xbe1ae283	-0.1512547
84	0x3e44a015	0.19201691
85	0xbd36d8ef	-0.044640478
86	0x3e56dd8c	0.20982951
87	0xbd10185d	-0.035179485
88	0x3e2d0106	0.16894922
89	0x3e116b5f	0.14201115
90	0xbe0e3f0f	-0.13891242
91	0xbdd7451f	-0.10511231
92	0xbe4ade15	-0.1981128
93	0x3e54f34e	0.20795938
94	0x3e3f1b3c	0.18662733
95	0x3e534821	0.20632984
96	0xbb82b99d	-0.003989412
97	0x3e054c8c	0.13017482
98	0xbe2c48ae	-0.168246
99	0x3e3ea4e8	0.18617594
100	0x3e36a75b	0.17837279
101	0x3d260597	0.040532675
102	0xbc551bf3	-0.013007152
103	0x3d3d0c93	0.04615457
104	0xbe336d60	-0.17522192
105	0xbdca9373	-0.09891405
106	0xbe1b279c	-0.15151829
107	0x3e01b4f3	0.12666683
108	0xbe1a5fa2	-0.15075544
109	0xbe025273	-0.12726764
110	0xbdc00226	-0.0937541
111	0x3e58cbc3	0.21171479
112	0xbe3a2374	-0.18177587
113	0xbc8009b7	-0.015629632
114	0xbca2e9b4	-0.019886829
115	0x3d495b8d	0.049159575
116	0x3de0c547	0.10975128
117	0xbd7f972b	-0.062400024
118	0xbe06f996	-0.13181147
119	0xbd025174	-0.03181596
120	0x3c5b7839	0.0133953625
121	0xbe101bcf	-0.14073108
122	0xbd5f1af7	-0.054469075
123	0xbd91e0fe	-0.07122992
124	0x3d56ba8b	0.052423995
125	0xbdcc0e0d	-0.099636175
126	0x3e3c1429	0.18367065
127	0xbe1cc6ae	-0.15310165
128	0x3dd3e30f	0.10346042
129	0xbda2d7bf	-0.079513066
130	0xbc45ea47	-0.012079782
131	0x3e42b6be	0.19015023
132	0x3e2b056d	0.16701289
133	0xbdb52fed	-0.08847032
134	0x3e253efe	0.16137311
135	0xbcac592d	-0.021038616
136	0xbe251881	-0.16122629
137	0xbe1e0d94	-0.15434867
138	0x3e210e69	0.15728153
139	0x3e5bd5db	0.21468298
140	0xbe1bab0e	-0.15201971
141	0x3df356a9	0.118817635
142	0x3de2c488	0.110726416
143	0xbe19eac9	-0.1503097
144	0x3d6bece8	0.05759898
145	0xbde8f425	-0.11374692
146	0x3d864478	0.06556028
147	0x3e2f139e	0.17097327
148	0xbd7fd490	-0.062458575
149	0x3caadb09	0.020856397
150	0x3e4d8ef4	0.20074064
151	0xbd81e7e1	-0.063430555
152	0xbddbb421	-0.10727716
153	0x3dc9f288	0.09860712
154	0x3da7ce87	0.08193689
155	0x3e186721	0.1488309
156	0xbc3ed7f6	-0.011648169
157	0xbe0846e8	-0.13308299
158	0x3e4d25fb	0.2003402
159	0x3e3637ec	0.1779477
160	0xbe3b8b5d	-0.18314882
161	0x3e266152	0.16248062
162	0x3e456976	0.19278511
163	0x3deb7840	0.11497545
164	0x3e66d990	0.22543931
165	0x3e09dc71	0.13462998
166	0x3dea711b	0.114473544
167	0x3dfc0204	0.12305072
168	0xbdcf8990	-0.1013366
169	0xbe02648a	-0.12733665
170	0x3da00840	0.078140736
171	0xbd83e3b6	-0.06439917
172	0x3dd8b890	0.105820775
173	0x3e3dc6ab	0.18532817
174	0x3d8fbebc	0.070188016
175	0xbe057042	-0.13031104
176	0xbd94bd55	-0.07262675
177	0x3c55e33e	0.013054667
178	0xbd21615e	-0.039399497
179	0x3d2003b1	0.03906602
180	0x3e457071	0.19281174
181	0xbd8f7692	-0.07005037
182	0x3e342a4c	0.1759426
183	0x3e6dbfa6	0.2321764
184	0xbddc3f97	-0.10754316
185	0xbccabe84	-0.024749048
186	0x3e832dcf	0.25620887
187	0x3e1a4bc2	0.15067962
188	0xbd7746e9	-0.06037036
189	0xbc9c0e8f	-0.01904991
190	0x3c4f9f8d	0.012672317
191	0xbe30cb18	-0.17264974
192	0x3d6dc1c5	0.05804612
193	0x3e0ea08b	0.1392843
194	0x3e08116a	0.13287893
195	0x3e4b2678	0.19838893
196	0x3cec062c	0.028811537
197	0x3e6b7533	0.22993927
198	0x3d88bf1b	0.066770755
199	0xbdec4a4f	-0.11537611
200	0x3e5f5d6b	0.2181298
201	0x3dd8add2	0.105800286
202	0xbe09cfef	-0.13458227
203	0x3e6b111c	0.22955745
204	0x3b3d97bf	0.002892956
205	0x3d9fc481	0.07801152
206	0xbc1fceb9	-0.009753876
207	0xbddd4fdb	-0.10806247
208	0xbdf19db8	-0.117976606
209	0x3dcdda0d	0.100513555
210	0x3de4b4e8	0.11167318
211	0x3e085a2c	0.13315648
212	0x3d12252a	0.035679974
213	0x3d9f8995	0.077899136
214	0xbd9ac8f2	-0.075578585
215	0x3e28e123	0.16492133
216	0xbe19b9f7	-0.15012346
217	0x3e353254	0.1769498
218	0x3e606f77	0.2191752
219	0xbd053b65	-0.032527346
220	0xbd006b4d	-0.03135233
221	0xbd62a8f1	-0.055336896
222	0xbd1868f2	-0.03720946
223	0x3cd8ca7b	0.026463738
224	0x3dd48990	0.103778005
225	0xbdbf8bf2	-0.09352864
226	0x3e634f28	0.22198164
227	0xbe361c70	-0.17784286
228	0x3d1f4edc	0.038893566
229	0x3d950cd5	0.07277838
230	0x3dcc9d62	0.09990956
231	0x3dbc16aa	0.0918401
232	0xbe04058f	-0.12892745
233	0x3e737add	0.23777337
234	0x3e625376	0.2210215
235	0x3dbfd555	0.09366862
236	0xbdafa474	-0.08576289
237	0x3cacd46f	0.02109739
238	0x3e2cb359	0.1686529
239	0x3e3908f4	0.18069822
240	0xbb229700	-0.0024809241
241	0x3e0a4f2d	0.13506766
242	0xbd8ce05e	-0.06878732
243	0xbd111547	-0.035420682
244	0x3d55a210	0.052156508
245	0x3e41dbc0	0.18931484
246	0xbd97c5a1	-0.074107416
247	0xbc285495	-0.010274072
248	0xbe2aee9d	-0.16692586
249	0xbc7425c1	-0.014901579
250	0xbc3a0f67	-0.011356211
251	0xbd5f8024	-0.054565564
252	0x3d56ccc9	0.052441392
253	0xbe488c62	-0.19584802
254	0x3e24cd46	0.1609393
255	0x3d83a13f	0.064272396

lstm.weight_hh_l0 f4 [92, 23]
0	0x3d0ad656	0.033895813
1	0xbb3a0363	-0.0028383366
2	0x3e1138f3	0.1418188
3	0x3db91e33	0.09038963
4	0xbd1850e6	-0.037186526
5	0x3d884d60	0.06655383
6	0xbc3fa909	-0.011698016
7	0x3e2ec36e	0.17066738
8	0x3e2c979c	0.1685471
9	0x3d82be6f	0.063839786
10	0x3e58e890	0.21182466
11	0x3cbc20ca	0.022964854
12	0x3d85243e	0.06501053
13	0x3e244481	0.16041757
14	0x3b5fe8a0	0.0034165755
15	0xbd832181	-0.06402875
16	0x3e344515	0.17604478
17	0xbe4b2c92	-0.19841221
18	0xbd3f4a26	-0.046701573
19	0xbdf74654	-0.12073961
20	0xbe2dcc8f	-0.16972564
21	0xbe0298f5	-0.12753661
22	0xbe50a5f5	-0.20375808
23	0xbd823e0e	-0.06359492
24	0x3e5d31a8	0.21600974
25	0x3e38373a	0.17989817
26	0x3dbca449	0.092110224
27	0xbd56bb98	-0.052424997
28	0x3c8a70dc	0.016899519
29	0xbe04f9e4	-0.1298595
30	0x3e0bb7f7	0.13644396
31	0xbe0d2458	-0.13783395
32	0xbe3951f2	-0.18097666
33	0x3e57dece	0.21081087
34	0xbe4d27df	-0.20034741
35	0x3bef9093	0.0073109358
36	0x3de5794a	0.11204775
37	0xbba0617b	-0.004894433
38	0x3dc97210	0.09836209
39	0xbdfa288f	-0.12214767
40	0x3dae0d3b	0.08498617
41	0x3e188081	0.1489277
42	0xbdf7a5e8	-0.12092191
43	0x3e409b54	0.18809253
44	0x3b8ce733	0.004300022
45	0x3d2f16ce	0.042746358
46	0x3c5d042f	0.013489767
47	0xbde86c18	-0.11348742
48	0x3da858f2	0.0822009
49	0x3e1e5f71	0.15466096
50	0xbe663b06	-0.22483453
51	0xbcc0ebc9	-0.023549931
52	0x3e015a17	0.12632023
53	0xbc4eb5cc	-0.012616586
54	0x3d00a7a2	0.031409867
55	0x3ca648bd	0.020298356
56	0x3dbca2f5	0.09210769
57	0x3e47fdd5	0.19530423
58	0x3e38a2fc	0.18030924
59	0x3e289fad	0.16467161
60	0xbe09eaf6	-0.13468537
61	0xbe4bb664	-0.19893795
62	0xbc7879aa	-0.015165726
63	0xbdcf7865	-0.10130385
64	0xbe24161c	-0.16024059
65	0xbcf91a7b	-0.030408135
66	0x3cbdbb94	0.023160733
67	0xbda536e6	-0.08067112
68	0xbe3d1e37	-0.18468557
69	0xbe1422c6	-0.1446639
70	0xbe28121d	-0.1641316
71	0x3dbd625c	0.09247276
72	0xbcb16b69	-0.021657662
73	0xbdfdeadb	-0.12398311
74	0x3e0bba28	0.13645232
75	0x3d1eb253	0.038744282
76	0x3d69fac8	0.05712393
77	0x3e6d8860	0.23196554
78	0x3e4c2f18	0.1993984
79	0x3da25609	0.07926566
80	0xbc503642	-0.012708249
81	0x3dfd1b1d	0.12358687
82	0x3ddf4503	0.10901835
83	0x3c7e86f7	0.015535108
84	0x3d0df8a6	0.034660958
85	0xbd97ceaf	-0.07412469
86	0xbe0c0dd1	-0.13677146
87	0x3dd3e177	0.103457384
88	0xbdb45af2	-0.08806409
89	0xbdba672a	-0.09101708
90	0x3d7c9790	0.06166798
91	0x3da79086	0.081818625
92	0x3e1c5f9c	0.15270847
93	0xbe159e6c	-0.14611214
94	0x3e124b4b	0.14286534
95	0x3dea4e65	0.11440734
96	0x3dfbdcca	0.122979715
97	0x3e5a8840	0.21341038
98	0xbb290ff8	-0.0025796872
99	0xbd95c876	-0.073136255
100	0x3e53d352	0.20686081
101	0xbb30e81a	-0.0026993812
102	0xbcc58b6f	-0.024114339
103	0x3e4a7d5b	0.19774382
104	0x3d08c1bd	0.03338789
105	0x3d92061a	0.0713007
106	0xbdd5e690	-0.10444367
107	0x3cc1ac80	0.023641825
108	0xbd75d2dd	-0.060015548
109	0xbdc77703	-0.097394966
110	0x3d02392a	0.031792797
111	0xbe331b66	-0.1749092
112	0x3e36f30d	0.17866154
113	0x3e3d0b4a	0.18461338
114	0xbe7f3e9f	-0.24926232
115	0xbe07cce9	-0.13261761
116	0xbe31690c	-0.17325228
117	0x3cd35ec2	0.02580202
118	0x3e75814e	0.23975107
119	0xbe05adf9	-0.13054647
120	0xbe1b64ad	-0.15175124
121	0xbbd57d15	-0.006515155
122	0xbdcbc7a6	-0.09950189
123	0x3e49424e	0.196542
124	0x3d24e20d	0.04025464
125	0xbd71bb5c	-0.05901657
126	0x3e22f8cf	0.15915225
127	0xbe719af1	-0.23594262
128	0xbda0dc36	-0.07854502
129	0xbdda05d1	-0.10645641
130	0xbde7371f	-0.112898104
131	0xbe170f2a	-0.14751878
132	0xbb6cc286	-0.0036126687
133	0x3e49729b	0.19672625
134	0x3dca26d7	0.09870689
135	0x3e552e10	0.20818353
136	0x3df5c6e7	0.12000828
137	0xbe5cb03b	-0.21551602
138	0xbe6ee3d3	-0.23329096
139	0xbd882199	-0.06647033
140	0x3d53f193	0.051744055
141	0x3d57505c	0.05256687
142	0x3c768e5b	0.015048589
143	0xbc8a3c8a	-0.01687457
144	0x3dc4f4d0	0.09617007
145	0x3df0222f	0.1172527
146	0x3e02c7ed	0.12771578
147	0x3d682523	0.05667604
148	0x3d2872cd	0.041125108
149	0xbde5d180	-0.112215996
150	0x3e02440e	0.12721273
151	0x3dae312f	0.08505475
152	0xbe2cdc58	-0.1688093
153	0x3e1ff67a	0.15621367
154	0xbdedfca3	-0.11620452
155	0xbe21b9db	-0.15793554
156	0x3da36b3f	0.0797944
157	0x3d735834	0.05941029
158	0xbe325859	-0.17416514
159	0xbe090c01	-0.13383485
160	0x3e0f8e73	0.14019184
161	0x3e075ad2	0.13218239
162	0xbdbc0a17	-0.09181612
163	0x3da978be	0.08274983
164	0xbd71cf0c	-0.059035346
165	0x3d826ec0	0.0636878
166	0x3e5d1d0b	0.2159311
167	0xbe2fab8e	-0.17155287
168	0x3db036f0	0.086042285
169	0xbdf6bd85	-0.12047867
170	0xbdb4508e	-0.08804427
171	0x3de912c7	0.113805346
172	0xbdca5e37	-0.09881251
173	0x3e13af72	0.14422396
174	0x3d9375ff	0.0720024
175	0xbe4e4b10	-0.20145822
176	0x3e2db7b3	0.16964607
177	0xbe39333d	-0.18085952
178	0xbe123c8f	-0.14280914
179	0xbdde334c	-0.10849628
180	0xbd2ff2c5	-0.042956132
181	0x3dea3a3d	0.11436889
182	0x3d0c100d	0.034194995
183	0xbb2589c4	-0.0025259117
184	0xbdde987c	-0.10868928
185	0xbd841345	-0.06448988
186	0xbe0b4c18	-0.13603246
187	0x3d4312ea	0.04762546
188	0xbe6a52f4	-0.22883207
189	0xbc333a18	-0.010939144
190	0xbdc2bd39	-0.095087476
191	0xbd1b1925	-0.037865777
192	0x3e15c64b	0.14626424
193	0x3df1ad1e	0.118005976
194	0xbe259f28	-0.16173995
195	0x3d2e8c10	0.042614043
196	0x3c4a9f9e	0.012367157
197	0xbd8a8e5f	-0.067654364
198	0x3da9e913	0.082964085
199	0x3d364b43	0.04450537
200	0x3d9f53e8	0.07779676
201	0xbe4aed3b	-0.19817059
202	0xbd49895d	-0.049203265
203	0x3d905aab	0.070485435
204	0x3e69d4e7	0.22835122
205	0xbdbb7357	-0.09152859
206	0xbe2e8aa4	-0.17045075
207	0x3c682e5e	0.014171211
208	0xbe209aca	-0.15684047
209	0x3d8d9276	0.06912701
210	0xbcb82571	-0.022478791
211	0xbe1863b2	-0.1488178
212	0x3e24ccfd	0.16093822
213	0x3db6cbd3	0.08925595
214	0xbd6bc62e	-0.057562046
215	0x3e32020c	0.17383593
216	0xbdbe4e56	-0.09292285
217	0x3e3a4139	0.18188943
218	0x3e1b4c33	0.15165786
219	0x3e0f361d	0.13985486
220	0x3e234f59	0.15948237
221	0x3e4a1038	0.1973275
222	0xbdfa0a00	-0.122089386
223	0x3e000bb7	0.12504469
224	0xbde99b5f	-0.11406588
225	0x3d146100	0.03622532
226	0x3dd2dfde	0.102966055
227	0xbaa75a29	-0.0012767959
228	0x3e4780b4	0.1948269
229	0xbe19666f	-0.14980482
230	0x3db92df6	0.090419695
231	0xbdbbda23	-0.09172466
232	0xbdf39e8b	-0.11895474
233	0x3e482d14	0.19548446
234	0x3dbd7225	0.09250287
235	0xbe0c9897	-0.13730083
236	0xbddd2f6e	-0.10800062
237	0xbdd7e813	-0.105423115
238	0x3e454bb4	0.1926716
239	0xbdd6e737	-0.104933195
240	0x3d903cfa	0.0704288
241	0xbe689b4b	-0.2271549
242	0x3e2afe51	0.16698577
243	0x3d4840f6	0.048890077
244	0x3deb4e82	0.114895836
245	0x3e0dbc05	0.13841255
246	0xbe12b9cd	-0.1432869
247	0xbe1ba7b4	-0.15200692
248	0xbe381232	-0.17975691
249	0xbe435c5f	-0.19078206
250	0x3d4019d3	0.046899628
251	0xbcc12f68	-0.023582175
252	0x3e06da9b	0.13169329
253	0xbd83bfc2	-0.06433059
254	0x3d9f5f35	0.07781831
255	0x3dd8ae45	0.10580114

lstm.bias_ih_l0 f4 [92]
0	0x3bfe5a42	0.0077622244
1	0x3e36097e	0.17777058
2	0x3e6adbe4	0.22935444
3	0x3d9afa22	0.0756724
4	0xbc91ed1b	-0.017813256
5	0x3bb602d7	0.0055545378
6	0x3e25e6c5	0.16201313
7	0xbd42345c	-0.047413215
8	0x3e482c46	0.19548139
9	0x3e44ad50	0.19206738
10	0x3dc1307e	0.09433077
11	0xbe0e85cc	-0.13918227
12	0x3d954763	0.072890066
13	0xbe24fa27	-0.1611105
14	0xbda7e0a3	-0.08197143
15	0x3c7a5a8d	0.015280378
16	0xbdf45b87	-0.1193152
17	0x3dfb93c5	0.12284044
18	0x3b8a0d58	0.0042130165
19	0x3e03c950	0.12869763
20	0x3d14755e	0.036244743
21	0x3e448b7d	0.19193836
22	0x3dca8d4c	0.098902315
23	0x3ddbfde6	0.10741787
24	0x3dded820	0.10881066
25	0xbe0785e8	-0.13234675
26	0xbd9d8d77	-0.07692998
27	0xbd904ebd	-0.07046268
28	0x3d895799	0.06706161
29	0xbe2e529c	-0.170237
30	0xbd09f29a	-0.03367863
31	0x3e4eff54	0.20214587
32	0x3e3d2b67	0.18473588
33	0xbd36034e	-0.044436745
34	0x3e334362	0.17506173
35	0x3e2d7803	0.16940312
36	0x3e4d5eaa	0.20055643
37	0xbe31aa62	-0.17350152
38	0x3dce5a95	0.10075871
39	0x3ce3aa80	0.027791262
40	0x3e250afd	0.16117473
41	0x3cf7d26b	0.030251702
42	0xbde32bbd	-0.11092327
43	0xbe116e97	-0.14202343
44	0x3e14ea3c	0.14542478
45	0x3e10f65e	0.14156482
46	0xbe3b842e	-0.18312141
47	0x3dada063	0.08477857
48	0xbe2cd6b4	-0.16878778
49	0x3e2576ac	0.16158551
50	0xbdfc5c6a	-0.12322314
51	0x3dea7c6c	0.11449513
52	0xbe2cb71a	-0.16866723
53	0xbe5eb3c1	-0.21748258
54	0x3d8cf24a	0.068821505
55	0xbb15d42f	-0.0022862067
56	0xbe21c4c5	-0.15797718
57	0xbd8603d9	-0.06543703
58	0xbe1eaa57	-0.15494667
59	0xbe5ba4b4	-0.21449548
60	0xbc1edf65	-0.009696816
61	0xbe06ab91	-0.13151385
62	0x3cb71050	0.022346646
63	0x3c1a8318	0.009430669
64	0x3c5c5934	0.013449002
65	0xbd1e642e	-0.038669758
66	0x3c1825b5	0.009286334
67	0x3d62a1f8	0.055330247
68	0x3e00d4a8	0.12581122
69	0x3e08a4e7	0.13344155
70	0x3e2dc895	0.16971047
71	0x3bdf20ff	0.0068093534
72	0x3deb95e2	0.11503197
73	0x3c76340d	0.015027058
74	0xbe0c82c1	-0.13721754
75	0x3cf75cdd	0.030195648
76	0xbdddf454	-0.108376175
77	0x3dfac132	0.1224388
78	0x3ce9822b	0.028504452
79	0x3e800ee7	0.2501137
80	0xbdbeeabe	-0.09322117
81	0x3bde926b	0.0067923567
82	0xbdfbbc0b	-0.12291726
83	0xbe045884	-0.12924391
84	0xbe1890c2	-0.1489897
85	0x3e579c0d	0.21055622
86	0xbd9548b2	-0.07289256
87	0xbca47bc1	-0.020078542
88	0x3d1d3bed	0.038387228
89	0xbc8e1c35	-0.017347435
90	0xbdb1f1de	-0.08688711
91	0x3e65d7f0	0.22445655

lstm.bias_hh_l0 f4 [92]
0	0xbdf22614	-0.11823669
1	0xbe0fa34d	-0.14027138
2	0x3d6794d0	0.056538403
3	0x3e0a6e5b	0.1351866
4	0x3da105a1	0.07862402
5	0xbd016fe0	-0.031600833
6	0xbe249d90	-0.1607573
7	0x3e58fa85	0.21189316
8	0x3e3ad21f	0.18244217
9	0xbe40a0f6	-0.18811402
10	0x3d64ee8f	0.05589157
11	0x3db20f9a	0.08694382
12	0x3e65d6fd	0.22445293
13	0x3d99f4ac	0.075173706
14	0x3c608ba9	0.013705173
15	0xbe0a14b6	-0.13484463
16	0xbd9e1ed5	-0.077207245
17	0x3e3fddbd	0.1873693
18	0x3c0891f5	0.00833558
19	0xbe1f63d9	-0.15565433
20	0x3e8bfe13	0.2734228
21	0x3d73a175	0.05948015
22	0xbd9b5ef2	-0.07586469
23	0x3c714bc2	0.014727535
24	0x3e70bde6	0.2350994
25	0x3e3fa643	0.18715768
26	0xbe357bd0	-0.17723012
27	0x3e24d508	0.1609689
28	0xbdef344f	-0.11679899
29	0x3e6282a6	0.22120151
30	0xbca3b4a2	-0.019983593
31	0x3c9e0aab	0.019292196
32	0x3e21d4eb	0.15803878
33	0xbd21c408	-0.03949359
34	0x3e3c99f9	0.18418111
35	0xbd2c1fa5	-0.042022366
36	0x3db61037	0.088898115
37	0x3d0ea3d2	0.0348242
38	0xbdb9ff2b	-0.090818726
39	0x3c4488b9	0.011995488
40	0xbe199037	-0.1499642
41	0xbde88f94	-0.1135551
42	0xbd40e9c3	-0.047097933
43	0x3c4e5e76	0.012595763
44	0xbd4aa51f	-0.049473878
45	0x3de24548	0.110483706
46	0x3ce024f7	0.027361376
47	0xbd9f2297	-0.07770269
48	0xbde7e828	-0.11323577
49	0x3e223a76	0.15842614
50	0xbda4d644	-0.080486804
51	0xbcc0a423	-0.023515766
52	0x3e182d37	0.14860998
53	0xbd94414d	-0.07239018
54	0xbe289a03	-0.16465001
55	0x3b9b8f13	0.0047472804
56	0xbe0037af	-0.12521242
57	0x3da401b0	0.08008134
58	0xbe1f1c5f	-0.15538166
59	0x3de5c2ab	0.112187706
60	0x3d32b4d1	0.04362947
61	0xbc81768b	-0.015803596
62	0xbcbd2efc	-0.023093693
63	0xbe1a426b	-0.15064399
64	0x3e79392b	0.24338214
65	0xbd15d757	-0.036582317
66	0xbde86903	-0.113481544
67	0xbe417144	-0.18890864
68	0xbdb1b94b	-0.0867792
69	0xbdb17ef1	-0.0866679
70	0xbe19e54c	-0.15028876
71	0x3dee3d7c	0.11632821
72	0x3dfec030	0.124390006
73	0x3adb6e42	0.0016741233
74	0x3cddf8a0	0.027096093
75	0x3bd95b99	0.0066332337
76	0xbd5e0411	-0.054203097
77	0x3d482f31	0.04887313
78	0xbdacfe59	-0.084469505
79	0xbd388b75	-0.04505487
80	0xbdcc139c	-0.09964678
81	0xbd20d085	-0.03926136
82	0x3e5738ad	0.21017714
83	0x3d380469	0.04492608
84	0xbe1de582	-0.15419582
85	0x3e600363	0.21876292
86	0xbd7fd378	-0.06245753
87	0x3e7d05ec	0.2470929
88	0xbe121dcb	-0.14269178
89	0x3d82bb9a	0.063834384
90	0xbd8b03c9	-0.06787831
91	0xbde51099	-0.111848064

layer1.weight f4 [20, 23]
0	0x06b6a1ae	6.869836e-35
1	0x3c2c5a53	0.010519582
2	0xbcc99aa6	-0.024609875
3	0xbd2e267f	-0.04251718
4	0x86b695d2	-6.868093e-35
5	0x3d0e17f1	0.0346908
6	0x06b68a52	6.8664034e-35
7	0xbe04beac	-0.1296336
8	0x3cd46808	0.025928512
9	0xbe0cffa9	-0.13769402
10	0xbe1b73ee	-0.15180942
11	0x87a59dac	-2.4919112e-34
12	0xbd598687	-0.05310681
13	0xbdb4d8d2	-0.08830418
14	0x3ca6ac23	0.020345753
15	0x86b6c318	-6.8747455e-35
16	0xbd863c69	-0.06554491
17	0x86b6924e	-6.8675766e-35
18	0x3d9032b3	0.0704092
19	0x86b69cf2	-6.86914e-35
20	0x86b68f8e	-6.8671726e-35
21	0x86b69cf2	-6.86914e-35
22	0x06b6a30e	6.870038e-35
23	0x3e6dd99f	0.23227547
24	0xbbe0aeb9	-0.006856766
25	0xbbdfff47	-0.0068358514
26	0x3d9771e1	0.073947676
27	0x06b6c1f0	6.8745757e-35
28	0x3e886489	0.26639202
29	0x10b873bb	7.2753514e-29
30	0x3dc5a572	0.09650697
31	0x3ddee28d	0.10883055
32	0x3e904d5d	0.28184023
33	0x3e3c9a71	0.1841829
34	0x3e6c6e8e	0.23089048
35	0xbdf87c74	-0.121331125
36	0xbc8f9b86	-0.017530214
37	0xbdaf69e4	-0.08565119
38	0x86b6dab0	-6.8782123e-35
39	0x3d9376fc	0.07200429
40	0x3bbd5d98	0.0057789795
41	0x3d8f22f8	0.06989092
42	0xbd68119e	-0.056657426
43	0xbccecaf9	-0.02524327
44	0x3cf5f0a3	0.030021971
45	0x3af04503	0.0018331114
46	0x3e0c825c	0.13721603
47	0x3e06c7ca	0.13162151
48	0x3e6cd165	0.23126753
49	0x3e84ed05	0.25962082
50	0x86b6cd2c	-6.8762264e-35
51	0xbd46e8a5	-0.04856171
52	0x07c9c8ba	3.0361095e-34
53	0x3ea98eca	0.33116752
54	0x3e940a72	0.2891422
55	0x3db4bf91	0.08825601
56	0x3ea61493	0.32437572
57	0xbcb7d6b7	-0.022441251
58	0xbdc91608	-0.09818655
59	0x3e4540ce	0.19263002
60	0xbd88d962	-0.066820875
61	0x86b6a242	-6.869921e-35
62	0x3e1dfe58	0.15429056
63	0x3bb87361	0.0056289886
64	0x3e845d32	0.25852352
65	0xbdd8f4eb	-0.105935894
66	0x3eac6b57	0.33675644
67	0xbb39f8eb	-0.0028377126
68	0x3b01a87a	0.0019784258
69	0x3e607b7d	0.21922107
70	0x3e2814ff	0.1641426
71	0x3e36b174	0.1784113
72	0x3e4a73f9	0.19770803
73	0x86b6d110	-6.876798e-35
74	0x3e88d4f5	0.26724973
75	0x86b695d2	-6.868093e-35
76	0x3e98dfc0	0.29858208
77	0xbd9a07bd	-0.07521007
78	0xbd9dd7f2	-0.07707204
79	0x3e7e869e	0.2485604
80	0x3e2c272a	0.16811815
81	0x3deb506a	0.11489947
82	0x3e6baa0b	0.23014085
83	0x3e8f61b8	0.2800424
84	0x86b6daf0	-6.878249e-35
85	0x3def3ee0	0.11681914
86	0x3bb43c57	0.005500357
87	0x3e702773	0.23452549
88	0xbe3d266f	-0.18471693
89	0xbd7860ae	-0.060639076
90	0x3c874460	0.016512096
91	0x3b05198a	0.0020309412
92	0x3d58d8e2	0.05294121
93	0x3d2f99e6	0.04287138
94	0x3d93f96e	0.07225309
95	0x3ea35ba8	0.31905866
96	0x06b6c46c	6.8749407e-35
97	0x3ead092e	0.33796066
98	0x9096e291	-5.951365e-29
99	0x3d6376e9	0.055533323
100	0xbcb0dc02	-0.021589283
101	0x3e79857c	0.24367326
102	0x3e7f4fa0	0.24932718
103	0x3d9f62c0	0.07782507
104	0x3e656b53	0.22404222
105	0x3ea0d8a4	0.31415284
106	0x3e5bd1d9	0.2146677
107	0x86b6d3f0	-6.8772205e-35
108	0x387e450e	6.062263e-05
109	0x3bba54b1	0.0056863655
110	0x3e354ff5	0.17706282
111	0x3d4003fc	0.0468788
112	0x3daf47fd	0.085586525
113	0x3c0f6628	0.008752383
114	0x3afa744d	0.0019108147
115	0x3e4697c5	0.19393833
116	0x3e44990b	0.19199006
117	0x3e8049d2	0.2505632
118	0x3cb41112	0.021980796
119	0x06b68cf2	6.866789e-35
120	0xbcb755ab	-0.022379717
121	0x06b6c9d0	6.875733e-35
122	0x3d3aa560	0.04556787
123	0x3e92844a	0.28616554
124	0x3e0b304e	0.13592646
125	0x3e4836c8	0.19552147
126	0x3de34fb8	0.110991895
127	0x3e2123e1	0.15736343
128	0x3dc5d003	0.09658816
129	0xbdc9f000	-0.098602295
130	0x06b6caac	6.875859e-35
131	0x3db9c6ec	0.090711445
132	0x3bb42587	0.0054976377
133	0x3d0bb819	0.034111116
134	0x3db29adf	0.087209456
135	0x3e2b64ac	0.16737622
136	0x3d815465	0.06314925
137	0x3af3c848	0.0018599117
138	0x3e4551b9	0.19269456
139	0x3e7f2b4b	0.24918859
140	0x3e19646a	0.14979711
141	0xbd275f1b	-0.040862184
142	0x86b6a9ae	-6.8710113e-35
143	0x3dc8ebf5	0.0981063
144	0x06b6d1f0	6.8769266e-35
145	0x3d8e7d1a	0.06957455
146	0x3e819f9a	0.2531708
147	0x3e518ef3	0.20464687
148	0x3dedc233	0.11609306
149	0x3c855b53	0.016278898
150	0xbd16168f	-0.036642607
151	0x3e2222e7	0.15833627
152	0x3de792b9	0.11307282
153	0x06b6bdec	6.8739856e-35
154	0x3d8d7530	0.06907117
155	0x3bb75abe	0.005595534
156	0x3dd5d4d7	0.104409866
157	0xbd1a75ae	-0.037709884
158	0x3dfc561d	0.12321112
159	0x3c8f5112	0.017494712
160	0x3af7e693	0.0018913321
161	0xbd2fe6ce	-0.042944722
162	0xbdb10be9	-0.0864485
163	0x3ca7d1ca	0.020485777
164	0xbd62f47f	-0.05540895
165	0x06b68cf2	6.866789e-35
166	0xbe19cc13	-0.15019254
167	0x86b6aad2	-6.871179e-35
168	0xbd4519b2	-0.048120208
169	0x3d75c9e0	0.060006976
170	0xbc79e2a9	-0.015251794
171	0x3e25f7d9	0.16207828
172	0x3d049071	0.032364313
173	0xbd8eb331	-0.06967772
174	0xbe57842a	-0.2104651
175	0x3d28a0b1	0.041168872
176	0x86b6d370	-6.877147e-35
177	0xbc7ff25b	-0.015621747
178	0x06b6ca2c	6.8757856e-35
179	0xbc064fa6	-0.008197701
180	0xbe1714b1	-0.14753987
181	0xbc6ff93f	-0.014646827
182	0x06b69f8e	6.8695236e-35
183	0xbc9098e8	-0.017651036
184	0x86b6c2d0	-6.874704e-35
185	0x86b6c6ac	-6.8752713e-35
186	0x86b6c290	-6.8746675e-35
187	0x06b69e92	6.869379e-35
188	0x86b6ddd0	-6.8786715e-35
189	0x86b68e72	-6.8670096e-35
190	0x86b6ccd0	-6.8761736e-35
191	0x06b6982e	6.86844e-35
192	0x86b6da50	-6.878157e-35
193	0x86b6d2cc	-6.877053e-35
194	0x86b69c32	-6.86903e-35
195	0x06b6d350	6.8771287e-35
196	0x86b6e3d0	-6.879553e-35
197	0x86b6b6b0	-6.8729226e-35
198	0x06b696f2	6.8682585e-35
199	0x06b6ae2e	6.8716725e-35
200	0x86b6d588	-6.8774547e-35
201	0x86b6b7d0	-6.873088e-35
202	0x86b6bdec	-6.8739856e-35
203	0x06b697f2	6.8684055e-35
204	0x06b6d930	6.877992e-35
205	0x86b6ab92	-6.871289e-35
206	0x86b6b54c	-6.872718e-35
207	0x3db210af	0.086945884
208	0x3e9b0352	0.3027597
209	0x3e25d68b	0.16195123
210	0x3ad27f79	0.0016059718
211	0x06b6b710	6.872978e-35
212	0x3dfe857e	0.12427805
213	0x874a0134	-1.5197145e-34
214	0xbd62e816	-0.055397116
215	0x3e300bab	0.17191951
216	0xbd4e0dd5	-0.05030616
217	0x3e635d62	0.22203591
218	0x3d81095c	0.06300613
219	0x3db950b6	0.090485975
220	0x3db489da	0.088153556
221	0x3e34e2ef	0.17664693
222	0x06b6aa52	6.8711054e-35
223	0x3d620839	0.055183623
224	0x3bc12df0	0.0058953688
225	0x3d82e61c	0.06391546
226	0xbdb7b30b	-0.089696966
227	0x3ea294d1	0.31754163
228	0xbcc12283	-0.023576027
229	0xbb4e89f4	-0.0031515332
230	0xbdab1072	-0.08352746
231	0x3d6d1551	0.057881657
232	0x3e0e3b96	0.13889918
233	0xbd78f8a5	-0.060784
234	0x06b69692	6.8682034e-35
235	0x3e82cd44	0.2554723
236	0x06b69b8e	6.868936e-35
237	0x3e5215c9	0.20516123
238	0xbcdeb426	-0.02718551
239	0x3e036b6c	0.12833947
240	0x3e7a5282	0.24445537
241	0xbd8ade30	-0.0678066
242	0x3dfa79e5	0.12230281
243	0x3e89a47c	0.26883304
244	0x3e207dbe	0.15672967
245	0x86b6d04c	-6.8766856e-35
246	0x3e0334e7	0.1281315
247	0x3bb66e52	0.0055673504
248	0xbd6662a4	-0.056246415
249	0xbe139993	-0.14414053
250	0x3e293e51	0.16527678
251	0x3c8f4cfc	0.017492764
252	0x3b4ec55b	0.0031550738
253	0x3e4eb026	0.20184383
254	0x3e471806	0.19442758
255	0xbbfe60fc	-0.0077630263

layer1.bias f4 [20]
0	0x3da30551	0.079599984
1	0x3e5b6f4e	0.21429178
2	0x3e4ce9e3	0.20011096
3	0x3e25b5f0	0.16182685
4	0x3df1eaca	0.118123606
5	0x3d97c576	0.074107096
6	0xbd71700c	-0.058944747
7	0x3e186bf5	0.14884932
8	0x86b69a72	-6.868773e-35
9	0x3e91f0bf	0.28503987
10	0xbbf6f365	-0.007536339
11	0x3e1ef9ed	0.15525027
12	0x3df1259f	0.11774754
13	0xbdacc0a9	-0.084351845
14	0x86b68a32	-6.866385e-35
15	0x3e5d9e6d	0.21642466
16	0x3ca83b68	0.02053614
17	0x3d58b357	0.052905407
18	0x3e1e4ca3	0.15458922
19	0xbd8ef56b	-0.069804035

layer2.weight f4 [15, 20]
0	0xbcd9dd08	-0.026594654
1	0x3b7b6cab	0.0038364332
2	0x3eaa328f	0.33241698
3	0x3eaa7575	0.33292738
4	0x3eaff63f	0.34367558
5	0xbd9bb4f7	-0.07602876
6	0x3dfc9cd8	0.12334603
7	0x3d875fcf	0.06610071
8	0x06b6a24e	6.8699276e-35
9	0x3e30e2b7	0.17273985
10	0x3e4ba8bc	0.19888586
11	0x3e8b848d	0.27249566
12	0xbe132848	-0.14370835
13	0x3d3fd67c	0.046835408
14	0x06b6b3cc	6.872498e-35
15	0xbc817a30	-0.015805334
16	0x3e6c21e3	0.23059802
17	0x3e59ae26	0.21257839
18	0x3dcfa766	0.101393506
19	0x3eba59c7	0.3639662
20	0x06b6ab12	6.8712156e-35
21	0xbaa40e1a	-0.001251641
22	0xbae2cc2b	-0.0017303278
23	0xbd41de52	-0.04733116
24	0x3a0fcc9e	0.00054855074
25	0x3a98d6c6	0.0011660687
26	0xbb9844d1	-0.0046468754
27	0xbc8b589a	-0.017010022
28	0x86b69b92	-6.868938e-35
29	0x3d3a0950	0.045419037
30	0xbb21bf63	-0.0024680726
31	0x3c8006b8	0.015628204
32	0x3b3b71d8	0.0028601792
33	0xbb2b3f37	-0.0026130208
34	0x86b6ba60	-6.8734644e-35
35	0xbc043bd4	-0.008070905
36	0xbcab8470	-0.020937175
37	0xbb31d27c	-0.0027133515
38	0xbcdca0f8	-0.026932225
39	0x3cfc863c	0.030825727
40	0x3d85bc0a	0.06530006
41	0x3dd296c2	0.10282661
42	0x3e8cbf5f	0.27489755
43	0x3e14f62c	0.14547032
44	0x3e30c657	0.1726316
45	0x3e2974be	0.1654844
46	0x3e865b57	0.26241562
47	0xbcf78aac	-0.030217491
48	0x86b6d588	-6.8774547e-35
49	0x3c9c7154	0.019097008
50	0x3d5cc0d9	0.05389485
51	0xbc803d49	-0.015654223
52	0x3db35621	0.08756662
53	0x3e18edab	0.14934413
54	0x06b6d450	6.8772756e-35
55	0x3e1c6a34	0.15274888
56	0x3e535540	0.20637989
57	0x3e07e9e4	0.13272816
58	0x3de5c409	0.11219031
59	0x3e0e6500	0.13905716
60	0x3e2d9e06	0.16954812
61	0x3d2bef9b	0.041976552
62	0x3d5abdf6	0.053403817
63	0xbbe12fe2	-0.006872163
64	0x3e7ae9cf	0.24503253
65	0x3e21c354	0.15797168
66	0x3e32a34b	0.17445104
67	0x3d3c5478	0.045978993
68	0x06b6ae8e	6.8717276e-35
69	0x3e40e3d7	0.18836914
70	0x3e4aca2e	0.19803688
71	0x3e0d0788	0.13772404
72	0xbe3a7776	-0.18209633
73	0x3e5d819b	0.21631472
74	0x06b6aa32	6.871087e-35
75	0x3e705b3f	0.23472308
76	0x3db5dea8	0.08880359
77	0x3e0e4718	0.13894308
78	0xbde31f59	-0.110899635
79	0x3dc9120c	0.09817895
80	0x06b6aa42	6.871096e-35
81	0x86b6cd2c	-6.8762264e-35
82	0x86b6c6ac	-6.8752713e-35
83	0x06b6be50	6.874043e-35
84	0x884c7221	-6.1523175e-34
85	0x8cd157aa	-3.225431e-31
86	0x06b6994e	6.868605e-35
87	0x8934a9ac	-2.1746491e-33
88	0x06b6aa42	6.871096e-35
89	0x06b6cd90	6.876284e-35
90	0x06b69c42	6.869039e-35
91	0x06b6b6d0	6.872941e-35
92	0x927d1abc	-7.9865676e-28
93	0x8abe25e1	-1.8310583e-32
94	0x86b6ca2c	-6.8757856e-35
95	0x0c13e479	1.1393222e-31
96	0x86b6b2d0	-6.872353e-35
97	0x86b6b570	-6.872739e-35
98	0x09907a70	3.478188e-33
99	0x88d4fecd	-1.2819189e-33
100	0x3c0aed53	0.008479434
101	0x3e9fb26e	0.3119082
102	0xbd2e769f	-0.042593595
103	0x3dea986b	0.11454853
104	0xbd2b4b37	-0.041819777
105	0x3e016534	0.12636262
106	0x3de91fc1	0.1138301
107	0x3e2c98ba	0.16855136
108	0x86b68652	-6.8658157e-35
109	0x3ea5fcde	0.32419485
110	0xbbc9668d	-0.006146258
111	0x3e1fa313	0.15589552
112	0xbe67c2a9	-0.2263285
113	0x3ea26830	0.31720114
114	0x06b68dae	6.866897e-35
115	0x3e190168	0.14941943
116	0x3e0e719b	0.13910525
117	0x3e9c4bda	0.3052662
118	0x3b722ac9	0.0036951771
119	0x3e80a735	0.2512757
120	0x3d877d99	0.06615753
121	0x3e3b94f3	0.18318538
122	0xbc6c2722	-0.014413627
123	0x3d0b40a5	0.033997197
124	0x3e42fd5b	0.1904196
125	0x3e8211ce	0.2540421
126	0xbc74e613	-0.014947432
127	0xbd55ae28	-0.05216804
128	0x86b692ce	-6.86765e-35
129	0x3e8586cd	0.26079407
130	0x3e9899ad	0.29804745
131	0xbdc4b405	-0.096046485
132	0xbe5d13ff	-0.21589659
133	0x3e473940	0.19455433
134	0x06b6a14e	6.8697807e-35
135	0x3e3bd056	0.18341193
136	0xbd801943	-0.06254818
137	0x3e9cdb71	0.3063617
138	0xbe087930	-0.1332748
139	0x3e5da42b	0.21644656
140	0x3e01a5e4	0.12660939
141	0x3e744828	0.2385565
142	0x3e6d8a8d	0.23197384
143	0xbd73f359	-0.059558246
144	0x3e1a3f2b	0.15063159
145	0x3e2606d4	0.16213542
146	0x3deddac4	0.11613992
147	0x3dcd36d4	0.10020223
148	0x86b6b52c	-6.8727e-35
149	0x3cae18e3	0.021252101
150	0x3d821da6	0.06353311
151	0x3e442a34	0.19156724
152	0x3d783e13	0.060606074
153	0xbd876a5d	-0.06612084
154	0x06b6aa42	6.871096e-35
155	0x3e44630e	0.19178411
156	0x3e4864b7	0.1956967
157	0x3e900a41	0.28132823
158	0x3b823b5e	0.0039743623
159	0x3e90d4f7	0.2828748
160	0x86b6d790	-6.877753e-35
161	0x92a83e20	-1.0617606e-27
162	0x0f0e5cfd	7.0190494e-30
163	0x8804ff5b	-4.0022474e-34
164	0x86b6b350	-6.8724267e-35
165	0x86b697f2	-6.8684055e-35
166	0x86b69a32	-6.868736e-35
167	0x86b6c3d0	-6.874851e-35
168	0x06b6d24c	6.8769794e-35
169	0x8ba1f195	-6.2378436e-32
170	0x08705da8	7.2332465e-34
171	0x923324b0	-5.652766e-28
172	0x91c5ffa3	-3.1238668e-28
173	0x06b6b890	6.873198e-35
174	0x86b68e2e	-6.8669705e-35
175	0x0f3f31f1	9.4266454e-30
176	0x0de17333	1.3894429e-30
177	0x06b6aa72	6.871124e-35
178	0x88016865	-3.894224e-34
179	0x8b25d782	-3.1939974e-32
180	0x3db841d3	0.0899693
181	0x3e8882cd	0.26662293
182	0x3e8907b2	0.26763684
183	0x3e81e6f5	0.2537152
184	0x3e45b88b	0.19308679
185	0x3e1b397a	0.15158644
186	0x3de69abe	0.112599835
187	0xbddc40b3	-0.10754528
188	0x06b6a24e	6.8699276e-35
189	0x3ea1e92d	0.31623212
190	0x3e4cb500	0.19990921
191	0x3d115801	0.035484318
192	0xbe581200	-0.21100616
193	0x3de74a37	0.11293452
194	0x86b6c310	-6.874741e-35
195	0x3e861864	0.26190484
196	0x3da87516	0.08225457
197	0x3da1ab7f	0.078940384
198	0x3ddae2ce	0.10687791
199	0x3e4a3a78	0.19748867
200	0x06b696f2	6.8682585e-35
201	0x8db96b78	-1.1427377e-30
202	0x960f8f76	-1.1596716e-25
203	0x0fb6299d	1.7962614e-29
204	0x1119f6a7	1.2145577e-28
205	0x916881b8	-1.8341546e-28
206	0x13f51cc1	6.187505e-27
207	0x06b69ef2	6.869434e-35
208	0x06b6c26c	6.874647e-35
209	0x95097677	-2.7760382e-26
210	0x118faa5f	2.266642e-28
211	0x922f482f	-5.5309237e-28
212	0x0f5b9b63	1.082746e-29
213	0x13c3046f	4.9229292e-27
214	0x06b6db70	6.8783225e-35
215	0x8fd88e85	-2.1354141e-29
216	0x14845e13	1.33657e-26
217	0x13923a72	3.6913213e-27
218	0x0e4d19ee	2.5280686e-30
219	0x92bb5277	-1.1821688e-27
220	0x86b68a72	-6.866422e-35
221	0x3dd05224	0.10171917
222	0xbe0255ce	-0.12728044
223	0x3e08b889	0.13351645
224	0xbd56ceb4	-0.05244322
225	0x3d9b0df5	0.075710215
226	0xbc9d258d	-0.019182945
227	0x86b6db30	-6.878286e-35
228	0x86b6926e	-6.867595e-35
229	0xbdc0fc41	-0.094231136
230	0xbab5d2a1	-0.0013871976
231	0x3cda6da4	0.026663609
232	0xb7bea663	-2.2727245e-05
233	0xbd32c2c4	-0.043642774
234	0x86b68dae	-6.866897e-35
235	0xbd6d9d72	-0.05801148
236	0x3b8f9876	0.0043821884
237	0x3e0193b0	0.12653995
238	0xbd57860f	-0.052618083
239	0xbcf4b1ed	-0.029869998
240	0x3d164474	0.036686376
241	0x3d8a32df	0.06747984
242	0xb83a9084	-4.4480446e-05
243	0xbd078e7d	-0.03309487
244	0xbd437572	-0.047719426
245	0x3db5c545	0.08875517
246	0x3da7b9cf	0.08189737
247	0x3c252761	0.010080189
248	0x06b6d5d0	6.877496e-35
249	0x3e45b9af	0.19309114
250	0x3de13798	0.10996932
251	0x3da6c5b1	0.081431754
252	0x3ce65eab	0.028121313
253	0x3e4784c4	0.1948424
254	0x06b6cdec	6.8763366e-35
255	0x3e4a9df4	0.19786817

layer2.bias f4 [15]
0	0x3dd82d0a	0.105554655
1	0x3b701669	0.0036634451
2	0x3dda784c	0.10667476
3	0x3e706291	0.234751
4	0x06b6d930	6.877992e-35
5	0x3e9085dc	0.28227127
6	0x3e44e903	0.19229512
7	0xbda8d451	-0.08243621
8	0x075e7ff8	1.673903e-34
9	0x3e8abed6	0.2709872
10	0x0e8972dd	3.3883717e-30
11	0xbcadd414	-0.02121929
12	0x3c1c3419	0.009533905
13	0x3e566a41	0.2093897
14	0x3e7fc1f1	0.24976327

layer3.weight f4 [7, 15]
0	0x8a7015e2	-1.1559695e-32
1	0x06b697f2	6.8684055e-35
2	0x0843668a	5.880121e-34
3	0x93b7cd5c	-4.6398195e-27
4	0x06b69a4e	6.868752e-35
5	0x06f582a0	9.2350693e-35
6	0x0e96fb01	3.7219563e-30
7	0x0d0e0154	4.3758727e-31
8	0x0c75c932	1.8934658e-31
9	0x8a325962	-8.587199e-33
10	0x86b68d6e	-6.8668603e-35
11	0x06ce30b2	7.756014e-35
12	0x86b6df50	-6.878892e-35
13	0x89745937	-2.941238e-33
14	0x86b6de50	-6.878745e-35
15	0x3e0ff8f0	0.14059806
16	0xbcae2acc	-0.021260642
17	0x3e15c154	0.1462453
18	0xbd639034	-0.055557445
19	0x8787e82a	-2.0448996e-34
20	0x3ec503b4	0.38479388
21	0xbd97baee	-0.07408701
22	0x3ebbc8ce	0.3667664
23	0x86b6a9ee	-6.871048e-35
24	0x3ec4e54a	0.38456184
25	0x8f4bc586	-1.0046714e-29
26	0x3b069aa7	0.0020538957
27	0x3df5610d	0.119814016
28	0xbde7076e	-0.11280714
29	0x3e9681a4	0.29395783
30	0x06b69572	6.868038e-35
31	0x86b6c350	-6.8747777e-35
32	0x86b6da30	-6.878139e-35
33	0x12816c17	8.167691e-28
34	0x86b6a6ae	-6.8705705e-35
35	0x88262e17	-5.0007986e-34
36	0x09f937a9	5.9996912e-33
37	0x06b6d1f0	6.8769266e-35
38	0x098bef61	3.3688144e-33
39	0x93af2ba1	-4.4219232e-27
40	0x06b6cb2c	6.8759325e-35
41	0x8bacc1a7	-6.6543366e-32
42	0x06b6a5ce	6.870442e-35
43	0x894f7bd4	-2.4974942e-33
44	0x91c976ed	-3.1785502e-28
45	0xa3d36bd5	-2.2922334e-17
46	0x86b6c890	-6.875549e-35
47	0xa225a5d0	-2.244945e-18
48	0x221d9ffd	2.1362165e-18
49	0x86b6aa42	-6.871096e-35
50	0x2100b9d7	4.3614044e-19
51	0xa360e17d	-1.2190813e-17
52	0xa17832c7	-8.409287e-19
53	0x0c82b5e6	2.0139148e-31
54	0xa3787a21	-1.3469969e-17
55	0x06b6d2cc	6.877053e-35
56	0x86b6da68	-6.878171e-35
57	0xa0b5c5a4	-3.079338e-19
58	0x9ede6e33	-2.3550742e-20
59	0x219a0db1	1.043907e-18
60	0x3e95220d	0.2912754
61	0xbcabb3e0	-0.020959795
62	0x3ebcac2b	0.36850104
63	0x3ecb2240	0.39674568
64	0x8a51db7d	-1.0104265e-32
65	0x3e875fff	0.26440427
66	0x3ec89939	0.391794
67	0x3d91fafb	0.07127949
68	0x89266f02	-2.0033719e-33
69	0x3e40ba9f	0.1882119
70	0x8f485f59	-9.8791246e-30
71	0xbb23beb6	-0.0024985499
72	0x3e5bffa3	0.21484236
73	0xbe592802	-0.21206668
74	0xbd9be7be	-0.07612561
75	0x86b6b62c	-6.872847e-35
76	0x06b6cd2c	6.8762264e-35
77	0x86b6d04c	-6.8766856e-35
78	0x86b6b52c	-6.8727e-35
79	0x86b68bae	-6.866603e-35
80	0x86b6def0	-6.878837e-35
81	0x86b6bdd0	-6.8739695e-35
82	0x86b6a14e	-6.8697807e-35
83	0x86b6aff0	-6.871931e-35
84	0x06b6e1a0	6.879232e-35
85	0x06b6ddd0	6.8786715e-35
86	0x86b692ce	-6.86765e-35
87	0x86b692ce	-6.86765e-35
88	0x86b6a3ae	-6.8701297e-35
89	0x86b689f2	-6.8663483e-35
90	0x89aac3ff	-4.1110325e-33
91	0x86b68a72	-6.866422e-35
92	0x87dba892	-3.3050534e-34
93	0x87cc253e	-3.0716397e-34
94	0x86b699ee	-6.868697e-35
95	0x880a5b7d	-4.163541e-34
96	0x87b5a947	-2.7333345e-34
97	0x88f0f01c	-1.4500924e-33
98	0x86b6b5ec	-6.87281e-35
99	0x08034150	3.9498153e-34
100	0x86b68692	-6.8658524e-35
101	0x06b699ee	6.868697e-35
102	0x08fde471	1.528059e-33
103	0x06b68e8e	6.8670256e-35
104	0x86b6c310	-6.874741e-35

layer3.bias f4 [7]
0	0x0cd06b49	3.2112044e-31
1	0x3e1628ce	0.14664003
2	0x0c2079a8	1.2362561e-31
3	0x244131bf	4.189234e-17
4	0x3e1858ce	0.14877626
5	0x86b6b430	-6.872555e-35
6	0x86b6ba90	-6.873492e-35

layer4.weight f4 [1, 7]
0	0x8b2270a1	-3.1284798e-32
1	0x3e1833e0	0.14863539
2	0x9698012f	-2.4557671e-25
3	0x21bdc513	1.2859303e-18
4	0x3e1e4057	0.15454231
5	0x86b6b5ec	-6.87281e-35
6	0x06b69dd2	6.8692687e-35
