weights/mape_unorm_ltc_lstm.pth (torch_old, 22988 bytes, 11 tensors)

lstm.weight_ih_l0 f4 [92, 23]
00000000: d883 bc3d 6b41 afbd 82d9 9ebd a360 533e
00000010: 7aaf a9bc e958 633c 4b5a efbc 4066 8ebd
00000020: 80ae 09be 0202 833e 15b5 0e3e be83 833e
00000030: b0d0 973d 5a70 5c3d e675 9aba 3fe5 1cbe
00000040: d32b d1bd 530c 9a3d d484 373e 9d42 36bb
00000050: d391 96bc 7920 0f3d 3f54 753e 86d3 08bd
00000060: e020 41be f16d 36be 193c 13be bcc3 b0bd
00000070: 02e5 913c 03c5 fabd e354 8fbd fca4 f03d
00000080: 992f cbbd 2247 813d caef 8cbc f92d 333d
00000090: f970 203d c62c 543d d862 dd3c 9ac6 223e
000000a0: 2a1b 8a3d 10ca 3a3d 1fb1 7b3d e84c 8a3d
000000b0: 0454 803c 5a3f 183e 4173 adbd 5e1a 65bc
000000c0: 2eab 063e 5960 d93d b32e d3bd 2284 2f3e
000000d0: 3eac 28bd 406c 1cbd 2ff3 063d 84c0 3d3c
000000e0: 0866 34bb eed4 0dbb e042 a7bd aa70 e93d
000000f0: a39b a3bc 680e 743d f3f5 c93b ce57 ec3c
00000100: 432f b03c 5ebc 013e 49f8 133e 4ede d13b
00000110: 3d4d de3d 041c 88bd 2a3e 723d 7901 df3d
00000120: 95bd 553c ad5d 063e f3cc 753e 282f 053d
00000130: e4ef afbb 2d63 55bc 751e 8ebc 70da 173e
00000140: 2716 2ebd 54eb 1e3d 4a1a 233d 25e5 833d
00000150: 8065 803d 520a 4ebd 5fe9 c3bb 5be4 ed3d
00000160: f7b7 113d ac33 e43d 1032 563e 38ec 4c3c
00000170: 9abd 1e3e 555a b4bd af4c 2e3e d399 603d
00000180: 0ff4 1bbd 7960 b0bc 8b6a b1bd f061 803e
00000190: eb1d 93bd cad1 283e 2528 9e3d 7a2b 9cbc
000001a0: c5cf c7bd 3c9f cb3d f294 883e 11f1 273e
000001b0: 7acb dfbd 8dfa 3f3c b929 883d 2e8e dc3d
000001c0: 6841 f93d 506e 41bd 70da 693d 875f 07be
000001d0: 2994 21be 6b7f 82bc cede 2a3d a21d 79bd
000001e0: 4810 6e3e 7ce7 6b3d 16a1 503d 1f57 fd3d
000001f0: 9f72 183e 2426 553e ebf7 a9bd f224 0cbe
00000200: 491b 6ebc 2b64 c13d e0c5 bbbc 7a86 3d3e
00000210: a300 06be 4888 0abe efad 3b3e eb36 8ebb
00000220: af17 683e 39f9 7abd fc11 973e c8d0 463e
00000230: 7324 863d 1c91 edba 8d93 923e c9a4 2f3d
00000240: c7e9 c4bd 4e9c bf3d 22e9 293e 21aa be3d
00000250: 7463 fd3d 373d 0a3d 5244 62bc 3d83 793e
00000260: 8577 7d3e ea39 bf3b 710c 523e 0fb5 eb3d
00000270: 0cb6 eb3d 5df5 3f3e 09d7 833e cb43 823e
00000280: 7f90 4d3e 788c 19be c744 0f3e 78f6 a33d
00000290: da76 d33c 867a 6a3e d89c 83bd 48cb 1a3e
000002a0: fe37 de3c 1f45 8e3c 5ae2 573e 0b1e 353e
000002b0: abe0 36bd 1589 a43d 37fc 4f3e d6ea c0bd
000002c0: a82a efbd 6435 05be 1505 89bd d8f3 833e
000002d0: 6c33 373e 653a 403e b926 583e 2a14 2bbe
000002e0: eac3 4a3e e0a1 47bd 52d5 a8bc 9d3e 293d
000002f0: 965b 28bc 6970 023e f1eb ad3d d258 263e
00000300: 27ac cfbd 79d5 bd3c fed9 acbd 2ddb c83c
00000310: c8ed 95bd d225 283e 9450 183e 1e37 843e
00000320: 3e31 d6bd 4b7b 1c3e 2ed6 13bd daa3 c53c
00000330: 5446 3b3e f34f 6c3e b513 cd3d a714 a2bd
00000340: 2bcf 363e e6c3 523d 8900 293e c509 06bd
00000350: 678e 913c 0bbd 343e cb20 c53c 5677 4e3e
00000360: 6183 16be a529 5838 3028 08be 270b dd3d
00000370: 59a0 293e d725 9e3d 3803 b73c 5194 993d
00000380: f587 fe3d 85bc ebbd 1398 d43d e0ff 053e
00000390: 1c06 5a3e b11f b3bc ba4e 3b3e 2cff b43d
000003a0: bcb5 863e 1454 3a3e 40ad 993c 5500 d1bc
000003b0: cd73 dc3d 743d a23e 6df6 b73e 0324 b93d
000003c0: 6d28 1bbd 9f5a ba3e f221 27bd 0fe0 8c3e
000003d0: 29fa 28bd 8c5e f13c b249 ad3e 97ed 973e
000003e0: ef6d 513e e706 be3e 7f33 ed3d 684a 703e
000003f0: b192 173e 5a21 42be efc3 21be 3606 4e3d
0.09204835 -0.08557399 -0.0775633 0.20642333 -0.020713557 0.013876178 -0.02921786 -0.069530964
-0.13445473 0.2558747 0.13936265 0.2568645 0.07412851 0.053818084 -0.0011784404 -0.15321825
-0.10213437 0.07521882 0.17921764 -0.00278107 -0.018380081 0.034943078 0.23957919 -0.03340485
-0.18860197 -0.17815377 -0.14378394 -0.08631083 0.017809395 -0.12244608 -0.06998613 0.11750218
-0.09921188 0.06312396 -0.017204184 0.043745015 0.03917024 0.05180051 0.027024671 0.15896073
0.067434624 0.045602858 0.061448213 0.0675295 0.015665062 0.14867917 -0.084692486 -0.013983337
0.13151237 0.1061408 -0.103116415 0.17140248 -0.041179888 -0.038189173 0.03294676 0.011581544
-0.0027526636 -0.0021641809 -0.08167052 0.11398442 -0.019971674 0.05958405 0.0061633526 0.028850462
0.021506911 0.12669513 0.14450182 0.0064046746 0.10854576 -0.066459686 0.059141316 0.10888953
0.013045688 0.13121672 0.24003963 0.032515675 -0.0053691734 -0.013024134 -0.017348507 0.14829421
-0.042501595 0.038798645 0.039819993 0.0644019 0.062693596 -0.05030281 -0.0059787477 0.11615821
0.035575833 0.11142668 0.20917535 0.012507491 0.15502015 -0.08806292 0.1702144 0.0548342
-0.03807455 -0.021530377 -0.086628996 0.2507472 -0.07183441 0.16486278 0.07722501 -0.0190637
-0.09756426 0.09942481 0.26676136 0.16400553 -0.10927482 0.011717451 0.06648583 0.10769306
0.121706784 -0.047224343 0.057093084 -0.13220035 -0.15779175 -0.015929898 0.04171639 -0.060819276
0.23248398 0.057593808 0.050934874 0.12370133 0.14887474 0.2081533 -0.0829924 -0.13685969
-0.0145328725 0.09442934 -0.022921503 0.1850833 -0.1308618 -0.1352855 0.18328069 -0.004340043
0.22665285 -0.061272833 0.29505908 0.19415581 0.06549921 -0.0018124911 0.28628197 0.04288176
-0.09614902 0.09355985 0.1659284 0.09309793 0.12372485 0.033749785 -0.013810234 0.2436647
0.24752624 0.0058357613 0.20512559 0.115091436 0.11509332 0.18745942 0.25749996 0.25442347
0.20074652 -0.14994991 0.1399108 0.080059946 0.025813509 0.22898301 -0.064264 0.15116608
0.027126309 0.017366944 0.2108244 0.17687242 -0.044647854 0.08033959 0.20311056 -0.094197914
-0.11678058 -0.13008648 -0.066904224 0.25771976 0.1789071 0.18772276 0.21108522 -0.1670691
0.19801298 -0.04873836 -0.020609532 0.04131948 -0.010275742 0.12738194 0.08492268 0.1624482
-0.10140257 0.02317308 -0.08440016 0.024518574 -0.07320744 0.16420677 0.14874488 0.258233
-0.10458611 0.15281408 -0.03609293 0.024125982 0.18288547 0.23077373 0.100135244 -0.07914095
0.17852466 0.051456355 0.1650411 -0.03272416 0.017768098 0.17650239 0.024063488 0.2016271
-0.14698555 5.1537198e-05 -0.1329658 0.10793143 0.16565074 0.07722061 0.022340402 0.07498992
0.124282755 -0.115105666 0.10380568 0.1308589 0.21291393 -0.021865698 0.1829175 0.08837733
0.26310527 0.18196136 0.01875937 -0.025512854 0.10764275 0.3168751 0.35930195 0.09040072
-0.03788035 0.36397263 -0.040803857 0.27514693 -0.041254196 0.029464029 0.33845288 0.29673454
0.20452093 0.3711464 0.11582088 0.23465884 0.14802052 -0.18958035 -0.15797399 0.050298892

lstm.weight_hh_l0 f4 [92, 23]
00000000: 85be 37be 5137 963c bc7d 863d 8079 b7bd
00000010: ee54 e7bd 2f73 27bc 75d9 f43d e27a 283e
00000020: f181 f93c 2f8f 89bc 8cc4 2abe 956c 0fbe
00000030: 5f21 86bd efab a13d 0858 a33d 4684 233e
00000040: 7d91 27be 5308 2d3e 796f f1bc ddf6 87be
00000050: 3daf 15bd 65d8 29be 0369 9ebd 46d4 80be
00000060: cd27 fe3d 9a25 61be fda4 2fbe 188b d23d
00000070: f11e 813e 52ad d3bd 7b88 573d 5d17 363e
00000080: 7ac1 8a3d c6e8 9fbd 16df e7bd b9ad 5abe
00000090: f1aa 62be 7514 823e 18fb 1cbe 95e4 0c3c
000000a0: babc 653d 8c40 74be 1600 ee3d dcce 2c3c
000000b0: 2558 9f3c 215c 8abc 337d 4c3e d3ca 34bc
000000c0: f06b 93bd db9b 4fbc fb5c 153e ce4f 213e
000000d0: e051 a73c d4e7 4dbd c39e eebb 468d e1bd
000000e0: 117a 243e 0ec8 303e 9802 d4bb 0d6d 4c3e
000000f0: 0773 f2bc 5373 11bd 9c17 393e 049a ab3d
00000100: 9cc9 f33d 555d 1e3d 1f06 d73d 22da 0e3e
00000110: 5e1c 673c ed11 d23c f7ea 9a3d 4970 2d3e
00000120: ce40 16bd 466c 383c a45a e33d 9403 2c3c
00000130: 6a7e 103e b9d4 393d d2d7 813d 855c 643d
00000140: cbce 8fbc 7b31 ebbd d300 763d 7039 913d
00000150: 27c3 233d 740a 5dbd 8bbf 1abd a58d 163d
00000160: a571 b7bd 0f1d db3d bed3 c1bb ddb7 dfbc
00000170: 4218 103e 089c 2e3e 314e 13be f2b6 e23c
00000180: 970b 113e da87 df3d 24f0 d5be 5147 76bd
00000190: 3a5c 853b 9afd 53bd 5200 6a3d 8950 0e3e
000001a0: 22e0 74be 4345 c43c 8042 4a3d 0e7d 21be
000001b0: eb62 1e3e 769c 23be dd30 46be 8b98 e93d
000001c0: a77c b7bc 6a5b 35be af43 df3c 45c9 313e
000001d0: fedc 20be 9240 0abe 504b 25bd 168c eebd
000001e0: cff9 08be 8a7a fc3d 798e 0f3e aaa5 1f3e
000001f0: cf51 debc 8fbe a93c 2634 2cbe 3a0f b63d
00000200: 8d63 f33c bdc0 233d fffc 133e 2de0 4a3d
00000210: 2272 a3bc 1237 ff3d 25fb 883d 15d1 923d
00000220: 1982 f33c 6892 8bbd 97c4 333e 81d8 493e
00000230: 7130 8bb9 9206 3f3e a3d0 f33d c221 d03d
00000240: 5460 8bbd 2173 8a3e e35f ab3d e2c8 1b3e
00000250: b85e bdbd ec42 603e ce83 dc3d e922 223e
00000260: b0e3 a23e e167 3fbd ee49 aabd 2ae8 073e
00000270: 1b2d 1a3e 4cf0 6abe 45a0 033e b8d3 8e3e
00000280: 13e3 d33d 8a19 dc3d 3bae 93bd aa32 003e
00000290: b6a8 623e b24f 7d3e 6336 b4bd 37f6 ddbc
000002a0: 7f27 653c 58ff e43b b8f2 b9bc 1657 a1bd
000002b0: f3d7 8e3d 8873 213d 63b9 9ebd d4cf 953e
000002c0: 2787 31be 0fd8 87bc 48c1 f53c 1762 d43d
000002d0: 7d16 83be 259b d43b 0fda ae3d bd39 c5bd
000002e0: 82ae 0a3d eda1 703e 6a39 16bb 8c3e a53d
000002f0: 1e8c 023c 9cee e0bd 347f 07be 436f b2bd
00000300: 4126 693d 9e2b 2b3e e353 963d e02b a5bd
00000310: 60c2 a33d e96e d43d fce3 d03c 6f67 033e
00000320: 81e7 2a3e b135 b13d d6aa 2dbd d8ca b5bc
00000330: a6b7 673d 77bc ef3d cfcd dabd 9ed6 a2bd
00000340: 8e34 c43d de2c 13be 8dc1 7dbc 19ac 253e
00000350: c664 7ebe 08d0 883e 69ad b53d cf23 2e3e
00000360: 759a b9bd 686d 5e3d 41dd f43d 4707 253e
00000370: 1c08 ad3d d4e8 1cbe fd2f 81bd bb1a 22be
00000380: 28c4 bf3d 2f6c 423e a249 debc ecb4 90bc
00000390: 3a40 babb 424a 0ebe 8957 e5bb 6d88 7f3e
000003a0: b0bf 1b3e a827 b13c b7d1 293e 498d e0bd
000003b0: 275c 23be 8ee5 4c3d 2f96 933e 1ec2 25bd
000003c0: 9ae7 b03e 614f 323e 903b e43c a93c f23d
000003d0: 6078 b73e 59c8 4c3e ed19 19be 3ce5 873e
000003e0: 08ba acbc 4ebb 19bd bdcb 923e 1eb6 2d3e
000003f0: a4fa d6bd 9a62 893d cc65 b73d dcf9 4cbe
-0.17943771 0.018336924 0.06566951 -0.08958721 -0.11295496 -0.010220333 0.11955539 0.16453126
0.030457469 -0.016791908 -0.16676539 -0.14006265 -0.06549334 0.07894122 0.07975775 0.15968427
-0.16364093 0.16897707 -0.0294721 -0.2655553 -0.036544073 -0.16586454 -0.07734873 -0.25161952
0.12409935 -0.21987 -0.17152782 0.10280436 0.2521892 -0.103357926 0.052620392 0.1778235
0.06775184 -0.0780807 -0.11321847 -0.21355332 -0.22135521 0.25406232 -0.1533016 0.00859942
0.056088187 -0.23852748 0.1162111 0.010547366 0.01945121 -0.016889634 0.19969635 -0.011034685
-0.07198322 -0.012671436 0.1458625 0.157531 0.020424783 -0.050269917 -0.0072821095 -0.11013274
0.1606219 0.17263815 -0.0064700358 0.19963475 -0.029595865 -0.035510372 0.18075413 0.083789855
0.11903688 0.038663227 0.104992144 0.13950399 0.014105884 0.025643313 0.07564347 0.16937365
-0.036682896 0.011256283 0.11101273 0.0104989 0.14110723 0.045368884 0.063399926 0.055752296
-0.017554661 -0.11484047 0.06005938 0.070910335 0.039981034 -0.053965047 -0.037780326 0.036756177
-0.08957223 0.10698902 -0.005915134 -0.027309353 0.14071754 0.17051709 -0.14385296 0.027675126
0.14164577 0.109145835 -0.41784775 -0.060126606 0.004069832 -0.051755525 0.05712921 0.13897909
-0.23913625 0.023958808 0.049379826 -0.15770361 0.15467422 -0.15977654 -0.19354577 0.114060484
-0.022398306 -0.17710653 0.027253954 0.17361934 -0.15709302 -0.13501194 -0.040355027 -0.11647813
-0.13376544 0.1232806 0.14019193 0.1559054 -0.027138619 0.020720748 -0.16816768 0.08889623
0.029710555 0.03997873 0.14451979 0.049530197 -0.019951884 0.12461676 0.06688527 0.071687855
0.029725121 -0.06815034 0.17555462 0.19711496 -0.00026548238 0.1865485 0.11905029 0.10162689
-0.068054825 0.2704096 0.08367898 0.1521335 -0.09246582 0.21900529 0.10767327 0.1583363
0.31814337 -0.046729926 -0.08314882 0.13272157 0.15056269 -0.22943228 0.12854107 0.27895904
0.10346045 0.10747059 -0.07210966 0.12519327 0.2213467 0.24737433 -0.08799436 -0.027094943
0.013986467 0.006988447 -0.022698745 -0.078779384 0.06974783 0.03941682 -0.077502035 0.29260123
-0.17336713 -0.016582517 0.02999939 0.10370272 -0.25603095 0.006488221 0.08537685 -0.09630153
0.03385783 0.2349927 -0.0022922405 0.080685705 0.007967977 -0.10983011 -0.13232118 -0.08712628
0.056921247 0.16715857 0.07340219 -0.08065009 0.079960585 0.10372717 0.025499336 0.12832426
0.16689874 0.08652819 -0.04239925 -0.02219145 0.056571625 0.11705869 -0.10683786 -0.07951091
0.095803365 -0.14372584 -0.015488041 0.16178931 -0.2484313 0.26721215 0.08870966 0.17005847
-0.090626635 0.054303557 0.11956263 0.16116057 0.08448812 -0.15323192 -0.06307981 -0.1583051
0.09363586 0.18986581 -0.02713472 -0.017664395 -0.005683926 -0.13895515 -0.0069989604 0.24954386
0.15209842 0.021625355 0.16583906 -0.10964448 -0.15953122 0.050023608 0.28825518 -0.040468328
0.34551698 0.17413093 0.027860433 0.11827976 0.35834026 0.19998302 -0.14951296 0.2654208
-0.0210848 -0.037532143 0.28671065 0.16964003 -0.10497025 0.0670826 0.08954963 -0.20017189

lstm.bias_ih_l0 f4 [92]
00000000: 354a 3cbc 2a3c d1bc 5287 13bd 58cc 26bd
00000010: ab8a 35be 9747 a63d ecc6 cb3d 1b6e 353d
00000020: e67d 8dbd fb25 093e b31d 34bb fd0a 7fbe
00000030: 6b3a 4b3e 0b84 2e3d d5ca bdbc 5a32 df3c
00000040: adf9 b83d 141a 703e 8e10 f53d a00a f5bd
00000050: 2139 793d 1541 f0bd e59c 1c3e cae9 6fbe
00000060: d749 00be e327 d0bc 5808 a03d 7920 fa3d
00000070: e315 04be 71fb 103e 47e1 103e db5a 073e
00000080: c5af 853e 4574 2c3d b500 ce3d 443a 013d
00000090: 19e2 f7bd aa1b aebc 8a3d 48bd d87e b2bd
000000a0: 7999 37bd 098c b1bd 230e 8d3e ea30 a43c
000000b0: 8e3d 1b3e 398b 49be c459 913c 98c1 d7bd
000000c0: 4c2a 013d 7104 a6ba 15f4 993c d10f f53c
000000d0: 5397 413e 2265 05be c9e3 03be 11e7 933d
000000e0: 75b6 dd3d 3506 58be 07bd 313e ec29 00bd
000000f0: 2d54 d6bd 507e cebd 00cd 0dbe e512 0abe
00000100: b214 6f3e ff9e ef3c 7d7b 2cbe 9a89 3c3e
00000110: 5e78 8b3e ff1d f63d 0acd fc3c 0f64 b0bd
00000120: 00cf fa3c 7bcc 133e 8288 363e 54a3 15be
00000130: 3795 8abc 9152 d33d 110c 313e 5ad6 133d
00000140: 74c3 92be d8b9 703e 60d5 00bc 88b6 073e
00000150: d130 343d 42cb cc3e e829 c5bd f24f 273d
00000160: 31da 7b3e db3e 64be 4333 87be af1f 9a3d
-0.011492302 -0.025541384 -0.036017723 -0.04072222 -0.17728679 0.081191234 0.09950051 0.044294458
-0.06908779 0.13393395 -0.0027483522 -0.24906535 0.19846503 0.042606395 -0.023168007 0.02724569
0.09031997 0.23447448 0.11966048 -0.11964917 0.060845498 -0.117311634 0.15294226 -0.23429027
-0.12528168 -0.025409644 0.078140914 0.12213225 -0.12898974 0.14158417 0.14148436 0.13218252
0.26110664 0.04210307 0.100587286 0.031549707 -0.121036716 -0.021253426 -0.048886813 -0.087156
-0.044824097 -0.08669288 0.27549848 0.020042855 0.151602 -0.19682015 0.017742999 -0.10534972
0.031534478 -0.0012666119 0.018793145 0.029914768 0.18905382 -0.1302686 -0.12879862 0.07221807
0.108258165 -0.21096118 0.17357264 -0.03128998 -0.10465274 -0.10082686 -0.13847733 -0.1348377
0.23347738 0.02925062 -0.16843982 0.18411866 0.2724027 0.1201744 0.030859489 -0.08612835
0.030616283 0.14433472 0.17825511 -0.14613086 -0.016916854 0.10318483 0.17289759 0.036093093
-0.28664744 0.23508394 -0.007863373 0.13253224 0.043991867 0.39998823 -0.096271336 0.040847726
0.24594952 -0.22289602 -0.26406297 0.075255744

lstm.bias_hh_l0 f4 [92]
00000000: ecb1 d13d 1826 b93a 8353 583e 1ea1 533e
00000010: 1a64 b0bb de68 3d3e b56c 67bc 8c10 053d
00000020: 55d2 7b3e 6c70 41bd 4a41 b73e 5132 d5bd
00000030: bebc c8bc 24db 07bd 0b9c 2cbe a824 1a3e
00000040: 1cd2 343c bbf8 853e 906a 463e 2143 1d3e
00000050: b6de 213e 049b 26be 2ff2 733e f1dd 16be
00000060: 8de3 fdbd 8187 d5bd 4b65 3b3e 685b 09be
00000070: d749 883d 629e ba3e c0eb d93c d6bc 44ba
00000080: 4602 393d 4b76 36be 7dc6 bc3d 8f02 7f3e
00000090: ab2d d4bd e9d1 4e3e 54dc bbbd 53da 793d
000000a0: d68e 44bd 9336 043e 32c7 763e 191f ffbd
000000b0: 8223 9e3d c862 63be fdac 61bd a4a9 71bd
000000c0: 5509 b53c 5b73 de3d 665a 0bbe 6d15 ffbd
000000d0: 5fe1 c0bd d906 9cbd c81c 8fbd cf6a 8abd
000000e0: 5726 99bc 056d f63c fd6f e63d 1a6f 1e3c
000000f0: cd94 36bc 10c8 afbd 87c9 42be 6db1 363e
00000100: ce11 163e 2bc0 a03d 3908 13be a335 c2bd
00000110: f7ca 873e 37c6 2e3d 04c5 6dbe 688b e5bd
00000120: 0e31 0abe aa7a 0a3e a81e a7bd 6642 0ebe
00000130: 368a 053e a9e9 8e3d 0742 833e 3bba a73d
00000140: 118c 8dbd a282 b9bc 2a40 263e 8a85 f63c
00000150: 1e38 d53d 7977 e53d eb3e 04be 30e7 67bd
00000160: b5f7 693e 2b3c cf3d b584 1dbe 50bc 593e
0.10239014 0.0014125733 0.21125607 0.2066693 -0.005383027 0.18497035 -0.014125039 0.032486483
0.24591954 -0.047226354 0.35792 -0.10409988 -0.024504062 -0.033167973 -0.168564 0.15053046
0.011036422 0.2616633 0.19376588 0.15357639 0.15807614 -0.16270071 0.23822854 -0.14733101
-0.123969175 -0.10426236 0.18300359 -0.13413775 0.06654709 0.36448961 0.026601672 -0.00075049454
0.045168184 -0.17818563 0.09217546 0.2490332 -0.10360273 0.20197262 -0.09172884 0.060999226
-0.04798778 0.12911443 0.24099424 -0.12457103 0.07721616 -0.22205651 -0.055096615 -0.058999673
0.022099176 0.10861846 -0.13608703 -0.124552585 -0.09417986 -0.076184936 -0.069879115 -0.06758653
-0.01869504 0.030081281 0.11251829 0.009670043 -0.011143875 -0.08583081 -0.19022189 0.1784112
0.1465523 0.07849153 -0.14358605 -0.09482887 0.26522037 0.0426695 -0.23219687 -0.1120823
-0.13495275 0.13523355 -0.08160144 -0.13892516 0.13041005 0.06978161 0.25636312 0.081898175
-0.06911481 -0.022645298 0.16235414 0.030092973 0.10411094 0.11204428 -0.12914626 -0.056616962
0.22848399 0.10118898 -0.15382655 0.21263242

layer1.weight f4 [20, 23]
00000000: 8079 3f3e 1f49 2c3e 2a6b 003f f0b6 ef3e
00000010: f691 bd3e f29c b606 21c7 21be 816e 0c3f
00000020: 8dd2 d33e 7b24 72be d21d 663e 57b8 b53e
00000030: 3227 2abe b36b 663e 64df 893e 511b d73e
00000040: 0ea3 6f17 89f8 dd3e 07c7 eebd aea1 b606
00000050: 868e d83e 4635 aa3e 0fb1 80bd db86 583e
00000060: aaef 653e bbef 183f 995e d23e 341d ee3e
00000070: a42a e206 46af 21be 3298 bf3e 5dd8 ff3e
00000080: 7e62 c939 edf8 8b3e 8341 023f 4920 48be
00000090: 6b7e f83e 46b8 893e e46c de3e 676b 638f
000000a0: a144 623e c2a8 eebd f0df b606 4ea2 b83e
000000b0: 4d44 b33e d89b 80bd 3a2a 803e 4009 e23e
000000c0: 07e8 aa3e b181 753e ecf1 9a3e 4ea5 b686
000000d0: c4fc 21be 26a5 9f3e 4940 bf3e 45a9 e0bd
000000e0: 34f5 a03e cebd a23e 08b3 4dbe 8d61 bd3e
000000f0: ff17 8a3e 0b8f c83e bc05 840b 7ce8 9f3e
00000100: 0f08 efbd f29c b686 fde5 9b3e 0d08 5a3e
00000110: badd 80bd 29b8 033f b4f3 5c3e 2ebb 553e
00000120: 735b be3e a393 093f 2eae b606 e885 21be
00000130: 612c 103f 3bf0 513e b8dd 82be cf4b 973e
00000140: 3555 033f 5eb7 24be 02bd 5e3e cd84 893e
00000150: bfce 053f 3963 0b13 e150 f83e 4e74 eebd
00000160: ecbd b606 7110 043f 47ee d03e 9e76 80bd
00000170: 131f 6b3e a1f0 903e 834c 863e a0bf 833e
00000180: e61d a93e 7d9d 5487 f94a 22be 811b 8b3e
00000190: f9cf 873e 6556 0abe a29b 7c3e cc34 6a3e
000001a0: 75d4 50be 1d3f 873e 4a70 8c3e dbe8 a63e
000001b0: 70b8 b606 eb11 963e 7f67 efbd d459 2a88
000001c0: 25cf 873e c7b3 853e c921 81bd ab3a 883e
000001d0: d8e4 023f d883 033f 34cb 013f 7518 303e
000001e0: 423d b90a 829d 21be 771c 203f 0bbf cc3e
000001f0: 47e4 50be 78fa 1b3f 479d 6a3e 685d 9fbe
00000200: 4079 dc3e c99e 893e 552b 863e 3254 090e
00000210: ff92 933e 4090 eebd f294 b686 f29c 173f
00000220: 4d93 033f 8d89 80bd 53fc 6e3e 4d22 823e
00000230: b222 6d3e a534 753e 12f8 953e 1035 030c
00000240: 78c4 22be 86aa 773e fc29 713e 16b3 11be
00000250: 53b7 853e 796a 623e 21cb 51be b257 543e
00000260: f596 8b3e cfa7 763e 90c0 b606 a5cf 6f3e
00000270: 63fa efbd 8e9f b606 7071 6a3e 5f41 6d3e
00000280: 7f89 81bd bf86 043b 32db f8bc 8a7c 8c3b
00000290: 69b9 253c 9b69 62bc ee9c b606 50c5 2b3e
000002a0: 9737 4dbc 365f b7ba 7582 123e d297 46bb
000002b0: 0277 ee3b 8bc5 473e cc34 9c3b 9350 6abd
000002c0: 9b68 5bbc 328d b606 ec6a 2d3b d2fd fa3d
000002d0: 2cca b606 e36f b9ba 5294 9e3b 6e87 853d
000002e0: 9a8b 013f 2881 423e cc51 fb3e 26b1 ba3e
000002f0: 61ba 553e ae9a b606 35a2 21be dd41 c43e
00000300: 42ea 503e 5295 98be 0725 a03e ab82 c63e
00000310: 03c7 46be 9000 f63e c3a6 893e e059 073f
00000320: d205 8399 cd75 b93e 3398 eebd 5286 b686
00000330: b9f5 9c3e 0c1f ae3e e78f 80bd 9472 4b92
00000340: 4aa8 0990 4a92 2891 fa27 b792 43b4 3191
00000350: 999f 860a 505f b892 699e 6091 22a3 9492
00000360: a740 0691 052b 8692 4cfb 3a92 7184 b692
00000370: 51b7 a892 58b1 1d91 8cba b606 ae9a b686
00000380: 1d96 dc91 ccb5 6892 30d9 b686 acb2 4f92
00000390: 1784 1f92 2bd6 a692 90d9 b686 d29d b606
000003a0: 10bf b686 f0c1 b686 f0df b606 72a2 b686
000003b0: f470 d887 d0de b606 f29c b686 50ca b686
000003c0: 70e2 b606 5da4 ce88 68da b686 e68b 168b
000003d0: 9298 b686 d16a 008a d36b 6e87 30e2 b686
000003e0: 329c b686 50da b686 cccf b686 9296 b686
000003f0: 50bd b686 67e7 0b3e 938b 343e 96c6 55be
0.18698692 0.16824768 0.5016352 0.46819258 0.37025422 6.86914e-35 -0.15798618 0.54856116
0.41371575 -0.23646729 0.22472313 0.35492203 -0.16616514 0.22502021 0.26928246 0.42013028
7.743087e-25 0.4335368 -0.11659055 6.869836e-35 0.42296237 0.3324377 -0.06283771 0.21145193
0.22454706 0.597408 0.41087797 0.46506655 8.5074406e-35 -0.15789518 0.37420803 0.4996976
0.0003841109 0.27338353 0.5088121 -0.19543566 0.4853395 0.26898402 0.43442452 -1.1212649e-29
0.22096492 -0.11653282 6.878984e-35 0.3606133 0.35013047 -0.06279725 0.25032216 0.44147682
0.33380148 0.23975255 0.30262697 -6.8703684e-35 -0.15819079 0.31180686 0.37353733 -0.109697856
0.31437075 0.31785434 -0.20087826 0.36988488 0.26971433 0.39171633 5.085318e-32 0.3123206
-0.11671459 -6.86914e-35 0.30448905 0.21292134 -0.06292291 0.5145288 0.2157734 0.20872185
0.37179145 0.537409 6.8716725e-35 -0.15773737 0.56317717 0.20501797 -0.25559783 0.29550025
0.5130189 -0.16085574 0.21751788 0.2685913 0.52268595 1.7593187e-27 0.48499206 -0.11643277
6.8739856e-35 0.5158759 0.4080679 -0.062726244 0.22961073 0.28308585 0.2623025 0.25732136
0.33030623 -1.5995389e-34 -0.15848912 0.2716942 0.26525858 -0.1350952 0.24668744 0.22871703
-0.20393546 0.2641534 0.2742942 0.3259953 6.87318e-35 0.29310545 -0.11689662 -5.1263107e-34
0.26525226 0.26113722 -0.06305272 0.2660726 0.5113044 0.5137305 0.5070069 0.1719683
1.7837895e-32 -0.1578274 0.62543434 0.39989504 -0.20399581 0.6092906 0.22911559 -0.3112595
0.43061256 0.26878956 0.26204935 1.6927092e-30 0.28823087 -0.11648607 -6.8679646e-35 0.59223855
0.5139664 -0.06276236 0.23338442 0.25416794 0.23157766 0.23945864 0.29290825 1.0107841e-31
-0.1589526 0.24186143 0.23551172 -0.14228472 0.26116428 0.22110929 -0.20487644 0.20736578
0.2726361 0.24087451 6.8743736e-35 0.23419054 -0.11717679 6.8695236e-35 0.22894835 0.23169468
-0.063250534 0.0020221916 -0.030377958 0.004287307 0.010115006 -0.013819124 6.869138e-35 0.16774487
-0.012525461 -0.0013990167 0.14307578 -0.0030302894 0.0072773704 0.1950895 0.004767036 -0.057205748
-0.013391639 6.866826e-35 0.0026461435 0.12255444 6.8757856e-35 -0.0014147725 0.0048394585 0.06519972
0.5060364 0.18994582 0.49085844 0.3646328 0.20871879 6.868807e-35 -0.15784533 0.383315
0.20401862 -0.29801422 0.3127825 0.38771567 -0.19411854 0.48047304 0.26885042 0.52871513
-1.3547433e-23 0.36222687 -0.116501234 -6.8658157e-35 0.30656222 0.34008062 -0.06277447 -6.4196734e-28
-2.714813e-29 -1.3297942e-28 -1.1558779e-27 -1.4018385e-28 1.2963765e-32 -1.1635529e-27 -1.7719298e-28 -9.380328e-28
-1.0590659e-28 -8.467194e-28 -5.9001e-28 -1.1518464e-27 -1.0647482e-27 -1.2439764e-28 6.8734897e-35 -6.868807e-35
-3.4802394e-28 -7.3430374e-28 -6.877992e-35 -6.5537913e-28 -5.0334367e-28 -1.0528869e-27 -6.878047e-35 6.8692687e-35
-6.874153e-35 -6.8745757e-35 6.878984e-35 -6.8699483e-35 -3.2566456e-34 6.8788185e-35 -6.86914e-35 -6.875806e-35
6.879351e-35 -1.2436816e-33 -6.878171e-35 -2.8994197e-32 -6.8684973e-35 -6.183066e-33 -1.7936817e-34 -6.8793144e-35
-6.86903e-35 -6.878157e-35 -6.876612e-35 -6.8682034e-35 -6.873896e-35 0.13662492 0.17631368 -0.20876536

layer1.bias f4 [20]
00000000: 7621 8c3e 74e0 183f e7fe 4a3e 23c2 f43e
00000010: cd95 7c3e 7666 083f 8e02 633e 49df aa3c
00000020: 69e5 f13e 35fe b892 10d9 b686 63c1 4dbd
00000030: b15d a73e 042a 9ea1 db3c 063f a080 ce3e
00000040: 559e ce3e 0e45 8c3e 7121 37bd 1dc7 543c
0.2736928 0.5971749 0.198238 0.47804365 0.2466652 0.53281343 0.22168943 0.020858424
0.4724534 -1.1674699e-27 -6.8779736e-35 -0.050233256 0.32688668 -1.0717618e-18 0.5243661 0.40332508
0.40355173 0.27396435 -0.044709627 0.012986925

layer2.weight f4 [15, 20]
00000000: 26a1 073f 3405 ff3e f0ea a63e 433f 0f3f
00000010: 166a a03e db22 de3e 17b1 7f3e 0b0e 1dbe
00000020: e7da cd3e 24bc 020f f0d9 b686 8646 5abd
00000030: d4c9 e43e 9f35 181c 3c83 bc3e 28eb db3e
00000040: abf7 d23e 4c89 c73e 4412 c5bb b8e3 60bd
00000050: c571 aa15 cdc9 2517 4167 1f89 46bb 4a9c
00000060: 10bf b606 8cd7 801e 9eca be88 7288 b686
00000070: d2c7 7396 70db b686 aea9 b686 318b 3611
00000080: 10e4 bb1c 2591 ef95 f8bb e29b 4891 8d9f
00000090: 8425 83a1 0c7b 7b88 b981 c415 928b b606
000000a0: 2c69 d63e b031 683e 7370 843e f970 f43e
000000b0: d082 ae3e bd82 053f b5bd 653e 3389 1dbe
000000c0: 5bd3 ff3e 2a29 b50e 50da b606 d974 d93d
000000d0: 5d71 de3e f4ed 549c 83c6 b73e 8f91 343e
000000e0: ec65 d13e 1b7c c43e ac2f c7bc 6769 61bd
000000f0: 5f10 063f 790a d93e d3ea db3e a0e5 1a3f
00000100: 48ac b13e 54e7 de3e 4095 7f3e 02d3 1cbe
00000110: 1000 1a3f 4777 240f de22 810c 0068 1d3c
00000120: 4bda 9f3e 830c 59a2 6951 a43e 6b7e 023f
00000130: fbb3 8e3e 36ec da3e 4019 63be 2ba0 60bd
00000140: 42f2 c789 50ca b606 e4b2 2a8b ccc1 b686
00000150: 729a b686 2d10 ac8b ac31 b30c 0ee9 ac07
00000160: 185c c18a 2cb5 b606 70b5 b686 2e99 b686
00000170: 50ce b686 328c b606 10c3 b686 ce92 b606
00000180: ce91 e18c 827f 870a 42aa b686 a79d ea0b
00000190: f702 3a3e 1701 8b3e dfd9 833e a1a0 ce3e
000001a0: 100e 903e c4b3 0b3f 37c8 993e da0e 1dbe
000001b0: 55da 963e 8638 030f a0cf b686 0d61 3bbe
000001c0: 92b5 183f f369 d497 57ee ee3e f75a 153f
000001d0: 67a2 0e3f 72c0 d53e 0515 3bbe b5e0 60bd
000001e0: 62a6 ef3e 5c91 a83e d0b6 a63e 2f10 553e
000001f0: a80c 903e 5494 a33e 6490 7f3e b103 1dbe
00000200: 9d6e f63e a461 e50e f29c b606 9b50 0ebc
00000210: 1cfe c93e 57d0 ea20 8b3f e43e e8b8 bb3e
00000220: 4ae9 a03e 49fd f33e 46f8 72bc ead9 60bd
00000230: 0754 aeb9 4b9f a33a e41b b0ba 1b00 fb38
00000240: 5622 e0ba acd6 f139 a708 0abb 3cf9 8b3d
00000250: f22c 163a d500 9c0b ce8b b606 d0c8 173d
00000260: 241b b2b8 f1c6 b80c a263 83b8 6664 32ba
00000270: 50cd 38b9 5dee ccb9 c514 973d 0c2a 883d
00000280: 675b beba 18b5 e83d 1711 51bc 9dd3 ebbc
00000290: aeda 7bbd 133f 2f3d 21cf 59bb eb6d ce0a
000002a0: 2227 c83c 6deb 028a d975 e90c ed2d 9190
000002b0: 0ded 25be 9e7c 9398 7fba 83bc bf06 c33d
000002c0: 960d 0c3d c720 afbc f594 4d97 08dd b686
000002d0: 2408 64a0 809a 6b22 2b62 8e8b 95c9 eb18
000002e0: aea9 b686 8a51 41a1 729a b686 ec4c 048b
000002f0: 4452 ab1c f289 b606 4345 ce07 8277 521a
00000300: 1134 d619 5200 5d9c 06dc 2aa5 f928 6e9f
00000310: 68c0 4e98 328d b686 a3c8 8e14 4e92 b686
00000320: 9b25 fe3e 57ad 9f3e 6861 a83e ef65 d63e
00000330: 9ebf 953e 4e3a bd3e eb58 803e df71 1dbe
00000340: f9d1 c03e f6db c60e 32ac b686 a7ee 23be
00000350: 8aa2 a33e edf7 bda5 e66f c43e 1113 0a3f
00000360: f0fb a53e 97ff f33e 1a4b 95bb e051 61bd
00000370: db51 4e3e 2362 ea3e efa1 9f3e ecd9 de3e
00000380: 8a78 903e 7a16 013f 6f78 813e a81d 1dbe
00000390: 9818 423e d352 f70e 4e92 b686 77d3 09be
000003a0: ed77 073f e288 0f9a b559 0f3f e7af f43e
000003b0: c061 063f 3df4 e23e b0c0 42be 0df6 60bd
000003c0: f87f c73e dd9b 063f cf51 cf3e 4425 db3e
000003d0: 6a80 623e f08e cd3e ebd2 833e bc2a 1dbe
000003e0: 103f e23e 205b ed0e cf49 3408 ed5d d5bd
000003f0: 30c9 a33e e4dd b527 db04 ee3e c5ca 5d3e
0.5298027 0.49808657 0.32601118 0.55955905 0.31330937 0.43385968 0.24969898 -0.15337388
0.40206072 6.4457294e-30 -6.878102e-35 -0.053289913 0.44685233 5.0361885e-22 0.36818874 0.42952847
0.4120458 0.38971937 -0.0060141403 -0.05490467 6.884195e-26 5.3569084e-25 -1.9187479e-33 -6.707824e-22
6.874153e-35 1.3641675e-20 -1.1482844e-33 -6.866128e-35 -1.9692436e-25 -6.8783225e-35 -6.8710113e-35 1.440016e-28
1.2433575e-21 -9.676033e-26 -3.7510036e-22 -5.995617e-20 -8.886836e-19 -7.5677206e-34 7.9368436e-26 6.866587e-35
0.41877115 0.22675204 0.25867042 0.4774244 0.34084177 0.52152616 0.22435649 -0.15384369
0.4996594 4.4659585e-30 6.878157e-35 0.1061799 0.43445864 -7.0452463e-22 0.3589364 0.17633651
0.40898073 0.38375935 -0.024314724 -0.05503216 0.5236873 0.42390803 0.42952594 0.6050663
0.34701753 0.43535864 0.24959278 -0.15314868 0.60156345 8.108796e-30 1.9896582e-31 0.009607315
0.31221232 -2.9415608e-18 0.3209336 0.5097415 0.2787169 0.4275834 -0.22177601 -0.054840248
-4.8135326e-33 6.875806e-35 -3.287539e-32 -6.874555e-35 -6.868773e-35 -6.627633e-32 2.7609212e-31 2.601666e-34
-1.8619866e-32 6.8727e-35 -6.872739e-35 -6.868587e-35 -6.876394e-35 6.866679e-35 -6.874741e-35 6.86765e-35
-3.4754492e-31 1.304799e-32 -6.871096e-35 9.037073e-32 0.18165193 0.2714927 0.2575216 0.40356925
0.2813573 0.54571176 0.30035564 -0.15337697 0.2946345 6.469685e-30 -6.876587e-35 -0.1829874
0.59652054 -1.3726924e-24 0.46666214 0.58341926 0.55716556 0.41748387 -0.18269737 -0.054901797
0.46806628 0.329234 0.3256135 0.20806955 0.28134656 0.31949103 0.24957424 -0.1533344
0.48131266 5.6546883e-30 6.86914e-35 -0.00868621 0.39451683 3.977901e-19 0.4457973 0.3666451
0.31427985 0.4765418 -0.014829701 -0.05489532 -0.00033250471 0.0012483386 -0.0013436046 0.00011968632
-0.0017100077 0.00046127045 -0.0021062286 0.06834647 0.0005728743 6.0090266e-32 6.8666216e-35 0.037056744
-8.492757e-05 2.8469422e-31 -6.265125e-05 -0.00068051217 -0.00017624092 -0.00039087507 0.07377008 0.06648645
-0.001452309 0.11362666 -0.012760422 -0.028787429 -0.061487846 0.04278476 -0.003323503 1.9878425e-32
0.024432722 -6.303551e-33 3.597026e-31 -5.7263175e-29 -0.16203709 -3.812444e-24 -0.01608014 0.09522771
0.034192644 -0.021377934 -6.6427083e-25 -6.878557e-35 -1.9315045e-19 3.193023e-18 -5.484412e-32 6.0949622e-24
-6.8710113e-35 -6.549886e-19 -6.868773e-35 -2.5480145e-32 1.1337096e-21 6.8663483e-35 3.1036143e-34 4.352352e-23
2.2148111e-23 -7.312318e-22 -1.4819696e-16 -5.0432352e-20 -2.6722016e-24 -6.866826e-35 1.4417473e-26 -6.8675766e-35
0.49638066 0.31186935 0.32886815 0.41874644 0.29247755 0.36958545 0.2506784 -0.1537547
0.37660196 4.9022583e-30 -6.871381e-35 -0.16009007 0.31959945 -3.2954275e-16 0.38366622 0.53935343
0.32418776 0.47655937 -0.004556072 -0.055009723 0.20148413 0.45777997 0.31178233 0.43525636
0.28216964 0.5042492 0.25287196 -0.15343344 0.18954694 6.0969958e-30 -6.8675766e-35 -0.13459574
0.5291737 -2.968228e-23 0.5599626 0.47790453 0.52492905 0.44326964 -0.19018817 -0.054922152
0.3896482 0.5258158 0.40492103 0.4280187 0.22119299 0.40148115 0.25746855 -0.15348333
0.44188738 5.851276e-30 5.425354e-34 -0.104183055 0.3198943 5.0478166e-15 0.4648808 0.21659382

layer2.bias f4 [15]
00000000: e86e 8e3e a841 ec19 8a80 8b3e 5b22 e73e
00000010: 32ab b686 53fb 123f b7f8 f93e 721d 7e3c
00000020: b325 fcbd dc5c 901a c1aa a93e d8d3 063f
00000030: 3b29 aa3e fb78 a393 6c96 0b3f
0.2781899 2.4428346e-23 0.27246505 0.451434 -6.871234e-35 0.5741474 0.48822567 0.01550995
-0.12311878 5.9707027e-23 0.33138087 0.52667 0.3323458 -4.126628e-27 0.545264

layer3.weight f4 [7, 15]
00000000: 8ade 1e3f 2108 a01a 78d1 913e c322 0f3f
00000010: dedf af0d f227 fd3e e1a7 203f 84b4 fdbc
00000020: b2c7 ed39 e352 db9c c520 463e d81d 083f
00000030: 46e5 f23e ff29 a690 0682 183f e040 c13e
00000040: 68aa 96a0 2bbe d63e ae31 203f 30e3 b686
00000050: 3bbc 133f d7ec b33e a9b3 fdbc 2d3d 2bba
00000060: 9501 3699 9980 ea3e 9ce5 013f c430 043f
00000070: 42b2 a690 35e9 a43e 9b52 83bd 2cca b686
00000080: 3910 91bb 5879 c3bd 665e 1588 a224 6fbc
00000090: 9e9a ba3d 5cb2 563b 10c9 b606 50d8 b606
000000a0: cafa c23d a8fe 8ebb 505b 8abb f2cd 940e
000000b0: 7fa7 873c be34 2cbb d0cc b686 f2eb 29bb
000000c0: b981 30bb 4e92 b606 e051 66bb 8901 37bd
000000d0: 786e d1b5 d3e9 2a91 ecbd b606 f60f 913d
000000e0: 731f 35bc 6c55 21bb faed c907 a5a6 1bbb
000000f0: 357f b23d 141d 8d1b 514d 38bd aff1 5ebd
00000100: f0df b686 1bf9 953d 2219 aabd 80bb 93b9
00000110: b246 389c 92f2 5297 9a86 96bd 7dfc a93d
00000120: 771c 8fbd 3289 b606 3754 643d 0e28 d83e
00000130: 2d15 6f9a f4eb bf3e 3e1c 0c3f 929e b686
00000140: 8c35 b33e 3b4b 023f 7fe1 fdbc 5392 cb39
00000150: e171 d597 3e40 003f 3ed4 9b3e 345b 9e3e
00000160: 8a01 9290 c6b8 e83e 0092 1bb6 4ea5 b686
00000170: 360f ecb5 5ae0 1fb6 0cd0 b606 4e76 dcb5
00000180: abe7 c8b5 ebed 9731 6fdb ac8b 0cd0 b606
00000190: 05f1 08b6 cfe7 dbb5 b22d d2b5 25a4 1c09
000001a0: 7083 f2b5
0.6205832 6.618758e-23 0.28480124 0.5591242 1.0839102e-30 0.49444538 0.6275616 -0.030969866
0.00045352947 -1.451363e-21 0.19348438 0.5317054 0.47440547 -6.554016e-29 0.595734 0.37744808
-2.5523754e-19 0.41941962 0.62575805 -6.8794613e-35 0.5770909 0.35141632 -0.030969458 -0.0006532248
-9.409499e-24 0.45801237 0.5074098 0.5163691 -6.5750105e-29 0.32209173 -0.0641224 -6.8757856e-35
-0.0044269827 -0.09544629 -4.494902e-34 -0.014596136 0.09111522 0.003276012 6.8756226e-35 6.8778634e-35
0.095204905 -0.0043638535 -0.004222311 3.6683135e-30 0.01655936 -0.0026276554 -6.8761736e-35 -0.0025927988
-0.002693279 6.8675766e-35 -0.0035144016 -0.0446792 -1.5603864e-06 -1.3482688e-28 6.8739856e-35 0.070831224
-0.011054861 -0.0024617566 3.0382989e-34 -0.002375045 0.08715669 2.3345285e-22 -0.04499561 -0.054429706
-6.878984e-35 0.07322904 -0.08305575 -0.00028177723 -6.0971865e-22 -6.8160826e-25 -0.07349892 0.083001114
-0.06987851 6.866238e-35 0.055744376 0.4221806 -4.9441147e-23 0.37484705 0.54730594 -6.869379e-35
0.3500179 0.5089604 -0.030991314 0.00038828197 -1.3793549e-24 0.50098026 0.30435365 0.30928957
-5.758922e-29 0.4545347 -2.3181783e-06 -6.8703684e-35 -1.7587797e-06 -2.3823436e-06 6.876649e-35 -1.6425709e-06
-1.4968585e-06 4.4217265e-09 -6.658216e-32 6.876649e-35 -2.040587e-06 -1.6384237e-06 -1.5659518e-06 1.8854997e-33
-1.8068658e-06

layer3.bias f4 [7]
00000000: ca99 ea3e 9e8a 883e 58d6 f9b8 ee84 07bd
00000010: d0a2 34be 7357 ae3e beda f533
0.45820457 0.26668257 -0.0001191317 -0.033085756 -0.17640233 0.34051093 1.14484905e-07

layer4.weight f4 [1, 7]
00000000: 3b9a 3c3f 5127 3d3f 9849 cdbc cb5a a439
00000010: 52a4 a439 cdf7 283f 93a1 83b7
0.73672837 0.7388812 -0.025059506 0.00031348164 0.00031402946 0.66003114 -1.5691656e-05
