weights/mape_norm_eth_lstm.pth (torch_old, 22988 bytes, 11 tensors)

lstm.weight_ih_l0 f4 [92, 23]
0.10310161 0.07330095 0.18697755 0.03472908 -0.031084614 0.1606444 0.20067626 -0.11328473
-0.050039463 -0.106879234 0.026197737 0.092366256 -0.09747952 -0.036992624 0.16121134 0.1723017
-0.044488583 -0.007076481 -0.1484342 -0.15384306 -0.028334837 0.12562561 -0.06286689 -0.14923148
0.0128669 0.03163275 -0.020666894 0.1370968 0.04085187 -0.10035254 0.12778422 0.0106540555
0.024743618 -0.20125946 -0.2011319 -0.14631261 0.18879797 -0.09093095 0.16595504 0.10772472
-0.20555523 0.04976832 -0.22305669 -0.087003745 0.2014914 0.19127902 -0.18605356 -0.08824434
0.10176101 0.14240888 -0.014232209 0.0067138504 0.19961452 -0.093991786 -0.16686608 0.063126326
-0.11278616 0.03197801 -0.15927017 0.21245337 0.20286508 0.11071566 0.06726902 -0.059326533
-0.013068238 -0.0035844257 0.17715397 0.032961126 -0.109713905 0.1324566 0.2214234 -0.1089025
-0.08056407 0.22184606 -0.12340178 0.18574631 -0.06250133 0.15950108 0.10824759 -0.11682904
-0.16917166 -0.079379916 -0.1377688 0.1470391 -0.0314216 0.23753533 0.16904084 -0.01285754
-0.09147456 -0.080489144 -0.12031395 -0.10402475 -0.11600169 0.122351006 -0.008265242 0.13413899
0.10841466 -0.120382875 0.11046561 0.12687321 0.09014866 0.05838929 0.14971708 -0.17103283
0.18088736 0.08953404 0.0059865764 0.1383952 -0.015188112 -0.09207468 -0.04021745 -0.19931519
0.07590463 0.07217983 -0.14160776 -0.077805385 -0.009445893 0.062142853 0.1575264 0.04330854
-0.1790386 0.07480057 0.02839072 0.13857077 -0.08796713 0.040010057 -0.19797917 0.120582476
0.16503575 0.058446683 0.12942693 0.036329783 -0.18973187 -0.17757776 -0.04274158 -0.10034666
0.05785224 -0.013578973 -0.0224259 0.115314536 -0.10229134 -0.10500152 0.08245024 0.01607007
0.00019453016 -0.045089237 -0.008044155 0.19561976 0.02129534 0.20091626 -0.024326418 0.042799167
0.08269287 0.20045635 0.18234459 0.18001607 -0.029483553 -0.08601726 -0.15928137 -0.1795864
-0.12722118 0.14583239 -0.0148539785 0.01652538 0.1654277 -0.10281402 0.21304123 -0.13070159
0.07176157 -0.029617613 -0.102873296 -0.08313423 0.17197229 0.16538975 0.14246157 -0.1060169
-0.075870454 -0.21056238 -0.057117283 0.21091293 0.14830126 0.031011662 -0.06547802 -0.12579522
-0.17808026 -0.0801308 0.14831677 -0.14327542 -0.16372639 0.0718108 0.16468999 0.07271243
0.16476084 -0.13219452 0.040451508 0.17259212 0.14280266 -0.0013769642 -0.037156627 -0.06963424
-0.11309217 -0.008091032 -0.18118206 0.01736712 0.011355537 -0.18087986 0.18598533 0.06795622
0.2055097 0.013372048 -0.011125155 -0.0745597 0.031179132 0.14350888 0.22784312 0.13493155
-0.026170557 0.020777695 -0.096919276 0.059833873 -0.004906299 -0.13887008 0.082060225 -0.11983918
-0.001283051 0.24470855 -0.07997974 -0.09476682 0.03660846 0.015530707 0.06989196 0.041557163
-0.092024304 -0.043247923 0.21882278 0.009527028 -0.029928615 -0.05304652 0.12860076 0.10152701
0.099238336 -0.14144425 -0.10442095 0.21391928 0.1319842 0.04946962 -0.07723585 -0.155919
-0.005920527 0.10308027 0.15185764 0.11867605 0.10519477 -0.1573676 -0.16787119 -0.014561761
00000000: f026 d33d cf1e 963d 0b77 3f3e 1440 0e3d
00000010: 29a5 febc f77f 243e 147e 4d3e d301 e8bd
00000020: 2ef6 4cbd 80e3 dabd a39c d63c 852a bd3d
00000030: 58a3 c7bd 9485 17bd 9614 253e db6f 303e
00000040: a939 36bd d3e1 e7bb 23ff 17be 0989 1dbe
00000050: 761e e8bc 00a4 003e 5bc0 80bd 23d0 18be
00000060: b1cf 523c 5891 013d 9e4d a9bc 1b63 0c3e
00000070: 4a54 273d a285 cdbd ded9 023e 598e 2e3c
00000080: 21b3 ca3c f616 4ebe 85f5 4dbe f9d2 15be
00000090: 4154 413e 023a babd 1ef0 293e c79e dc3d
000000a0: 127d 52be ded9 4b3d f968 64be 052f b2bd
000000b0: c353 4e3e a6de 433e d384 3ebe 73b9 b4bd
000000c0: 1468 d03d a2d3 113e 362e 69bc dcff db3b
000000d0: c067 4c3e c47e c0bd f1de 2abe 6048 813d
000000e0: 6efc e6bd 60fb 023d b817 23be 608d 593e
000000f0: ddbb 4f3e e4be e23d 57c4 893d 6100 73bd
00000100: 2a1c 56bc afe8 6abb da67 353e 3f02 073d
00000110: afb1 e0bd b4a2 073e d1bc 623e 4608 dfbd
00000120: c6fe a4bd 9d2b 633e 13ba fcbd 4834 3e3e
00000130: b300 80bd 4054 233e eab0 dd3d 1044 efbd
00000140: 563b 2dbe f091 a2bd 4413 0dbe 6b91 163e
00000150: f0b3 00bd 763c 733e 0b19 2d3e 6ea8 52bc
00000160: 0457 bbbd 7ed7 a4bd 2967 f6bd ee0a d5bd
00000170: 4b92 edbd 2a93 fa3d f06a 07bc bb5b 093e
00000180: 8108 de3d 4c8b f6bd cb3b e23d 0deb 013e
00000190: dc9f b83d 9c29 6f3d 6f4f 193e 3b23 2fbe
000001a0: 893a 393e 9f5d b73d 0b2b c43b 79b7 0d3e
000001b0: 8fd7 78bc a691 bcbd 0ebb 24bd 4819 4cbe
000001c0: e373 9b3d 05d3 933d a001 11be 6e58 9fbd
000001d0: f2c2 1abc 8189 7e3d 9a4e 213e 4c64 313d
000001e0: e555 37be 0b31 993d a893 e83c 7fe5 0d3e
000001f0: 1c28 b4bd 96e1 233d 0dbb 4abe f2f3 f63d
00000200: 22ff 283e ca65 6f3d 7e88 043e 8ace 143d
00000210: 1249 42be f2d6 35be cc11 2fbd 8d82 cdbd
00000220: 78f6 6c3d 577a 5ebc 85b6 b7bc 072a ec3d
00000230: 1f7e d1bd 090b d7bd acdb a83d 61a5 833c
00000240: cbfa 4b39 7eaf 38bd a2cb 03bc 8c50 483e
00000250: 9173 ae3c febc 4d3e 3248 c7bc 2e4e 2f3d
00000260: e15a a93d 6e44 4d3e 8ab8 3a3e 2256 383e
00000270: 7e87 f1bc d129 b0bd a81a 23be 7fe5 37be
00000280: 4546 02be 1655 153e 1a5e 73bc 3c60 873c
00000290: e165 293e 2890 d2bd 7b27 5a3e a3d6 05be
000002a0: bbf7 923d a3a0 f2bc 3caf d2bd 4742 aabd
000002b0: 8119 303e ee5b 293e 72e1 113e 631f d9bd
000002c0: f861 9bbd aa9d 57be d0f3 69bd 8ff9 573e
000002d0: 49dc 173e 2b0c fe3c 5719 86bd 76d0 00be
000002e0: ac5a 36be 9e1b a4bd 5ae0 173e cbb6 12be
000002f0: e4a7 27be 8a11 933d 7ea4 283e 41ea 943d
00000300: 11b7 283e 005e 07be 7bb0 253d fdbb 303e
00000310: dc3a 123e 407b b4ba 8c31 18bd 659c 8ebd
00000320: de9c e7bd 3f90 04bc ca87 39be 7e45 8e3c
00000330: 930c 3a3c 9238 39be f072 3e3e a12c 8b3d
00000340: 2371 523e 6f16 5b3c 4846 36bc c2b2 98bd
00000350: 616b ff3c fef3 123e b54f 693e 7f2b 0a3e
00000360: a363 d6bc fc35 aa3c 9d7d c6bd 5d14 753d
00000370: 05c5 a0bb f533 0ebe 310f a83d 3e6e f5bd
00000380: 0c2c a8ba e194 7a3e 6bcc a3bd 1b15 c2bd
00000390: c1f2 153d 8274 7e3c 8423 8f3d d837 2a3d
000003a0: 3d77 bcbd bc24 31bd 1413 603e 4017 1c3c
000003b0: db2c f5bc 4f47 59bd ebaf 033e 65ed cf3d
000003c0: 783d cb3d c3d6 10be a7da d5bd a80d 5b3e
000003d0: de26 073e a8a0 4a3d d42d 9ebd 3ba9 1fbe
000003e0: fb00 c2bb c01b d33d 9280 1b3e 6e0c f33d
000003f0: 5b70 d73d f924 21be 6de6 2bbe 7494 6ebc

lstm.weight_hh_l0 f4 [92, 23]
0.030082196 0.185057 0.12910973 0.17762178 -0.034404222 0.15224566 0.20469409 -0.18683821
0.21925637 -0.07576709 0.23745641 -0.0048071267 0.023307277 -0.0428965 -0.04959262 -0.049155798
-0.12706903 -0.15658642 0.041684628 0.016724793 0.12778905 0.2527126 0.08259891 0.1298408
0.1823599 -0.06332355 0.18354677 0.18285218 -0.078723885 -0.16338156 0.029177167 -0.06410718
-0.13818079 0.07722439 -0.17651695 0.12139146 0.06203168 -0.20936583 0.12816557 -0.092943065
0.046634637 -0.04651593 -0.114006594 0.016161062 0.08365214 -0.123589255 -0.09015571 0.05193441
0.15323378 -0.14462075 -0.16190414 0.06732643 0.09628353 0.060886588 -0.094229735 0.20891236
0.18499148 0.18889455 -0.115790784 -0.0013482397 -0.004883249 -0.09439275 0.16820283 0.00018268444
0.14196068 -0.022392917 -0.16004942 -0.08272703 0.035676874 -0.10458965 -0.04349846 0.0782008
-0.03412807 -0.25853792 -0.18787722 -0.08882951 -0.18957926 -0.23900789 0.14258082 0.14162692
-0.12246462 -0.06235632 -0.14103748 -0.14922237 -0.19237842 -0.16576509 0.12714705 0.012212458
0.089173004 0.1584736 0.059943162 -0.15117754 0.028286474 0.027631197 -0.09590811 0.05984609
-0.057775788 0.1172721 -0.050251663 -0.17076139 -0.21776819 0.092535414 0.044353627 0.10049073
-0.07779077 -0.10045796 -0.01035319 -0.25897086 0.08710048 -0.07384818 -0.05694586 0.0734867
-0.10686481 -0.03980175 0.026029246 0.17890097 0.03464565 -0.25036922 -0.24724723 -0.19207379
0.16084643 -0.1305252 -0.029508688 -0.15065657 -0.20391324 0.06216607 -0.094583854 0.041467484
0.17211702 -0.20084855 0.051882137 -0.029021287 -0.17699623 -0.009836189 0.051057238 -0.1672047
0.103159755 0.15466878 -0.09015152 -0.090684816 -0.083112806 0.087334916 0.18720818 0.009323105
0.23737457 0.21804672 -0.10732632 0.24318345 -0.12742326 0.04611252 -0.026277248 0.045091074
-0.015751416 -0.11598978 0.12361804 -0.023302842 -0.09101538 -0.08013619 0.19315286 -0.17017016
0.13247423 0.10161308 0.10713396 -0.09520946 0.097806215 -0.08515097 0.13129145 0.17048824
-0.013634951 -0.022422958 -0.15121454 0.04102328 0.19666179 -0.03276558 0.08425816 -0.007702546
0.12424681 0.11524241 0.1155192 0.04221858 -0.03513523 0.14042272 0.13958877 -0.1491153
0.20342821 -0.1744896 -0.05344237 0.030325817 0.17705494 -0.18661694 -0.19000708 0.060289755
0.15875319 0.11679804 0.08603313 0.12788802 -0.06619097 -0.1023817 0.15488487 0.06861883
0.019675413 -0.02693647 -0.11615683 0.045564413 -0.027752358 -0.0861219 -0.05759788 -0.09582331
-0.065564424 -0.013483643 0.011183619 -0.17308578 0.21853246 0.120296046 0.18091199 0.068784304
-0.048244774 0.19845255 0.1660938 -0.06953085 -0.14027542 0.1978279 -0.0496517 -0.05343513
-0.16426624 -0.041102156 0.059366487 0.20080693 0.08204492 -0.029783634 0.16471264 -0.13454732
-0.21034177 -0.16945933 0.068080075 0.13901289 -0.038169976 -0.06135756 -0.11415469 -0.16286905
0.15137577 -0.12838393 0.08551526 0.19185165 0.1464868 0.111277185 0.15295245 0.029398227
-0.0126404045 0.10930968 -0.003572096 0.04093275 -0.0021447313 0.044965908 0.038725838 0.06032548
00000000: f06e f63c 957f 3d3e 5735 043e 7ce2 353e
00000010: 71eb 0cbd 49e6 1b3e 549b 513e 8452 3fbe
00000020: be84 603e c72b 9bbd c627 733e 1a85 9dbb
00000030: e7ee be3c 3eb4 2fbd a221 4bbd 9757 49bd
00000040: 621e 02be 3158 20be 80bd 2a3d 6f02 893c
00000050: 22db 023e 8c63 813e 9e29 a93d fdf4 043e
00000060: 8ebc 3a3e c7af 81bd aff3 3b3e 9a3d 3b3e
00000070: fd39 a1bd 7f4d 27be f404 ef3c a04a 83bd
00000080: 447f 0dbe d227 9e3d dcc0 34be 169c f83d
00000090: ee14 7e3d ff63 56be d63d 033e ef58 bebd
000000a0: f603 3f3d 7d87 3ebd 4a7c e9bd 3464 843c
000000b0: d051 ab3d 5d1c fdbd 8fa3 b8bd 2db9 543d
000000c0: 51e9 1c3e 7617 14be 33ca 25be 70e2 893d
000000d0: 4d30 c53d 3764 793d 85fb c0bd 1fed 553e
000000e0: 686e 3d3e 936d 413e b823 edbd 6bb7 b0ba
000000f0: a903 a0bb fc50 c1bd 5d3d 2c3e fb8e 3f39
00000100: 245e 113e 5a71 b7bc ffe3 23be ca6c a9bd
00000110: ea21 123d 1933 d6bd 712b 32bd be27 a03d
00000120: e0c9 0bbd 155f 84be e362 40be 3fec b5bd
00000130: 1121 42be 7cbe 74be b500 123e a606 113e
00000140: bbce fabd 5769 7fbd 216c 10be c0cd 18be
00000150: d9fe 44be 53be 29be d632 023e c316 483c
00000160: 56a0 b63d e746 223e f686 753d 49ce 1abe
00000170: 09b9 e73c d25a e23c 796b c4bd 2c21 753d
00000180: 4ea6 6cbd 5b2c f03d b0d4 4dbd 13dc 2ebe
00000190: a0fe 5ebe 3583 bd3d 26ac 353d 15ce cd3d
000001a0: c450 9fbd e7bc cdbd 6da0 29bc d497 84be
000001b0: bd61 b23d b73d 97bd 1040 69bd 3280 963d
000001c0: f0db dabd 2907 23bd 493b d53c d131 373e
000001d0: 99e8 0d3d 6530 80be 612e 7dbe feae 44be
000001e0: edb4 243e 66a8 05be 34bc f1bc b745 1abe
000001f0: a2ce 50be d9a1 7e3d 2eb5 c1bd cfd9 293d
00000200: 723f 303e 3eab 4dbe 5d82 543d 0dbe edbc
00000210: 803e 35be f827 21bc 6521 513d b537 2bbe
00000220: 6c45 d33d 7e61 1e3e 5ca1 b8bd f6b8 b9bd
00000230: 0c37 aabd a6dc b23d 80b3 3f3e f0bf 183c
00000240: 5212 733e a447 5f3e e7cd dbbd 1505 793e
00000250: 3e7b 02be 7be0 3c3d 6243 d7bc 6bb1 383d
00000260: 1d09 81bc 0d8c edbd 742b fd3d 9ae5 bebc
00000270: 4666 babd 711e a4bd ddc9 453e 1641 2ebe
00000280: 53a7 073e 851a d03d 0d69 db3d 2dfd c2bd
00000290: a04e c83d a263 aebd 4471 063e 7894 2e3e
000002a0: 2165 5fbc 5ab0 b7bc fcd7 1abe 0708 283d
000002b0: b561 493e 3335 06bd 8b8f ac3d a465 fcbb
000002c0: 1d75 fe3d 3604 ec3d 5595 ec3d 64ed 2c3d
000002d0: f5e9 0fbd f9ca 0f3e 5cf0 0e3e aeb1 18be
000002e0: 7c4f 503e 67ad 32be 63e6 5abd d96d f83c
000002f0: e44d 353e 8318 3fbe 3791 42be 64f2 763d
00000300: 3290 223e d033 ef3d 2332 b03d 14f5 023e
00000310: 228f 87bd 7fad d1bd 249a 1e3e 0788 8c3d
00000320: 552e a13c dfa9 dcbc a2e3 edbd c0a1 3a3d
00000330: ea58 e3bc ae60 b0bd c1eb 6bbd 033f c4bd
00000340: a446 86bd 7fea 5cbc 7f3b 373c 663d 31be
00000350: f9c6 5f3e c65d f63d fe40 393e c9de 8c3d
00000360: 509c 45bd 2537 4b3e 7e14 2a3e 3166 8ebd
00000370: 5ca4 0fbe 6693 4a3e 955f 4bbd cbde 5abd
00000380: 6935 28be bc5a 28bd 462a 733d 55a0 4d3e
00000390: 2b07 a83d cffc f3bc 6eaa 283e c6c6 09be
000003a0: d563 57be bf86 2dbe 916d 8b3d 6559 0e3e
000003b0: 1f58 1cbd 1152 7bbd efc9 e9bd 25c7 26be
000003c0: 4002 1b3e 1477 03be a022 af3d c274 443e
000003d0: a300 163e 4be5 e33d 919f 1c3e 8dd4 f03c
000003e0: b319 4fbc c1dd df3d d319 6abb 19a9 273d
000003f0: 9f8e 0cbb 2c2e 383d fc9e 1e3d da17 773d

lstm.bias_ih_l0 f4 [92]
-0.16690545 0.16558021 0.039195526 -0.015909785 0.16780698 -0.14879255 4.7157915e-05 0.002226181
-0.20308858 -0.0153633375 -0.0013438679 0.073418856 -0.026098179 0.14152746 -0.15852569 -0.25060707
0.13555983 0.024067067 -0.13219017 0.057148222 0.16517535 0.054982446 -0.050680865 -0.15798636
0.14042625 -0.07370639 0.19475214 0.23811935 0.1637593 0.09224807 -0.10662886 0.0021528536
0.12947062 0.11255343 -0.08993825 0.11283179 0.12786211 0.18684553 -0.068420924 -0.12411399
-0.107987255 -0.13914685 0.117538385 0.021799248 -0.01386491 -0.021049824 0.14018202 0.18043765
0.077918775 -0.18662 0.16669224 -0.120940745 -0.14461854 -0.1915241 -0.120904386 -0.08133442
-0.002027542 0.03307602 -0.07714231 -0.038219623 -0.0135041755 0.15249719 0.18467945 -0.2584964
-0.03875067 -0.028099725 -0.0066226567 0.029408917 0.19717745 -0.15907088 0.16284436 0.150807
-0.068943955 0.045275062 -0.13024877 -0.0073286374 -0.14714967 0.030114641 0.120389596 0.21409518
0.18650436 0.15187745 -0.13472661 0.122946516 0.0066379556 0.15240261 -0.063627616 0.07317833
-0.032653287 -0.05539745 0.0038290683 0.019855587
00000000: 43e9 2abe dc8d 293e 7d8b 203d 3d55 82bc
00000010: 98d5 2b3e 135d 18be 6dcb 4538 1fe5 113b
00000020: 74f6 4fbe 82b6 7bbc b924 b0ba a05c 963d
00000030: d9cb d5bc 93ec 103e 8f54 22be 924f 80be
00000040: 32d0 0a3e 4c28 c53c dc5c 07be 4114 6a3d
00000050: ba23 293e 4635 613d bd96 4fbd 2dc7 21be
00000060: e6cb 0f3e 60f3 96bd 1b6d 473e 8fd5 733e
00000070: 85b0 273e 8eec bc3d 3b60 dabd e416 0d3b
00000080: f293 043e 6a82 e63d 8c31 b8bd 5a14 e73d
00000090: 49ee 023e 6f54 3f3e 4520 8cbd 7a2f febd
000000a0: 6c28 ddbd 837c 0ebe f7b7 f03d 5694 b23c
000000b0: a629 63bc ae70 acbc e08b 0f3e a6c4 383e
000000c0: e193 9f3d 5019 3fbe 5fb1 2a3e c8af f7bd
000000d0: e216 14be e51e 44be b89c f7bd a992 a6bd
000000e0: 83e0 04bb b97a 073d cafc 9dbd 2e8c 1cbd
000000f0: 9e40 5dbc 3928 1c3e 9c1c 3d3e a459 84be
00000100: 06b9 1ebd 6531 e6bc df02 d9bb f8ea f03c
00000110: e3e8 493e 7ae3 22be acc0 263e 266d 1a3e
00000120: 7d32 8dbd 5872 393d ef5f 05be 1125 f0bb
00000130: 67ae 16be fbb2 f63c d28e f63d c43b 5b3e
00000140: 00fb 3e3e c385 1b3e c6f5 09be 62cb fb3d
00000150: 3583 d93b 6e0f 1c3e 324f 82bd 85de 953d
00000160: 74bf 05bd 70e8 62bd 1bf1 7a3b 2fa8 a23c

lstm.bias_hh_l0 f4 [92]
0.030246204 -0.08128796 -0.009696694 0.13928069 -0.08897402 -0.09131842 -0.029547088 0.008658972
0.047619693 -0.06665465 -0.1572129 0.17062967 -0.20284772 -0.03324002 0.04022745 -0.06354643
-0.14793578 -0.03910495 0.033471335 0.17273007 -0.062551 -0.10056289 0.05640102 -0.046795096
0.1761504 -0.08182344 0.18271111 -0.17495175 0.23080505 0.09871907 0.046312936 0.16151007
0.03382285 0.0768553 -0.041835617 0.11365063 -0.12650855 0.05688568 0.04168214 -0.18363962
0.05952836 -0.0377695 -0.08456747 -0.14230424 -0.07615853 0.008821834 0.079980865 -0.018959785
-0.019003907 -0.15159652 0.1355887 -0.107553184 0.061752327 -0.11387147 0.12717691 0.024788791
0.09181158 -0.108072385 0.103829585 -0.14399372 0.15250582 -0.06988016 -0.10864174 -0.027938478
0.1057869 -0.049910583 -0.11038681 -0.12399313 -0.116541594 0.08628914 -0.17184073 0.14933375
0.28132343 -0.098825425 0.19872297 -0.07121007 -0.16496824 0.19223563 0.21410464 -0.17753793
0.0023022194 -0.12846242 0.13706528 -0.0701539 0.060676817 0.0028182454 0.26249546 0.20316845
-0.0072189444 -0.0021934775 0.039921217 -0.1444013
00000000: e3c6 f73c 4d7a a6bd e2de 1ebc 999f 0e3e
00000010: 0338 b6bd 2705 bbbd bc0c f2bc 5cde 0d3c
00000020: de0c 433d 3c82 88bd 6bfc 20be 8bb9 2e3e
00000030: 50b7 4fbe b026 08bd 8ac5 243d a124 82bd
00000040: 7a7c 17be 832c 20bd 3d19 093d 27e0 303e
00000050: bd1a 80bd ebf3 cdbd c204 673d 37ac 3fbd
00000060: c560 343e 0c93 a7bd 9f18 3b3e 8d26 33be
00000070: 2958 6c3e 392d ca3d a2b2 3d3d e562 253e
00000080: d489 0a3d 5066 9d3d d35b 2bbd a9c1 e83d
00000090: 758b 01be f500 693d e4ba 2a3d 060c 3cbe
000000a0: 02d4 733d 31b4 1abd b631 adbd 34b8 11be
000000b0: 01f9 9bbd 7489 103c 02cd a33d 8d51 9bbc
000000c0: 15ae 9bbc 1e3c 1bbe c4d7 0a3e d844 dcbd
000000d0: 02f0 7c3d 7235 e9bd aa3a 023e dd11 cb3c
000000e0: b607 bc3d 0e55 ddbd 9ba4 d43d 1773 13be
000000f0: 7c2a 1c3e 541d 8fbd 907f debd 3cdf e4bc
00000100: cda6 d83d 0a6f 4cbd 7b12 e2bd 1cf0 fdbd
00000110: 5cad eebd 5cb8 b03d 04f7 2fbe f2ea 183e
00000120: a009 903e fc64 cabd 097e 4b3e 96d6 91bd
00000130: 6fed 28be 6bd9 443e 3f3e 5b3e 81cc 35be
00000140: d5e0 163b a78b 03be d75a 0c3e d9ac 8fbd
00000150: 4188 783d 50b2 383b ce65 863e 640b 503e
00000160: e58c ecbb 72c0 0fbb 6e84 233d efdd 13be

layer1.weight f4 [20, 23]
0.033086963 0.101710565 6.868587e-35 -5.2070387e-34 0.040981352 -0.17718667 0.27484274 0.055385254
-0.036013994 0.11970726 0.020616509 0.27068532 0.12382622 0.3096768 0.11898849 -0.23067433
0.07571825 2.8583851e-33 0.053538613 -0.100073904 -0.06324473 0.02861979 0.004928821 0.22922325
0.067010924 6.8710113e-35 -1.4073583e-27 -0.0072049284 -0.028477674 0.081259005 -0.08683003 -0.048675947
0.12980686 0.042682692 0.12252786 0.059674427 0.17093219 0.008972862 -0.19380534 0.2306103
-1.127457e-31 0.14073266 0.23804241 -0.102329746 0.07167429 0.17498682 0.18908316 -0.2142075
-6.868736e-35 -2.5848515e-33 -0.013665541 -0.15391074 0.12484006 -0.0101924185 -0.052463517 0.12572105
0.23296008 0.0817989 0.2048249 0.28614333 0.10535886 -0.12675714 0.14505748 -6.875953e-35
0.24637343 0.13830455 0.22132282 0.17879158 -0.004119172 6.872718e-35 -7.1299495e-35 -6.878249e-35
6.8674297e-35 -6.872057e-35 -5.8398766e-34 6.8710113e-35 -5.434818e-34 -6.868734e-35 -1.5208753e-34 -5.200148e-34
-4.9155565e-34 -2.9406858e-34 -6.873765e-35 -7.20322e-34 -1.0756952e-34 -3.4773488e-34 -6.866897e-35 -4.2526924e-34
-6.8740774e-35 -2.1475437e-34 -6.8734897e-35 -6.875806e-35 0.053863317 0.08830067 -6.8679256e-35 4.7575536e-32
0.031115992 -0.13312346 0.09905159 0.09772412 0.06060137 -0.094900295 -0.035178825 0.060779918
0.052451238 -0.19276768 -0.14300396 0.13942173 0.015389931 9.498982e-33 -0.05752929 0.053341407
0.13019265 -0.13663563 -0.074669495 0.09436949 -0.048841245 3.754212e-33 -5.756476e-30 0.020362908
-0.21286425 0.06319195 -0.05710149 -0.03461704 -0.05397754 -0.073175125 0.16897945 -0.040302914
0.31238082 0.17502594 0.10595399 0.19245341 1.353812e-32 0.16571684 0.17703895 0.012074366
0.0052068504 0.13639298 0.10517819 -0.010077829 6.877588e-35 -6.4940687e-28 -0.06496523 0.004916299
-0.15950362 0.096690506 0.042886436 -0.102624364 0.10222764 0.030180717 0.11572706 -0.1217415
-0.15981624 0.26607528 -0.008683069 -7.590537e-33 0.045555294 -0.06615567 0.07997207 -0.04511583
-0.023162816 0.2085895 -0.16674654 -6.8777164e-35 1.0293246e-26 -0.06345637 -0.0409978 0.19569187
-0.036323458 -0.031030599 0.14482006 -0.046544977 0.26695076 0.23898713 0.023464067 0.24038343
-0.002837787 -0.12022033 1.33089645e-33 0.09490655 0.31036484 0.056480538 0.29589993 0.12480154
0.2033494 -0.1024102 6.8794613e-35 1.5099668e-25 -0.013570699 -0.045439452 -0.024650017 -0.107862964
-0.06690046 0.18875508 0.25248143 0.27371785 0.2979494 0.25325346 0.19613226 -0.18426673
-0.049243405 1.5153431e-27 0.016119258 0.2571088 0.01972687 0.08162733 0.28919655 0.3056155
-0.22927575 -6.8708115e-35 -5.2074462e-33 -0.01428065 -0.23437914 0.2644418 0.027740903 -0.03504349
-0.06879109 0.025473531 0.016962595 0.044699896 0.17790808 0.13700287 -0.22449349 0.038367186
-6.874851e-35 0.1751569 0.03138457 -0.0151388 0.30394518 0.21679415 0.16678996 0.08693908
3.978087e-33 1.2965615e-29 0.0047415188 0.057497088 0.016502079 0.15110776 0.06688807 -0.04404174
0.057449486 -0.20203732 -0.028413283 -0.036097113 -0.18932906 -0.11454585 -0.0091061145 -6.871583e-35
-0.213385 -0.08214955 0.031754218 -0.08034502 -0.0065903226 0.30227384 -0.043272454 -2.1088414e-32
00000000: 3286 073d a14d d03d 2e99 b606 9608 2d88
00000010: 10dc 273d 6c70 35be 30b8 8c3e a6db 623d
00000020: 6983 13bd 1429 f53d f4e3 a83c 4497 8a3e
00000030: 9a98 fd3d f58d 9e3e 3db0 f33d e435 6cbe
00000040: 2b12 9b3d 2177 6d09 4e4b 5b3d 8cf3 ccbd
00000050: 7486 81bd 0d74 ea3c f381 a13b 80b9 6a3e
00000060: 063d 893d aea9 b606 3c01 df92 5217 ecbb
00000070: 034a e9bc 1f6b a63d f1d3 b1bd 6e60 47bd
00000080: 17ec 043e 0cd4 2e3d e3ef fa3d 2c6d 743d
00000090: d908 2f3e e902 133c e874 46be 1b25 6c3e
000000a0: 2f5a 128c 391c 103e 64c1 733e 4292 d1bd
000000b0: f8c9 923d bf2f 333e 049f 413e 3659 5bbe
000000c0: 329a b686 b6bd 5689 6fe5 5fbc c79a 1dbe
000000d0: 25ac ff3d 1afe 26bc fce3 56bd 05bd 003e
000000e0: 168d 6e3e 2f86 a73d 9ebd 513e 6181 923e
000000f0: 63c6 d73d a0cc 01be f389 143e 50cb b686
00000100: 5149 7c3e b59f 0d3e 73a2 623e 2415 373e
00000110: 1ffa 86bb 4cb5 b606 ec8b bd86 f0da b686
00000120: 4e91 b606 ccb0 b686 2d10 4288 aea9 b606
00000130: 519a 3488 2e9a b686 b428 4a87 f7cd 2c88
00000140: ee58 2388 2d71 c387 6cbc b686 385e 6f88
00000150: 03fc 0e87 061c e787 ae8d b686 e851 0d88
00000160: 8cbe b686 90ba 8e87 8cba b686 50ca b686
00000170: c89f 5c3d fbd6 b43d ae94 b686 bc06 770b
00000180: f7e6 fe3c 8451 08be 8fdb ca3d 9523 c83d
00000190: 2439 783d 165b c2bd ac17 10bd 5df4 783d
000001a0: 1cd7 563d e464 45be a16f 12be 92c4 0e3e
000001b0: 0d26 7c3c 4049 450a d5a3 6bbd 857c 5a3d
000001c0: 3951 053e 36ea 0bbe 52ec 98bd cb44 c13d
000001d0: c20d 48bd a1f1 9b09 aa82 e98e 1dd0 a63c
000001e0: 16f9 59be c86a 813d 41e3 69bd 99ca 0dbd
000001f0: 8e17 5dbd d7dc 95bd f308 2d3e ab14 25bd
00000200: 61f0 9f3e 003a 333e 68fe d83d 8212 453e
00000210: 7f96 8c0a adb1 293e b349 353e 90d3 453c
00000220: 3a9e aa3b 9aaa 0b3e aa67 d73d 7a1d 25bc
00000230: 70d6 b606 25ce 4d92 7e0c 85bd e818 a13b
00000240: eb54 23be ac05 c63d b0a9 2f3d b92c d2bd
00000250: ba5c d13d 8d3d f73c 4f02 ed3d 9c53 f9bd
00000260: dea6 23be 053b 883e 6e43 0ebc 38a6 1d8a
00000270: 3098 3a3d a07c 87bd 66c8 a33d 60cb 38bd
00000280: f2bf bdbc 7c98 553e 9bbf 2abe 50d7 b686
00000290: f5e0 4b14 6af5 81bd 4fed 27bd 7363 483e
000002a0: e8c7 14bd e233 febc b64b 143e f2a5 3ebd
000002b0: c5ad 883e 0bb9 743e b737 c03c 1327 763e
000002c0: 2afa 39bb 1436 f6bd 1322 dd08 5e5e c23d
000002d0: 24e8 9e3e 2358 673d 3280 973e f397 ff3d
000002e0: d33a 503e 70bc d1bd 30e3 b606 c2ec 3a16
000002f0: a357 5ebc b81e 3abd d5ee c9bc 42e7 dcbd
00000300: 1c03 89bd 0349 413e 3f45 813e bf24 8c3e
00000310: d38c 983e 70aa 813e e5d6 483e 6bb0 3cbe
00000320: 74b3 49bd 9e1d f012 890c 843c c4a3 833e
00000330: 3f9a a13c 3b2c a73d 9211 943e a379 9c3e
00000340: 43c7 6abe 52a8 b686 114f d889 63f9 69bc
00000350: 1601 70be ea64 873e e440 e33c c389 0fbd
00000360: 58e2 8cbd dead d03c 24f5 8a3c 3d17 373d
00000370: 892d 363e 7b4a 0c3e 9fe1 65be e926 1d3d
00000380: d0c3 b686 555c 333e 1b8d 003d bb08 78bc
00000390: b49e 9b3e 49ff 5d3e fdca 2a3e 1e0d b23d
000003a0: 473e a509 a97c 830f be5e 9b3b 1182 6b3d
000003b0: 5e2f 873c febb 1a3e 9dfc 883d 1d65 34bd
000003c0: 2750 6b3d dfe2 4ebe f9c2 e8bc 91da 13bd
000003d0: 7adf 41be 0497 eabd d031 15bc 92ad b686
000003e0: 9981 5abe 063e a8bd b610 023d ee8b a4bd
000003f0: a2f3 d7bb a3c3 9a3e 753e 31bd 9ffe da8a

layer1.bias f4 [20]
0.22559778 0.2084153 0.05900091 -8.927266e-34 0.1430732 0.032164466 0.051428467 -0.10846377
-0.04119255 0.13612367 0.17394873 -0.051741637 0.07917126 0.16370317 0.025275005 -1.3206746e-29
0.14214455 0.19120853 0.14976144 0.017222097
00000000: 1b03 673e d26a 553e f0aa 713d 6454 9488
00000010: c881 123e e3be 033d a8a6 523d 4122 debd
00000020: 85b9 28bd 0164 0b3e 9e1f 323e 0aef 53bd
00000030: 8b24 a23d cea1 273e 870d cf3c acee 858f
00000040: 578e 113e 2bcc 433e 105b 193e 5b15 8d3c

layer2.weight f4 [15, 20]
0.25536418 0.039619546 0.11846057 -6.872537e-35 -0.07014051 0.03305437 -0.07016755 0.02534536
0.11092024 0.05959695 0.048245825 0.2784161 0.27262866 -0.046843734 -0.06905594 -3.5748e-30
-0.06288679 0.106479876 -0.0827866 -0.06917906 -5.8444036e-34 -8.325772e-34 -1.0583481e-33 -6.868295e-35
-6.865981e-35 -3.5767676e-34 -1.9082866e-34 -4.580581e-34 -7.119286e-34 -5.0341266e-34 -6.872234e-35 -6.7358173e-34
-1.0266779e-33 -1.8420235e-34 -1.1614856e-33 6.872555e-35 -6.8748305e-35 -1.0248173e-33 -9.119363e-34 -6.8756777e-35
0.08339843 0.076030515 0.09217813 -6.8701297e-35 -0.075257495 0.10631426 -0.07032275 0.29174364
0.15019128 -0.051554646 -0.107893206 0.2798606 0.15718064 -0.12661725 0.25079542 -2.8178945e-30
-0.012361177 0.0039904728 0.23943838 -0.03228473 0.048255295 0.09781819 0.3125183 -6.868534e-35
-0.16444221 -0.05035077 -0.036404006 0.10676693 0.15826502 0.049308375 -0.07643967 0.30417013
0.014634106 0.110889554 0.06006939 -3.4227247e-30 0.06705146 -0.053294588 0.021514144 -0.038883213
0.059263628 0.087657526 -0.07866527 6.874043e-35 0.02183075 -0.020283207 0.043307867 -0.028361337
-0.059834708 -0.007311097 0.06252908 -0.046136357 0.036063 0.012287113 0.020649888 -8.922031e-32
0.11822274 -0.008203134 -0.10962837 0.02622379 0.15620774 -0.09610169 -0.13846545 6.874153e-35
-0.07655178 0.06750229 0.21545422 0.05107124 -0.035783242 0.0118703265 0.0940896 -0.11161175
-0.06819096 0.12224785 -0.22113584 -6.8777164e-35 0.08078369 0.20948927 -0.15515544 0.031854093
0.3285459 0.27747127 -0.046337344 -6.8786715e-35 -0.14382035 0.2635632 -0.14757659 0.111446194
0.18464607 0.34379184 -0.19268036 0.15608677 0.19975963 -0.08515194 -0.030858204 -5.0201113e-30
0.16725208 0.054117955 0.10649899 -0.14454935 0.10350999 0.1509122 0.02925856 6.874851e-35
-0.03511507 0.05868872 0.12382065 -0.19947213 -0.1091542 -0.06786388 0.0048271404 0.14277163
-0.009555596 0.014194791 0.02073922 6.8791674e-35 -0.036546748 -0.07871555 0.00064976246 0.016643891
0.16078603 0.01752044 0.23282121 -6.8752185e-35 0.15936439 0.1895814 -0.2277201 0.10358559
0.27987054 0.18705674 -0.2039668 0.22327164 0.089528404 -0.23921227 0.110103145 -1.0289997e-29
-0.07098483 0.25771302 0.13241535 -0.06931383 -0.07418564 -0.10001311 -0.07753558 6.872718e-35
0.032227166 0.065651715 0.022683581 0.059465416 -0.062010903 -0.02007848 0.009258258 0.15069158
-0.14386427 -0.014705891 0.08548709 -6.8658157e-35 0.11106925 0.06794697 0.013020601 0.02641178
0.14980347 0.18677706 0.0434014 6.872057e-35 -0.091055475 0.029310422 -0.13559826 0.06541255
-0.18302001 -0.17331962 0.003422577 -0.18685344 0.093189836 0.1365482 0.032992013 6.873894e-35
0.2080018 -0.095532365 0.13872615 0.035276514 -6.8685524e-35 6.871709e-35 -6.8777164e-35 6.878396e-35
-6.8699483e-35 -6.8758223e-35 -6.8699483e-35 6.8762103e-35 -6.866238e-35 6.8775144e-35 6.866532e-35 -6.868222e-35
6.8687177e-35 6.878396e-35 -6.8745366e-35 -6.86914e-35 6.8777164e-35 -6.8680014e-35 6.869471e-35 -6.8661647e-35
-0.05509526 0.0065561193 0.30995673 -6.873382e-35 -0.13435802 0.090930834 -0.032504555 0.286471
-0.027344834 -0.053795528 -0.23211409 0.042476587 0.32918128 0.055417243 0.22936936 -7.3307145e-30
00000000: 18bf 823e 1b48 223d 759b f23d 10b4 b686
00000010: d4a5 8fbd 0564 073d 01b4 8fbd 13a1 cf3c
00000020: 272a e33d ee1b 743d 6a9d 453d 8e8c 8e3e
00000030: fc95 8b3e 37df 3fbd 336d 8dbd d802 918e
00000040: caca 80bd 1f12 da3d 058c a9bd c0ad 8dbd
00000050: b036 4288 eb55 8a88 26d9 af88 3297 b686
00000060: 7287 b686 8cb7 ed87 a1a7 7d87 4637 1888
00000070: 3094 6c88 9d49 2788 00b2 b686 ffd5 5f88
00000080: 0c96 aa88 d0d8 7487 22fc c088 30b4 b606
00000090: acc3 b686 e846 aa88 7b85 9788 70c9 b686
000000a0: cccc aa3d e3b5 9b3d e3c7 bc3d aea3 b686
000000b0: 9a20 9abd 4abb d93d 6005 90bd 6c5f 953e
000000c0: becb 193e f72a 53bd 1df7 dcbd e349 8f3e
000000d0: f6f3 203e f4a7 01be 4268 803e 619d 648e
000000e0: 8986 4abc 83c2 823b 562f 753e fe3c 04bd
000000f0: 58a7 453d e754 c83d 6602 a03e d298 b686
00000100: 8a63 28be 9c3c 4ebd 5e1c 15bd 9fa8 da3d
00000110: 3a10 223e 94f7 493d 678c 9cbd 30bc 9b3e
00000120: e4c3 6f3c 101a e33d 520b 763d 9bd7 8a8e
00000130: 4752 893d 6d4b 5abd 6e3e b03c 0144 1fbd
00000140: 6bbe 723d ca85 b33d 421b a1bd 50be b606
00000150: 67d6 b23c f828 a6bc 9763 313d 0956 e8bc
00000160: 3d15 75bd ed91 efbb 3f0f 803d 7af9 3cbd
00000170: ccb6 133d e34f 493c f429 a93c 11a1 e78b
00000180: c41e f23d 7066 06bc d784 e0bd 46d3 d63c
00000190: ecf4 1f3e f6d0 c4bd e3c9 0dbe 10bf b606
000001a0: 2ec7 9cbd a43e 8a3d 08a0 5c3e 1430 513d
000001b0: 7391 12bd c27b 423c 0cb2 c03d b494 e4bd
000001c0: b4a7 8bbd 155d fa3d 6f71 62be 50d7 b686
000001d0: eb71 a53d 5b84 563e 11e1 1ebe 7079 023d
000001e0: 2b37 a83e b710 8e3e 3acc 3dbd d0dd b686
000001f0: a445 13be c1f1 863e 511e 17be e73d e43d
00000200: dc13 3d3e 7c05 b03e 004e 45be 36d5 1f3e
00000210: ca8d 4c3e 2464 aebd 58ca fcbc d1a3 cb8e
00000220: 2144 2b3e caaa 5d3d 241c da3d bf04 14be
00000230: 0cfd d33d ba88 1a3e a6af ef3c d0c3 b606
00000240: d2d4 0fbd 9563 703d ae95 fd3d 6c42 4cbe
00000250: 3d8c dfbd 38fc 8abd fd2c 9e3b ba32 123e
00000260: 138f 1cbc 4591 683c 4ce5 a93c 30e1 b606
00000270: 0bb2 15bd 9e35 a1bd d254 2a3a c558 883c
00000280: 18a5 243e 0787 8f3c af68 6e3e 50c6 b686
00000290: 6b30 233e a021 423e 752f 69be af24 d43d
000002a0: 314b 8f3e cd8b 3f3e acdc 50be 52a1 643e
000002b0: ab5a b73d 10f4 74be c27d e13d b8b4 508f
000002c0: 7f60 91bd f6f2 833e e497 073e 69f4 8dbd
000002d0: a4ee 97bd acd3 ccbd f9ca 9ebd 4cb5 b606
000002e0: a200 043d 6874 863d ebd2 b93c 0292 733d
000002f0: 25ff 7dbd a07b a4bc f3af 173c e54e 1a3e
00000300: 2851 13be faf0 70bc db13 af3d 5286 b686
00000310: 4678 e33d c827 8b3d 5c54 553c 845d d83c
00000320: 1566 193e 7c42 3f3e abc5 313d ccb0 b606
00000330: 4b7b babd 691c f03c 45da 0abe 04f7 853d
00000340: 9969 3bbe b37a 31be 504d 603b 8256 3fbe
00000350: 50da be3d 4bd3 0b3e a222 073d 4cbd b606
00000360: 6dfe 543e 79a6 c3bd 3a0e 0e3e 1b7e 103d
00000370: f298 b686 6eae b606 50d7 b686 f0db b606
00000380: 72a2 b686 6cca b686 72a2 b686 10cd b606
00000390: 3289 b686 f0d5 b606 328b b606 b296 b686
000003a0: 129a b606 f0db b606 acc1 b686 f29c b686
000003b0: 50d7 b606 3295 b686 329f b606 b288 b686
000003c0: 91ab 61bd b7d4 d63b a6b2 9e3e d0b9 b686
000003d0: 2695 09be f239 ba3d 7f23 05bd 54ac 923e
000003e0: 4602 e0bc b358 5cbd 51af 6dbe eefb 2d3d
000003f0: 738a a83e 31fd 623d cddf 6a3e 3faf 148f

layer2.bias f4 [15]
0.06532125 -1.0851853e-33 0.0098211635 0.2387676 -0.0020266436 0.045303147 0.28878924 -0.06791201
0.27603975 0.0018376159 -0.12189652 -6.870793e-35 0.2798785 -0.086049214 0.072178744
00000000: 26c7 853d ae4e b488 f2e8 203c 7e7f 743e
00000010: 70d1 04bb cb8f 393d 2fdc 933e 7415 8bbd
00000020: 1555 8d3e 28dc f03a e2a4 f9bd 32a8 b686
00000030: 3c4c 8f3e 923a b0bd 73d2 933d

layer3.weight f4 [7, 15]
-0.21771422 -6.8803624e-35 -0.060271684 -0.10709093 -0.054797627 0.05982464 0.118722394 0.011509512
0.21683033 -0.15895629 -0.034605604 6.8762264e-35 0.15856136 -0.03352381 -0.015756961 0.13764718
-6.873979e-35 0.2924916 -0.05235568 -0.028151019 -0.21960439 0.13475841 -0.03739803 0.36099488
-0.18564346 -0.09097785 -6.8692687e-35 0.18298899 0.20260859 0.049003232 0.075705096 6.868954e-35
-0.059900112 0.071887195 -0.04514228 -0.055006612 0.0065011466 -0.06011555 0.16417527 -0.03291797
-0.004727824 6.878984e-35 0.074369624 0.2782701 -0.057915147 0.04109322 -6.8802545e-35 0.069507815
0.14217679 -0.044512864 -0.056701094 0.038376033 0.063168064 -0.043359473 -0.032873597 -0.036787663
6.869039e-35 -0.08228246 0.15411079 -0.08707634 0.1416543 6.870589e-35 -0.059673183 0.3638948
-0.09633631 -0.021351904 0.21839577 -0.21748196 0.049188927 0.09016408 -0.23752227 6.8775144e-35
0.22694062 -0.023627896 -0.24656272 -6.868605e-35 -6.871179e-35 -6.872904e-35 -6.868798e-35 6.869836e-35
-6.878047e-35 -6.8748305e-35 6.868734e-35 -6.87228e-35 6.8672667e-35 -6.8679256e-35 -6.86914e-35 -6.869627e-35
-6.874562e-35 -6.870187e-35 0.008115144 6.871675e-35 -0.014878106 0.0013955164 0.047561083 0.07385502
0.002427008 -6.8679646e-35 -0.0021936055 -6.8672667e-35 -0.029746715 6.8770736e-35 0.0012779994 -0.03912769
0.06999135
00000000: 7af0 5ebe 52e9 b686 71df 76bd 7d52 dbbd
00000010: 7a73 60bd af0a 753d ba24 f33d 6492 3c3c
00000020: c508 5e3e 70c5 22be 9bbe 0dbd 2ccd b606
00000030: e95d 223e 4350 09bd be14 81bc 62f3 0c3e
00000040: e0bd b686 76c1 953e e972 56bd f79c e6bc
00000050: f9df 60be 1cfe 093e ad2e 19bd 52d4 b83e
00000060: 5219 3ebe 9852 babd d29d b686 7761 3b3e
00000070: a078 4f3e 9db7 483d 460b 9b3d ae9b b606
00000080: d259 75bd 9839 933d 1de7 38bd 9d4e 61bd
00000090: 9207 d53b b93b 76bd 901d 283e fed4 06bd
000000a0: ddeb 9abb f0df b606 1a4f 983d 6b79 8e3e
000000b0: 6f38 6dbd 5d51 283d 96e8 b686 1d5a 8e3d
000000c0: cb96 113e 1f53 36bd 683f 68bd 3030 1d3d
000000d0: 425e 813d b499 31bd 77a6 06bd a9ae 16bd
000000e0: 429c b606 b583 a8bd 38cf 1d3e 1555 b2bd
000000f0: d30d 113e cea6 b606 de6b 74bd 6b50 ba3e
00000100: f94b c5bd 30ea aebc 24a3 5f3e 97b3 5ebe
00000110: 547a 493d f2a7 b83d 0a39 73be f0d5 b606
00000120: 1f63 683e 4a8f c1bc f07a 7cbe 4e99 b686
00000130: d2aa b686 90b6 b686 9e9a b686 aea1 b606
00000140: 90d9 b686 acc3 b686 2e9a b606 50b2 b686
00000150: 3290 b606 ae94 b686 f29c b686 42a0 b686
00000160: d8c1 b686 12a4 b686 62f5 043c 32ae b606
00000170: 4dc3 73bc c3e9 b63a 69cf 423d 4d41 973d
00000180: 700e 1f3b f294 b686 98c2 0fbb 3290 b686
00000190: 62af f3bc f0d2 b606 8b82 a73a 5b44 20bd
000001a0: a057 8f3d

layer3.bias f4 [7]
0.13744242 0.20657475 -0.021480381 0.0017082159 0.2483113 -6.87599e-35 0.01553779
00000000: b5bd 0c3e 5588 533e a0f7 afbc 37e6 df3a
00000010: 5145 7e3e 90cb b686 3792 7e3c

layer4.weight f4 [1, 7]
0.026945421 0.46005788 0.15173143 0.043277998 0.35299864 -4.816046e-35 -0.0469021
00000000: a5bc dc3c b58c eb3e 7c5f 1b3e 4544 313d
00000010: 3dbc b43e 5008 8086 6b1c 40bd
