weights/mape_norm_ltc_lstm.pth (torch_old, 22988 bytes, 11 tensors)

lstm.weight_ih_l0 f4 [92, 23]
0	0x3e316c18	0.1732639
1	0x3c6bc321	0.014389784
2	0xbd63dbf5	-0.05562969
3	0xbdcd028b	-0.10010251
4	0xbdab454d	-0.083628275
5	0x3e0c3f47	0.13696013
6	0xbddaf711	-0.106916554
7	0x3daeda45	0.08537725
8	0xbd5039df	-0.05083644
9	0x3de4d577	0.11173528
10	0xbe397ce1	-0.18114044
11	0x3dabb49e	0.08384059
12	0xbd9d81e3	-0.076907896
13	0x3db57e9a	0.08862038
14	0x3dd4b8ac	0.10386786
15	0xbe2ec31f	-0.1706662
16	0xbe24ca58	-0.16092813
17	0xbd90b72f	-0.070661895
18	0x3dd181f2	0.10229863
19	0xbe33497d	-0.17508502
20	0xbd738765	-0.059455294
21	0x3db69358	0.08914822
22	0xbd86d0ca	-0.06582792
23	0x3e46d728	0.19418013
24	0x3d0e40f0	0.034729898
25	0x3e3a4128	0.18188918
26	0x3d871872	0.065964594
27	0x3e590781	0.21194269
28	0xbd40508c	-0.046951815
29	0xbe5872d9	-0.21137561
30	0x3e32fdde	0.17479655
31	0xbe19accc	-0.15007323
32	0xbe3b135f	-0.18269108
33	0xbdf31a94	-0.11870304
34	0xbdd0f1a7	-0.102023415
35	0xbe490d16	-0.19633898
36	0x3e43932d	0.19099112
37	0xbd98bbd9	-0.07457704
38	0xbdb1ece9	-0.08687765
39	0x3d770274	0.060305074
40	0x3de6cb91	0.11269296
41	0xbdc3e272	-0.095646754
42	0xbb187606	-0.0023263707
43	0x3dce115d	0.100619055
44	0xbe232b45	-0.15934475
45	0xbc9454b4	-0.018106796
46	0xbdc5aae5	-0.09651736
47	0x3e15917f	0.14606284
48	0x3e0a5eea	0.1351277
49	0xbe2c3442	-0.1681681
50	0xbdd554d2	-0.10416569
51	0x39c78c4e	0.00038060773
52	0x3db21d7a	0.086970285
53	0xbcd77681	-0.026301624
54	0x3d9b088d	0.0756999
55	0x3da73fc5	0.0816646
56	0xbdeaaaee	-0.114583835
57	0xbe14c49c	-0.14528126
58	0x3d80544e	0.0626608
59	0x3e3f1091	0.18658663
60	0x3d1af4f9	0.03783128
61	0xbe3dc578	-0.1853236
62	0xbe39bced	-0.18138476
63	0x3d6c3643	0.057668936
64	0xbdf23388	-0.11826235
65	0xbd8d7313	-0.06906714
66	0x3b8c71e6	0.0042860387
67	0xbc9ec530	-0.019381136
68	0x3e500370	0.20313811
69	0xbda8e357	-0.08246487
70	0xbc848bfc	-0.016180031
71	0xbe1a1430	-0.15046763
72	0x3e26e4e6	0.16298255
73	0xbd8a9660	-0.06766963
74	0xbe153d94	-0.14574271
75	0x3de7839c	0.11304399
76	0x3e516b80	0.20451164
77	0xbc057437	-0.008145384
78	0xbdfa15b4	-0.12211171
79	0xbe15db81	-0.14634515
80	0xbd60ffd2	-0.05493147
81	0x3e1461da	0.14490452
82	0x3e843d2e	0.25827926
83	0x3de9f841	0.11424304
84	0xbd959989	-0.07304675
85	0xbe0b79fe	-0.13620755
86	0x3e4326c2	0.19057754
87	0xbbedbd58	-0.0072552375
88	0x3d197e46	0.03747394
89	0xbcb9e571	-0.022692414
90	0x3de2874b	0.11060961
91	0xbe046229	-0.1292807
92	0x3da0d406	0.0785294
93	0x3e0fb810	0.14035058
94	0xbe130d9a	-0.14360657
95	0x3c05a8b7	0.008157901
96	0x3e5309f1	0.20609261
97	0x3d000e5f	0.031263705
98	0x3e350744	0.17678553
99	0x3e45c57c	0.19313616
100	0x3e28e416	0.16493258
101	0xbe1bea82	-0.15226176
102	0xbd456d29	-0.048199806
103	0xbdb7e1aa	-0.08978589
104	0x3d191a2a	0.037378468
105	0x3d9bdbd3	0.076102875
106	0x3e284899	0.16433944
107	0xbca97800	-0.020687103
108	0xbcfe87b7	-0.031070573
109	0xbe30959b	-0.1724457
110	0xbdca5792	-0.09879984
111	0x3e557967	0.20847093
112	0x3dd05aea	0.101735905
113	0xbe119b4d	-0.14219399
114	0xbe33ae54	-0.1754697
115	0xbc8909a0	-0.016728222
116	0x3ddc3253	0.10751786
117	0x3e005be1	0.12535049
118	0xbd6b742a	-0.05748383
119	0xbe10bb53	-0.14133959
120	0x3e1f28bd	0.15542884
121	0xbe1c77c7	-0.15280066
122	0xbc94c9fa	-0.018162716
123	0x3e12bb21	0.14329197
124	0x3db0051c	0.085947245
125	0x3e13d039	0.144349
126	0x3e41e6ce	0.18935701
127	0xbe629e1a	-0.22130623
128	0x3da9da47	0.08293586
129	0x3d4d6728	0.050147206
130	0x3e127aa5	0.14304598
131	0xbe08855d	-0.13332124
132	0xbe06b9d9	-0.13156833
133	0xbdf632ab	-0.12021383
134	0x3dce3643	0.10068943
135	0xbd0f81a1	-0.035035733
136	0x3e02b72a	0.12765184
137	0x3d182641	0.037145857
138	0xbdaa7887	-0.0832377
139	0xbe0cafa5	-0.13738878
140	0x3e16c6a3	0.14724211
141	0x3e34eda1	0.17668773
142	0x3dbb888c	0.091569036
143	0xbe359383	-0.17732053
144	0x3b6681b9	0.0035172536
145	0xbdc0a462	-0.094063535
146	0xbd4c2142	-0.049836405
147	0x3df6f92c	0.120592445
148	0xbd32da38	-0.04366514
149	0xbd83e494	-0.06440082
150	0xbd60d3d0	-0.0548895
151	0xbd8dbf8f	-0.069213025
152	0xbe3e37a1	-0.18575908
153	0x3e51df16	0.20495257
154	0x3dcc2c91	0.09969438
155	0xbdd9d639	-0.10636563
156	0x3dd0bfc0	0.101928234
157	0xbe140a02	-0.14456943
158	0xbde2be06	-0.110714
159	0xbc6d5754	-0.014486153
160	0x3d328c47	0.04359081
161	0x3e314005	0.17309578
162	0x3e1da359	0.15394343
163	0x3c789d49	0.015174218
164	0x3cadc987	0.02121426
165	0xbe12f5f2	-0.14351633
166	0xbe026cd7	-0.12736832
167	0x3e3b6463	0.18300013
168	0x3e0ac09b	0.13550036
169	0xbc18eedd	-0.009334293
170	0x3e3d3f27	0.18481122
171	0x3dfcecc3	0.12349846
172	0xbcdb5014	-0.026771583
173	0x3e04749b	0.12935106
174	0x3e78f881	0.24313547
175	0x3da01149	0.07815797
176	0xbd721f95	-0.05911215
177	0x3d8d5d1f	0.06902527
178	0x3dd811ce	0.10550271
179	0x3e304b45	0.17216213
180	0x3e615c26	0.22007808
181	0xbe0299b9	-0.12753953
182	0xbe1b30ae	-0.15155289
183	0x3e2a532a	0.16633287
184	0x3c695ead	0.014243764
185	0x3dde4593	0.10853114
186	0xbe2656e6	-0.16244087
187	0x3e2b4ffe	0.16729733
188	0xbda1762f	-0.0788387
189	0x3e4c5a2e	0.19956276
190	0x3d5cedad	0.053937603
191	0x3df919b2	0.12163104
192	0xbe29c804	-0.16580206
193	0xbcfc3a78	-0.030789599
194	0x3e1cc311	0.15308787
195	0xbdc84d7e	-0.097804055
196	0x3e00666f	0.12539075
197	0x3e72e923	0.23721747
198	0x3e443b30	0.19163203
199	0xbe24b542	-0.1608477
200	0x3e057c07	0.13035594
201	0xbdf58b8d	-0.11989508
202	0xbcd32a29	-0.02577694
203	0x3e4255da	0.18978062
204	0xbd674010	-0.05645758
205	0xbe38a631	-0.18032147
206	0x3dd507df	0.10401892
207	0x3d90a8b1	0.07063425
208	0xbe1bc45f	-0.15211628
209	0xbe36486a	-0.17801061
210	0xbdbbbe0f	-0.0916711
211	0x3c74c15d	0.0149386795
212	0x3bf32e15	0.007421265
213	0xbd4c0e03	-0.04981805
214	0x3e3b5b49	0.18296541
215	0xbdd945ae	-0.106089935
216	0x3db6e0ed	0.0892962
217	0xbe6c0ef4	-0.23052579
218	0xbe2dcd9d	-0.16972966
219	0x3e4422eb	0.19153945
220	0x3e1808fa	0.14847174
221	0x3e2547ba	0.16140643
222	0xbe0af560	-0.13570166
223	0xbdc01786	-0.09379487
224	0xbda39fa7	-0.07989436
225	0x3e201c82	0.15635875
226	0x3e1929f3	0.14957409
227	0x3de388d9	0.11110086
228	0xbd6a478a	-0.05719713
229	0xbc938773	-0.018008923
230	0xbc595238	-0.013264231
231	0xbbfe0b4a	-0.0077528106
232	0xbdc04eb4	-0.093900114
233	0x3d07713c	0.033066973
234	0x3ccc2c5b	0.024923494
235	0x3d9c3298	0.076268375
236	0x3d1a2da9	0.0376412
237	0x3e5933d0	0.21211171
238	0x3d5d6e88	0.05406049
239	0x3e0dbc9d	0.13841482
240	0x3c2eff61	0.010681004
241	0x3df64da7	0.1202653
242	0xbdb0b55e	-0.08628343
243	0x3e3245c8	0.17409432
244	0x3e658131	0.22412564
245	0xbe2e1e4c	-0.17003745
246	0x3e138073	0.14404468
247	0xbe2bb7c7	-0.16769324
248	0x3e329827	0.17440854
249	0x3e33e8d4	0.17569286
250	0xbde8ab20	-0.113607645
251	0xbd8ffb05	-0.070303
252	0x3e635196	0.22199091
253	0xbe345712	-0.1761134
254	0x3daee040	0.08538866
255	0xbe2049fa	-0.1565322

lstm.weight_hh_l0 f4 [92, 23]
0	0x3dfc38b1	0.123155005
1	0x3c1575f9	0.009122365
2	0x3d468574	0.048467115
3	0xbe13ca28	-0.14432585
4	0xbc5cbe17	-0.013473055
5	0x3cd7ac97	0.026327414
6	0xbdcea6e8	-0.100904286
7	0x3e2efde2	0.17089036
8	0xbe2f4d67	-0.1711937
9	0xbc21c703	-0.009874108
10	0x3e0b06d5	0.13576825
11	0xbdc224b2	-0.09479655
12	0x3d96a6a6	0.073560044
13	0xbddfbe91	-0.109250195
14	0xbdbeff31	-0.09326018
15	0xbde6fae5	-0.11278323
16	0xbd04bd77	-0.03240725
17	0xbd154442	-0.03644205
18	0x3e0b25ec	0.13588685
19	0x3e6fa8e8	0.23404276
20	0xbd5efccf	-0.054440316
21	0xbe18b171	-0.14911439
22	0xbe11de3f	-0.14244936
23	0x3dc441ad	0.09582839
24	0xbe29231c	-0.165173
25	0x3dc9100e	0.09817515
26	0x3e040407	0.12892161
27	0xbd5d1c20	-0.0539819
28	0xbcca5987	-0.024700893
29	0x3da29090	0.07937729
30	0x3e3174e6	0.1732975
31	0xbe0c23b1	-0.1368549
32	0x3da460e0	0.0802629
33	0xbe530bfd	-0.20610042
34	0x3e0ab714	0.13546401
35	0x3e55f64d	0.20894738
36	0x3e08a288	0.13343251
37	0x3e6e2cbf	0.23259257
38	0xbe45ef06	-0.19329461
39	0xbd81694b	-0.06318911
40	0xbd871d53	-0.0659739
41	0xbbfa06ac	-0.00763019
42	0xbcb3e194	-0.02195815
43	0xbe2b312a	-0.16717973
44	0x3e8a1541	0.2696934
45	0x3e64e4d1	0.22352912
46	0xbdf42ea3	-0.11922958
47	0xbda3d572	-0.07999696
48	0x3d0f8341	0.035037283
49	0xbd845adf	-0.06462645
50	0xbe56223f	-0.20911501
51	0x3e00fd32	0.12596586
52	0xbc8962a1	-0.016770663
53	0x3d8df16c	0.06930813
54	0x3e241ffb	0.16027825
55	0x3b4952ab	0.003071944
56	0xbc00ba36	-0.007856896
57	0x3e469704	0.19393545
58	0x3df2d19d	0.11856387
59	0x3e5af58f	0.21382736
60	0x3e4dd7c2	0.20101836
61	0xbdb7f375	-0.089819826
62	0xbe42e574	-0.19032842
63	0x3db1e41f	0.08686089
64	0xbbe92cc2	-0.0071159313
65	0x3e28436d	0.16431971
66	0x3d31449e	0.04327833
67	0x3e3d9327	0.18513165
68	0x3e203978	0.15646923
69	0x3c559396	0.0130356755
70	0x3e0d1eff	0.13781355
71	0xbd89f598	-0.067362964
72	0xbda1cecb	-0.07900771
73	0x3d48a5ee	0.048986368
74	0x3da801d5	0.082034744
75	0x3d37b63e	0.044851534
76	0x3d0ed23a	0.034868456
77	0xbe446db1	-0.19182469
78	0x3e292b9d	0.16520543
79	0xbdc0ed08	-0.0942021
80	0x3e1ed92c	0.15512532
81	0xbdc51b4a	-0.096243456
82	0x3dc0b95c	0.094103545
83	0x3e2be632	0.16787031
84	0x3ddfa59a	0.10920258
85	0xbe3ca6ff	-0.18423079
86	0xbd9d591f	-0.07683014
87	0xbdf2bfec	-0.118530124
88	0x3e75e50d	0.24013157
89	0x3d25b79f	0.040458318
90	0xbde3e3e2	-0.111274496
91	0xbd169233	-0.03676052
92	0xbd8c3b65	-0.06847266
93	0xbde0c13e	-0.10974358
94	0x3df6ddb6	0.12054007
95	0xbe03887c	-0.12845033
96	0xbe1836b4	-0.14864618
97	0xbe02b64d	-0.12764855
98	0xbc04e2b9	-0.0081106955
99	0x3d9be169	0.07611353
100	0xbd818f0f	-0.063261144
101	0xbe292a48	-0.16520035
102	0x3e2072d2	0.156688
103	0xbdeb3b54	-0.11485925
104	0x3d0faede	0.035078876
105	0x3e3b112e	0.18268272
106	0xbdbf758a	-0.09348591
107	0x3d91ba4c	0.071156114
108	0x3dfb9a60	0.12285304
109	0xbdde3009	-0.10849006
110	0xbe12184f	-0.14267085
111	0x3e257168	0.16156542
112	0x3e2c1b82	0.16807368
113	0x3c57d8e5	0.01317427
114	0x3d8348a0	0.064103365
115	0xbdfbeb89	-0.12300784
116	0x3e2dc42e	0.16969368
117	0xbd58da15	-0.052942354
118	0x3d8ea748	0.069655
119	0x3e259155	0.16168721
120	0xbe187644	-0.14888865
121	0x3e2953d0	0.16535878
122	0xbe18ec96	-0.14934
123	0x3ddd8b7b	0.108176194
124	0xbdc37890	-0.0954448
125	0x3e3ce69c	0.18447345
126	0xbc96c052	-0.018402252
127	0x3b472f6d	0.0030393258
128	0x3e3ecca3	0.1863275
129	0xbe444643	-0.19167428
130	0xbdf659ef	-0.12028872
131	0xbd3a5e73	-0.04550023
132	0x3d89bb06	0.06725125
133	0xbd976502	-0.073923126
134	0xbbb971ff	-0.0056593413
135	0xbd95ba85	-0.073109664
136	0xbdb0f602	-0.08640672
137	0xbe2c84cf	-0.16847537
138	0xbe575c78	-0.21031368
139	0xbe494eef	-0.19659017
140	0xbe5bcf9b	-0.21465914
141	0xbddc9143	-0.10769894
142	0xbdccacbc	-0.09993884
143	0x3dc067e4	0.093948156
144	0x3e30e911	0.17276408
145	0x3e26740d	0.16255207
146	0xbe09ea8a	-0.13468376
147	0xbe3fc12d	-0.18726034
148	0xbdd4031d	-0.10352156
149	0xbe29a753	-0.16567735
150	0xbd810659	-0.06300039
151	0xbc3f8bc0	-0.011691034
152	0x3de5f0af	0.112275474
153	0x3e1ac5c9	0.15114512
154	0x3e34f36d	0.17670985
155	0xbe13c993	-0.14432363
156	0xbe4120a7	-0.18860112
157	0x3e037fb8	0.1284169
158	0xbd81744b	-0.06321009
159	0xbda3145d	-0.07962868
160	0x3e0af43b	0.13569729
161	0x3e017d8b	0.12645547
162	0x3e06cc29	0.13163818
163	0xbe35ed6a	-0.17766348
164	0x3daf58ff	0.085618965
165	0x3deb0b3e	0.11476754
166	0xbe442f8d	-0.19158764
167	0xbe1cc7f1	-0.15310647
168	0xbe18edb9	-0.14934434
169	0x3d2b0f56	0.041762672
170	0x3d16b8fc	0.03679751
171	0xbd626abe	-0.05527758
172	0x3e2a78b7	0.16647612
173	0x3c9ea671	0.019366475
174	0x3e2afc82	0.16697887
175	0x3e02d8f5	0.12778075
176	0x3e3063c4	0.17225558
177	0xbe39e761	-0.1815467
178	0x3d3a44c1	0.045475725
179	0xbb876261	-0.0041316007
180	0x3e42aaad	0.1901042
181	0x3e08f4bc	0.13374609
182	0x3dc839e4	0.09776667
183	0x3e14e08f	0.14538787
184	0x3dcd98d9	0.10038919
185	0xbd9812dc	-0.07425472
186	0xbcdcba51	-0.026944311
187	0xbdb85b0b	-0.0900174
188	0x3d48084e	0.048836045
189	0xbd625f13	-0.05526645
190	0x3de67185	0.11252121
191	0x3d9abe15	0.075557865
192	0xbe0c9f3a	-0.13732615
193	0x3d3cfad5	0.04613765
194	0xbddf86b0	-0.109143615
195	0x3d25b273	0.040453386
196	0x3d8ba30e	0.068182096
197	0x3db228b7	0.08699172
198	0x3d9725b7	0.073802404
199	0x3da2d1f9	0.07950205
200	0x3c43c137	0.0119479215
201	0x3dd17c8e	0.10228835
202	0xbd901d26	-0.070368096
203	0x3c20ca71	0.009813891
204	0x3d19215c	0.03738533
205	0xbd65eaf7	-0.056132283
206	0xbdabad6b	-0.08382686
207	0x3cd061a1	0.025437178
208	0xbd483029	-0.048874054
209	0xbe43644a	-0.19081226
210	0xbe3be478	-0.18348873
211	0xbdd739d9	-0.105090804
212	0x3da34715	0.07972542
213	0xbd8aced3	-0.0677773
214	0xbd394e62	-0.045240767
215	0x3d57667f	0.052587982
216	0x3d314e84	0.04328777
217	0xbc881d4b	-0.01661553
218	0xbcb2b017	-0.021812482
219	0xbdac8a67	-0.08424836
220	0x3e1176b8	0.14205444
221	0x3e1186b7	0.14211546
222	0xbe295a90	-0.16538453
223	0x3cb1c5bc	0.021700732
224	0x3e2428c3	0.16031174
225	0x3c30249e	0.010750918
226	0x3db9f29b	0.090794764
227	0xbd066c43	-0.03281809
228	0xbd1a3f11	-0.0376578
229	0xbdfd4a09	-0.12367637
230	0x3e26d22f	0.16291116
231	0xbcf234f2	-0.029566262
232	0x3e1d19c5	0.15341862
233	0xbe31d704	-0.17367178
234	0x3e3e8bba	0.18607989
235	0xbe2c8828	-0.16848814
236	0xbdec934b	-0.115515314
237	0xbc830de6	-0.015997838
238	0x3e057fb1	0.13036992
239	0xbc9bb94b	-0.019009253
240	0x3dce4424	0.100715905
241	0xbd1ac7ba	-0.03778813
242	0x3dfce0e6	0.123475835
243	0x3e152272	0.14563921
244	0xbcd0d841	-0.025493743
245	0x3dad6249	0.08466012
246	0xbde1572d	-0.110029556
247	0xbd9dae46	-0.07699256
248	0xbd0a7e5b	-0.03381191
249	0x3d9a8106	0.075441405
250	0xbe0c65d0	-0.13710713
251	0x3e6eef05	0.23333366
252	0xbe60feca	-0.21972194
253	0x3d3ebd8b	0.04656748
254	0xbda1bb9d	-0.078971125
255	0xbe3cea0f	-0.18448661

lstm.bias_ih_l0 f4 [92]
0	0x3cdc61f3	0.026902175
1	0x3dc519ad	0.09624038
2	0xbd37f74b	-0.04491357
3	0x3e1e3a5f	0.15451954
4	0xbe44f60e	-0.19234487
5	0x3e112ee0	0.14178038
6	0x3ce8226f	0.028336732
7	0xbc1a0944	-0.009401623
8	0x3c8cc822	0.017185275
9	0xbe35c05a	-0.17749158
10	0x3e121795	0.14266808
11	0x3dead6dc	0.114667624
12	0x3e49687c	0.19668764
13	0x3de5301b	0.11190816
14	0xbe36c9b5	-0.17850383
15	0xbd8c5565	-0.06852225
16	0x3e2db160	0.16962194
17	0x3d6b5090	0.057449877
18	0x3e33449a	0.17506638
19	0x3d8b5c9b	0.068047725
20	0xbdb12259	-0.086491294
21	0xbcbe262c	-0.023211561
22	0x3e388d24	0.18022591
23	0x3e39d61d	0.18148084
24	0x3d68312e	0.056687526
25	0xbe293c68	-0.1652695
26	0x3e108c2f	0.14115976
27	0xbd865ca1	-0.06560636
28	0xbcc8c6b5	-0.024508813
29	0x3ce57f85	0.028014908
30	0xbe18d595	-0.14925225
31	0x3d916644	0.07099584
32	0xbc564e40	-0.01308018
33	0xbc3a13cb	-0.011357258
34	0x3e2fd83e	0.17172334
35	0x3cc14ad0	0.023595244
36	0xbe66e244	-0.22547251
37	0x3d9a871e	0.07545303
38	0x3dbb12ab	0.0913442
39	0xbde714fc	-0.11283299
40	0x3adbd1ce	0.0016770901
41	0x3d88564a	0.06657083
42	0x3e1fd68d	0.15609188
43	0xbe0f46f5	-0.13991912
44	0xbd275ae9	-0.040858183
45	0xbddbdb1f	-0.107351534
46	0xbdcb2065	-0.09918288
47	0x3d91160b	0.070842825
48	0xbcb92c08	-0.022604004
49	0x3d6fbd54	0.058530167
50	0x3de35f28	0.11102134
51	0x3e11eff0	0.14251685
52	0x3d36c5be	0.044622175
53	0xbd2855dd	-0.04109751
54	0x3e646d14	0.22307235
55	0xbe21c42b	-0.15797488
56	0xbde8f869	-0.113755055
57	0xbd2eb3d7	-0.042651977
58	0xbe4540aa	-0.19262949
59	0xbdd6e653	-0.104931496
60	0xbe27cd39	-0.1638688
61	0x3e12f7e2	0.14352372
62	0xbe537af4	-0.20652372
63	0x3e6b536b	0.2298104
64	0xbe1cf288	-0.15326893
65	0x3c9d2e57	0.019187136
66	0xbd4df2b9	-0.050280306
67	0xbd7af319	-0.061266992
68	0xbe4cb295	-0.19989999
69	0x3e499c97	0.1968864
70	0xbc280501	-0.010255099
71	0xbda39c8c	-0.07988843
72	0xbd462ae8	-0.048380762
73	0xbdb85d0b	-0.090021215
74	0x3e5d112d	0.21588583
75	0xbd8c149b	-0.06839868
76	0x3e3a79e9	0.18210568
77	0xbdb4ff9b	-0.088378154
78	0xbd7bf876	-0.061516248
79	0x3d6fec49	0.05857495
80	0xbe0a33c0	-0.13496304
81	0x3e238136	0.15967259
82	0xbdbb17dc	-0.0913541
83	0x3e40a9fa	0.18814841
84	0xbd83b6d5	-0.06431357
85	0x3e026281	0.12732889
86	0xbdb9c716	-0.09071176
87	0x3d9f5077	0.07779019
88	0xbdbf72c1	-0.093480594
89	0xbde9bc15	-0.11412827
90	0x3e16ede5	0.14739187
91	0x3c98f866	0.018673133

lstm.bias_hh_l0 f4 [92]
0	0xbe41c849	-0.18924059
1	0xbdb80b8e	-0.08986579
2	0xbe288194	-0.1645568
3	0x3dd19267	0.10233002
4	0x3d674973	0.05646653
5	0xbe2123b4	-0.15736276
6	0xbc59cc6a	-0.013293365
7	0xbd7170b7	-0.058945384
8	0xbe0f3913	-0.13986616
9	0xbe178e09	-0.14800276
10	0xba823db3	-0.0009936601
11	0xbe339181	-0.17535974
12	0xbe1c2e40	-0.15252018
13	0xbe141f8d	-0.1446516
14	0x3d8b1424	0.06790951
15	0x3cd599ee	0.026074376
16	0x3e58b11e	0.21161315
17	0xbe0c4201	-0.13697053
18	0xbe2e71fa	-0.17035666
19	0xbc750bdc	-0.014956441
20	0xbe145a0d	-0.14487477
21	0x3d94cf89	0.07266147
22	0x3dc8f2f3	0.09811964
23	0x3e6774fd	0.22603221
24	0x3d9056c4	0.07047799
25	0xbc208e49	-0.009799548
26	0x3de171ab	0.110080086
27	0xbe3ca699	-0.18422927
28	0x3ded9a50	0.116016984
29	0xbd885fa3	-0.06658866
30	0xbdce907b	-0.10086151
31	0x3e53a806	0.20669565
32	0x3e62f29a	0.22162858
33	0xbe2f16d6	-0.17098555
34	0xbe597daf	-0.2123935
35	0xbe045d8c	-0.1292631
36	0xbd7be6ce	-0.06149941
37	0xbdbf9fd1	-0.093566544
38	0x3de1ac9d	0.110192515
39	0x3ca675b3	0.020319795
40	0xbdce0732	-0.10059966
41	0xbc94cd12	-0.018164191
42	0x3cf267cf	0.029590515
43	0xbc77157d	-0.015080807
44	0x3dadd996	0.08488767
45	0x3e3aa470	0.1822679
46	0x3da3b436	0.07993357
47	0xbd09732e	-0.03355711
48	0xbe0e4c2d	-0.13896246
49	0xbe42fc38	-0.19041526
50	0x3d2bf014	0.041977003
51	0xbcc5d47c	-0.024149172
52	0xbde911b3	-0.11380329
53	0x3b8014e8	0.003908742
54	0x3e10f54a	0.1415607
55	0xbe5b4506	-0.21413049
56	0xbda6734e	-0.081274614
57	0xbd4d9996	-0.0501953
58	0x3d8da67b	0.06916519
59	0xbe4d62ae	-0.20057175
60	0xbd59e55b	-0.053197246
61	0x3db8ec08	0.090293944
62	0xbe50a172	-0.20374086
63	0xbd8bb6ad	-0.06821952
64	0xbc6c0d14	-0.014407415
65	0xbe25ae4f	-0.16179775
66	0x3b7d6411	0.003866438
67	0x3d5a9cbc	0.05337213
68	0xbd461243	-0.04835726
69	0x3e2247ab	0.15847652
70	0x3e122b53	0.1427434
71	0xbd8ab344	-0.067724735
72	0x3e6929c3	0.22769837
73	0x3c86e29f	0.016465483
74	0xbd9fb3ca	-0.07797964
75	0x3e1f923d	0.15583129
76	0xbe427baf	-0.18992494
77	0xbe1b4377	-0.15162455
78	0x3d3cb2c3	0.046068918
79	0xbcff1fab	-0.03114303
80	0x3da34983	0.079730056
81	0x3d7f434a	0.06232003
82	0x3d8a1abc	0.067433804
83	0x3d06df62	0.03292788
84	0xbd581b65	-0.0527605
85	0xbca039b4	-0.019558765
86	0x3e5bcb91	0.21464373
87	0x3dc86b69	0.09786112
88	0xbdeab99e	-0.11461185
89	0xbd3665b6	-0.044530593
90	0x3e47a908	0.19498074
91	0x3e763bef	0.240463

layer1.weight f4 [20, 23]
0	0x3cc16e10	0.023612052
1	0xbd411712	-0.047141142
2	0x3d813520	0.06308961
3	0x3e091a9d	0.13389058
4	0xbde535fd	-0.11191938
5	0x3cc059e1	0.023480358
6	0xbcb1f9ec	-0.021725617
7	0xbcc062c0	-0.023484588
8	0xbd747e64	-0.059690848
9	0x3d15f2ae	0.03660839
10	0x3c830968	0.015995696
11	0xbd846dca	-0.06466253
12	0xbe4669d8	-0.19376314
13	0xbdc95fcf	-0.09832727
14	0x86b6d9f0	-6.878102e-35
15	0x3e2a8871	0.16653611
16	0x9a1546d5	-3.0869695e-23
17	0x8f0945bd	-6.7680526e-30
18	0xbbe1e155	-0.0068933167
19	0xbb06cf18	-0.0020570215
20	0x3da17d4f	0.07885229
21	0x86b6cb50	-6.875953e-35
22	0x3d529c6c	0.051418707
23	0xbb6aa839	-0.0035805835
24	0xbe11f8f8	-0.1425513
25	0x3b1acde8	0.0023621265
26	0x3e05f975	0.13083442
27	0x3d045cc4	0.03231503
28	0xbbd44b68	-0.0064787157
29	0x3d1d781f	0.038444635
30	0xbda48940	-0.08033991
31	0x3e18a43a	0.14906397
32	0x3d90841c	0.07056448
33	0xbdd8f84b	-0.10594233
34	0xbdc22238	-0.09479183
35	0xbdee3867	-0.11631852
36	0x3dfd6774	0.12373248
37	0x86b688b2	-6.8661647e-35
38	0x3e301d81	0.17198755
39	0x25a4f121	2.861286e-16
40	0xbbb13a5b	-0.005408568
41	0x3be574ff	0.0070024724
42	0x06b6a1ae	6.869836e-35
43	0x3df59ac0	0.11992407
44	0x06b68aae	6.866456e-35
45	0xbd95ed94	-0.07320705
46	0xbced5113	-0.028969323
47	0x3e906b2b	0.28206763
48	0xbca35ff9	-0.019943224
49	0x3ea118a1	0.31464103
50	0x3e58b6dd	0.21163507
51	0xbd69feb9	-0.057127688
52	0x3db0b436	0.086281225
53	0xbc2f0aad	-0.010683698
54	0x3db8f162	0.09030415
55	0xbd364117	-0.04449567
56	0x3e98762c	0.29777658
57	0x3deca7dd	0.11555455
58	0x3d78b17d	0.06071614
59	0x3e9b0a69	0.3028138
60	0x06b6b730	6.872996e-35
61	0x3e1ca914	0.15298873
62	0x1bf7c23b	4.098824e-22
63	0xbd107ab2	-0.03527326
64	0xbbe5ec6a	-0.007016708
65	0xbb090924	-0.002090999
66	0x3e72c0d2	0.23706368
67	0x86b695e2	-6.8681024e-35
68	0x3e2b238f	0.16712783
69	0x06b694ae	6.8679256e-35
70	0x06b6daf0	6.878249e-35
71	0x06b6bd90	6.873933e-35
72	0x86b69dd2	-6.8692687e-35
73	0x06b6a4ae	6.8702766e-35
74	0x86b6c350	-6.8747777e-35
75	0x06b69dd2	6.8692687e-35
76	0x06b698f2	6.8685524e-35
77	0x06b6ae32	6.871675e-35
78	0x06b685f2	6.8657606e-35
79	0x86b6b510	-6.872684e-35
80	0x06b6ded0	6.8788185e-35
81	0x86b6bb2c	-6.8735815e-35
82	0x86b6d9f0	-6.878102e-35
83	0x06b6b0cc	6.872057e-35
84	0x86b6d730	-6.877698e-35
85	0x86b6cfa0	-6.876587e-35
86	0x86b6be50	-6.874043e-35
87	0x06b6b52c	6.8727e-35
88	0x06b6cf0c	6.876502e-35
89	0x86b6ca50	-6.875806e-35
90	0x86b6c410	-6.874888e-35
91	0x86b694f2	-6.8679646e-35
92	0x3d19d906	0.037560485
93	0xbac48ad0	-0.0014994983
94	0x3c1681eb	0.009186248
95	0xbb80b42f	-0.0039277296
96	0x3c30b3e4	0.010785077
97	0x3d05c9db	0.032663208
98	0x3c6b958b	0.014378916
99	0xbc951a64	-0.01820106
100	0x3c24b4dc	0.010052886
101	0xbcd7a199	-0.026322173
102	0x3ba83d3c	0.005134253
103	0x3a736b4d	0.00092857034
104	0xbc351058	-0.01105126
105	0x3c0bac9a	0.008525038
106	0x06b6ac32	6.871381e-35
107	0xbc2c7807	-0.010526664
108	0x199e4423	1.6364337e-23
109	0x3db72c16	0.089439556
110	0x3bdfbdd8	0.006828051
111	0x3b059998	0.0020385738
112	0xbb87022d	-0.0041201324
113	0x86b6a242	-6.869921e-35
114	0xbc7341d3	-0.014847237
115	0xbd0513e7	-0.032489683
116	0x3ea29a4f	0.31758353
117	0xbd0ac15b	-0.033875804
118	0x3d4564ac	0.04819171
119	0x3ea3702a	0.31921512
120	0xbd87ee30	-0.066372275
121	0xbe1a25ab	-0.15053432
122	0xbd3b0c19	-0.045665834
123	0x3ce65259	0.028115438
124	0xbdddd5d0	-0.10831797
125	0x3e580d02	0.21098712
126	0xbd0e85f8	-0.03479573
127	0x3d724bd0	0.05915433
128	0x3ea68261	0.32521346
129	0x06b6924e	6.8675766e-35
130	0x3e9340bf	0.28760335
131	0x255044e6	1.8064468e-16
132	0xbdb6af75	-0.089201845
133	0xbbe6296a	-0.00702398
134	0xbb092a66	-0.0020929812
135	0x3dfaa36d	0.12238202
136	0x06b6af8c	6.8718734e-35
137	0x3d684150	0.05670291
138	0xbd02b5a2	-0.0319115
139	0x3e0a5c85	0.13511856
140	0x3e26d84c	0.16293448
141	0x3e8a17e6	0.26971358
142	0x3dcc2af3	0.099691294
143	0xbd7dd493	-0.061970305
144	0xbe3d96fd	-0.18514629
145	0x3e93db91	0.28878453
146	0xbdbb9e8f	-0.09161102
147	0x3df231ae	0.11825882
148	0x3ce64424	0.028108664
149	0x3e210f69	0.15728535
150	0x3eae1de3	0.34007177
151	0x3e032ab0	0.12809253
152	0x86b6b510	-6.872684e-35
153	0x3e7f63de	0.2494044
154	0x22501903	2.8202498e-18
155	0xbdb45ae3	-0.08806398
156	0xbbe5f186	-0.007017317
157	0xbb090c39	-0.0020911826
158	0xbd040bfd	-0.032237995
159	0x06b69692	6.8682034e-35
160	0x3e50c6b5	0.203883
161	0xbd0c2004	-0.03421022
162	0x3de3a4f1	0.111154445
163	0x3e844b76	0.25838822
164	0x3eab7853	0.33490238
165	0x3e8ba832	0.2727676
166	0xbd363c56	-0.044491135
167	0xbda0623d	-0.078312375
168	0x3e9d45f4	0.30717432
169	0x3e9c747a	0.30557615
170	0x3db9d529	0.0907386
171	0x3e8d118d	0.27552453
172	0x3dc0aa75	0.09407512
173	0x3e4085cb	0.18801038
174	0x3d7e4915	0.062081415
175	0x86b6cb50	-6.875953e-35
176	0x3ce2dac1	0.0276922
177	0xa642c89b	-6.757914e-16
178	0xbdba062f	-0.09083211
179	0xbbe5d1d2	-0.007013538
180	0xbb08fa0d	-0.0020900995
181	0x3e754d3d	0.23955245
182	0x06b6c3d0	6.874851e-35
183	0x3e8d2d1f	0.27573487
184	0xbd07e3db	-0.033176284
185	0x3e862fa3	0.2620822
186	0x3e5492fc	0.20759195
187	0x3e921646	0.28532618
188	0x3c3c2ac4	0.0114848055
189	0xbd5bc63a	-0.05365584
190	0xbe3cf8e0	-0.18454313
191	0x3e269b66	0.16270217
192	0x3ea26401	0.31716922
193	0xbd18964f	-0.03725272
194	0x3de4cac7	0.11171489
195	0xbd1a907f	-0.03773546
196	0x3cab126a	0.020882804
197	0x3da435a5	0.080180444
198	0x06b6d7f0	6.877808e-35
199	0x3eaec0fc	0.3413161
200	0xab1052f7	-5.1274214e-13
201	0xbdb7a1c2	-0.089664
202	0xbbe618a6	-0.0070219813
203	0xbb0920ee	-0.0020924169
204	0x3e9af852	0.30267578
205	0x06b69cf2	6.86914e-35
206	0x3ea9d4e0	0.33170223
207	0x3d2b691f	0.0418483
208	0x3bc90237	0.0061342972
209	0x3c2c5fac	0.010520857
210	0xbc0a2c64	-0.008433435
211	0x3c5b6f8e	0.013393296
212	0x3e1077cb	0.14108197
213	0x3d832aa4	0.064046174
214	0xbc0ec743	-0.0087145
215	0x3c3d2539	0.011544519
216	0xbb680778	-0.0035404842
217	0x3cbfe9a1	0.023426833
218	0xbc4c0bc9	-0.012453982
219	0xbd78b38b	-0.0607181
220	0x3bf9c960	0.0076228827
221	0x06b6bad0	6.873529e-35
222	0x3dabc4c8	0.083871424
223	0x9a14b244	-3.0749684e-23
224	0x3db749b1	0.089496024
225	0x3be55145	0.0069982135
226	0x3b08b1b4	0.0020857872
227	0xbc23fdc3	-0.010009232
228	0x86b6b9ec	-6.873398e-35
229	0xbd8dc7af	-0.06922852
230	0x86b6bd70	-6.8739144e-35
231	0x86b69a2e	-6.868734e-35
232	0x86b6ba90	-6.873492e-35
233	0x86b6ccd0	-6.8761736e-35
234	0x86b69c32	-6.86903e-35
235	0x86b6c090	-6.8743736e-35
236	0x86b6d9f0	-6.878102e-35
237	0x86b6de70	-6.8787634e-35
238	0x86b6ad2e	-6.8715256e-35
239	0x86b6cc50	-6.8761e-35
240	0x86b6d750	-6.8777164e-35
241	0x86b694f2	-6.8679646e-35
242	0x86b6b7f0	-6.873106e-35
243	0x06b68c32	6.866679e-35
244	0x06b6a272	6.8699483e-35
245	0x86b6ca6c	-6.8758223e-35
246	0x86b6d2ec	-6.877071e-35
247	0x86b6a412	-6.870187e-35
248	0x06b68e8e	6.8670256e-35
249	0x06b6bd70	6.8739144e-35
250	0x86b6a572	-6.870389e-35
251	0x86b6da68	-6.878171e-35
252	0x86b69b92	-6.868938e-35
253	0xbc980f5b	-0.01856201
254	0x3c6f541e	0.014607457
255	0x3e93332d	0.28749982

layer1.bias f4 [20]
0	0xbd83eb59	-0.064413734
1	0xbdb8b0db	-0.090181075
2	0xbd517082	-0.051132686
3	0x86b6ae32	-6.871675e-35
4	0x3c97155a	0.018442798
5	0x3db5ce35	0.088772215
6	0x3e422dfe	0.18962857
7	0x3e5bbb24	0.21458107
8	0x3e7fa04f	0.24963497
9	0x3be7d43b	0.0070748604
10	0x86b69cee	-6.869138e-35
11	0xbd939b69	-0.072073765
12	0xbd7f2dbc	-0.062299475
13	0x3e6e6ed4	0.23284465
14	0x3cf2a223	0.029618328
15	0x86b6a572	-6.870389e-35
16	0x3e865dfc	0.2624358
17	0x3db9b7a1	0.090682276
18	0x3d3bfb06	0.04589369
19	0xbcb553cd	-0.022134686

layer2.weight f4 [15, 20]
0	0xbbfaed2e	-0.0076576686
1	0xbdf489bb	-0.119403325
2	0x3c3e3271	0.011608706
3	0x86b6c1cc	-6.874555e-35
4	0xbd02d32d	-0.031939674
5	0x3d5c6dfd	0.05381583
6	0x3e511417	0.2041782
7	0x3e895b50	0.26827478
8	0x3e92da90	0.28682375
9	0xbdff20d1	-0.12457431
10	0x06b6a412	6.870187e-35
11	0x3d1199ba	0.035546996
12	0xbd81412c	-0.06311259
13	0xbe2807b5	-0.1640919
14	0xbd71ae29	-0.059003983
15	0x06b6ca50	6.875806e-35
16	0xbc306d01	-0.010768176
17	0xbd0c1b28	-0.034205586
18	0x3d994d4b	0.074854456
19	0x3e233e1c	0.15941662
20	0x3e34be96	0.17650828
21	0xbe1ac7b8	-0.15115249
22	0x3e973f58	0.29540515
23	0x06b6a272	6.8699483e-35
24	0xbce7889e	-0.028263386
25	0x3e057cc9	0.13035883
26	0x3e34e2c3	0.17664628
27	0x3d807ac4	0.06273416
28	0x3dc68e09	0.0969506
29	0xbd88d562	-0.066813245
30	0x86b6d930	-6.877992e-35
31	0x3de1e5ae	0.11030136
32	0xbd1827fd	-0.03714751
33	0xbe4b78f3	-0.19870357
34	0xbd63819a	-0.05554352
35	0x86b696b2	-6.868222e-35
36	0x3dcf1443	0.101112865
37	0xbe12d265	-0.14338072
38	0x3de90d94	0.11379543
39	0x3e98e112	0.29859215
40	0xbc65acd1	-0.014018253
41	0xbe2ad471	-0.16682602
42	0xbd157f9b	-0.036498647
43	0x86b69732	-6.868295e-35
44	0xbd0925b6	-0.03348323
45	0x3e90ae34	0.28257906
46	0x3e0d3d27	0.13792859
47	0x3e653735	0.22384341
48	0xbbe1af03	-0.006887318
49	0xbd835699	-0.064130016
50	0x86b6aa12	-6.8710687e-35
51	0x3e54090a	0.20706573
52	0x3d82c37e	0.063849434
53	0xbcc2b427	-0.023767544
54	0xbbc98a19	-0.0061504957
55	0x06b6c9d0	6.875733e-35
56	0x3e9cbac0	0.3061123
57	0xbea8c510	-0.32962847
58	0xbcbf280c	-0.023334526
59	0x3dd08bb6	0.10182898
60	0xbe286a94	-0.16446906
61	0x3db97ceb	0.09057029
62	0x3de4c887	0.1117106
63	0x86b6d550	-6.8774226e-35
64	0xbcca4b30	-0.024694055
65	0x3e2614f0	0.16218925
66	0x3e5e6f18	0.21722066
67	0xbda049b0	-0.07826555
68	0x3d309732	0.04311294
69	0x3d22a56e	0.039708547
70	0x86b6a3ae	-6.8701297e-35
71	0x3ca16d63	0.01970548
72	0x3db83a00	0.089954376
73	0x3dcf3e55	0.10119311
74	0xbd5226be	-0.05130648
75	0x86b6e2d0	-6.879406e-35
76	0x3d743b03	0.05962659
77	0xbdd7127c	-0.105015725
78	0x3da580bb	0.08081194
79	0xbe0eca65	-0.13944395
80	0x3e2df648	0.1698848
81	0xbe79abed	-0.2438199
82	0x3e2e6902	0.17032245
83	0x06b691b2	6.867487e-35
84	0xbd0ac6da	-0.033881046
85	0x3b7e412e	0.0038796174
86	0x3e236373	0.15955906
87	0x3e6a567e	0.22884557
88	0x3e22648b	0.15858667
89	0xbe008368	-0.12550128
90	0x86b6b72c	-6.872994e-35
91	0x3eae050e	0.3398823
92	0xbd8c3eec	-0.06847939
93	0xbe39df0a	-0.18151489
94	0xbe066a9e	-0.13126609
95	0x06b68a52	6.8664034e-35
96	0x3e973687	0.2953379
97	0xbe951ede	-0.29125112
98	0x3e28c832	0.16482618
99	0x3e09c573	0.13454227
100	0x06b6b710	6.872978e-35
101	0x86b698f2	-6.8685524e-35
102	0x86b6bdec	-6.8739856e-35
103	0x86b6d990	-6.878047e-35
104	0x86b6e210	-6.879296e-35
105	0x86b6c3d0	-6.874851e-35
106	0x86b6c1ac	-6.8745366e-35
107	0x86b6c610	-6.875182e-35
108	0x86b6a932	-6.87094e-35
109	0x86b6cfcc	-6.876612e-35
110	0x06b6ca50	6.875806e-35
111	0x86b6c270	-6.874649e-35
112	0x86b6def0	-6.878837e-35
113	0x06b6e130	6.8791674e-35
114	0x06b6d1d0	6.876908e-35
115	0x06b6dbf0	6.878396e-35
116	0x86b685d2	-6.865742e-35
117	0x86b6d670	-6.877588e-35
118	0x86b6c310	-6.874741e-35
119	0x86b6bdec	-6.8739856e-35
120	0x3c0922b8	0.008370094
121	0x3aaca5a8	0.0013171928
122	0x3dd576f5	0.1042308
123	0x06b68652	6.8658157e-35
124	0xbb05bb27	-0.002040574
125	0x3d877924	0.066149026
126	0x3d31a73c	0.043372378
127	0x3e314cb2	0.17314413
128	0x3e2b5f76	0.16735634
129	0x3a9bce2e	0.0011887008
130	0x06b68b92	6.866587e-35
131	0xbe2c9404	-0.16853338
132	0xbaf45dfa	-0.001864373
133	0xbc657552	-0.014005022
134	0xbbaa2266	-0.005192089
135	0x06b6c1cc	6.874555e-35
136	0xbdd3e546	-0.10346465
137	0x86b6a1ae	-6.869836e-35
138	0xbe270004	-0.163086
139	0xbe0e4cae	-0.13896438
140	0xbd496d66	-0.049176596
141	0xbcfcaca4	-0.03084404
142	0xbd833c66	-0.064080045
143	0x06b69aee	6.868844e-35
144	0xbc83b543	-0.016077643
145	0x3e833c99	0.2563217
146	0x3e9ca8ec	0.30597627
147	0x3e278df1	0.1636274
148	0x3e1d319d	0.15350957
149	0xbd8dd9a1	-0.06926275
150	0x86b6d2ac	-6.8770345e-35
151	0x3e922067	0.28540346
152	0x3e252f5b	0.16131346
153	0x3e028eb0	0.12749743
154	0xbdc37f0a	-0.09545715
155	0x86b6d990	-6.878047e-35
156	0x3ead8af2	0.3389507
157	0xbc8d4383	-0.017244106
158	0x3e09321c	0.13398021
159	0x3d3e47da	0.04645524
160	0x3e6190ca	0.22027889
161	0xbe0afde9	-0.13573422
162	0xbd5cfa9f	-0.05394995
163	0x06b6e270	6.879351e-35
164	0xbd3f9b6d	-0.046779085
165	0x3e9a21d2	0.30103928
166	0xbcd4d986	-0.02598263
167	0x3e5eaa0c	0.21744555
168	0x3da7fbe7	0.082023434
169	0xbe31b6a5	-0.1735483
170	0x06b6a532	6.8703524e-35
171	0xbc999ba7	-0.018750979
172	0x3d856038	0.06512493
173	0xbd200fc4	-0.039077535
174	0xbd6be11b	-0.057587724
175	0x06b6ca50	6.875806e-35
176	0xbd645397	-0.05574378
177	0x3cb013fc	0.021493904
178	0x3e80b669	0.25139168
179	0x3e8c20c1	0.2736874
180	0x3e5fcbfd	0.21855159
181	0xbdaa975b	-0.0832965
182	0x3e8cb956	0.2748515
183	0x06b6ccd0	6.8761736e-35
184	0xbd04edb2	-0.032453246
185	0x3e9e1c3b	0.30880913
186	0x3e4f95b6	0.20271954
187	0x3d7a9c6e	0.06118434
188	0x3e1410b6	0.144595
189	0xbe2806b7	-0.16408812
190	0x06b6a9ee	6.871048e-35
191	0x3e23a6ef	0.15981649
192	0x3bb69fef	0.005573265
193	0xbe0fbe8e	-0.14037535
194	0xbce7a15f	-0.02827519
195	0x06b69032	6.8672667e-35
196	0x3e8eeb7b	0.27914032
197	0xbe5d7fb7	-0.2163075
198	0x3e7977b4	0.2436207
199	0x3e2521e9	0.16126217
200	0x86b6ccdc	-6.8761805e-35
201	0x86b6d468	-6.8772894e-35
202	0x86b6b98c	-6.873343e-35
203	0x86b69fd2	-6.8695626e-35
204	0x86b6c214	-6.8745963e-35
205	0x86b6de90	-6.878782e-35
206	0x86b6c5ac	-6.8751244e-35
207	0x86b68b02	-6.8665045e-35
208	0x86b6ddd0	-6.8786715e-35
209	0x86b6a412	-6.870187e-35
210	0x06b6d5f0	6.8775144e-35
211	0x86b6b0f0	-6.872078e-35
212	0x86b68d32	-6.866826e-35
213	0x86b6b090	-6.8720226e-35
214	0x86b6bdac	-6.873949e-35
215	0x06b6dff0	6.878984e-35
216	0x86b6d24c	-6.8769794e-35
217	0x06b69862	6.86847e-35
218	0x86b691e2	-6.8675147e-35
219	0x86b68d32	-6.866826e-35
220	0x06b6ccd0	6.8761736e-35
221	0x86b6b4ec	-6.872663e-35
222	0x86b6a3ae	-6.8701297e-35
223	0x86b6daf0	-6.878249e-35
224	0x06b6948c	6.867906e-35
225	0x86b68de2	-6.866927e-35
226	0x86b6926e	-6.867595e-35
227	0x86b6c950	-6.8756593e-35
228	0x86b6e130	-6.8791674e-35
229	0x06b6b44c	6.8725713e-35
230	0x86b6cfcc	-6.876612e-35
231	0x86b6e130	-6.8791674e-35
232	0x86b6db50	-6.878304e-35
233	0x06b6b510	6.872684e-35
234	0x06b6a892	6.870848e-35
235	0x06b6b430	6.872555e-35
236	0x86b69692	-6.8682034e-35
237	0x86b6b6f0	-6.8729593e-35
238	0x86b69862	-6.86847e-35
239	0x86b68732	-6.865944e-35
240	0x86b6aa52	-6.8711054e-35
241	0x86b6c594	-6.8751106e-35
242	0x86b6c14c	-6.8744815e-35
243	0x06b6bdec	6.8739856e-35
244	0x06b68bce	6.8666216e-35
245	0x86b69332	-6.8677075e-35
246	0x86b6bf2c	-6.874169e-35
247	0x86b69e32	-6.869324e-35
248	0x86b6c00c	-6.874298e-35
249	0x86b6d670	-6.877588e-35
250	0x86b6a9ae	-6.8710113e-35
251	0x86b6d0ec	-6.8767774e-35
252	0x86b6ba2c	-6.8734346e-35
253	0x86b6e270	-6.879351e-35
254	0x06b6db70	6.8783225e-35
255	0x86b689f2	-6.8663483e-35

layer2.bias f4 [15]
0	0x3dbd3a96	0.0923969
1	0xbd3cc6bd	-0.04608797
2	0x3d8f5422	0.06998469
3	0xbe1bdb22	-0.15220311
4	0x3e92d06f	0.28674647
5	0x86b6ca50	-6.875806e-35
6	0xbe206802	-0.15664676
7	0x3e0dfcb1	0.13865925
8	0x3bcb613f	0.006206661
9	0x3d29f9de	0.041498058
10	0x86b6ab4e	-6.87125e-35
11	0x86b6a1ae	-6.869836e-35
12	0x86b6a072	-6.8696544e-35
13	0x86b6e3f0	-6.8795715e-35
14	0xbdfaa080	-0.12237644

layer3.weight f4 [7, 15]
0	0x3e29ac6b	0.16569678
1	0x39645499	0.0002177529
2	0xbe23dd8d	-0.16002484
3	0xbe175a55	-0.14780553
4	0x3dcf6fbd	0.10128734
5	0x06b6b250	6.87228e-35
6	0x3c35e658	0.0111022815
7	0xbdc97d43	-0.09838345
8	0x3e314b96	0.1731399
9	0x3cd5cc0b	0.026098272
10	0x86b6ccdc	-6.8761805e-35
11	0x06b69dd2	6.8692687e-35
12	0x06b6ca40	6.875797e-35
13	0x06b69cf2	6.86914e-35
14	0xbd622f67	-0.055220988
15	0x3bbbca7b	0.0057309247
16	0x3d7f3b01	0.06231213
17	0x3df5cc15	0.12001816
18	0xbe80b406	-0.25137347
19	0xbe0ae92f	-0.13565515
20	0x86b6a1ae	-6.869836e-35
21	0xbc829128	-0.015938357
22	0x3e09f16e	0.13471004
23	0x3dafa8ad	0.08577094
24	0xbc3a2482	-0.011361243
25	0x06b6b22c	6.872259e-35
26	0x06b6a24e	6.8699276e-35
27	0x86b6ca0c	-6.875767e-35
28	0x06b6dbf0	6.878396e-35
29	0xbdfd4877	-0.12367337
30	0x3a218d9c	0.0006162764
31	0xba23d802	-0.0006250144
32	0x3b2367da	0.0024933727
33	0xb823f6b2	-3.909198e-05
34	0xba7765c2	-0.00094374653
35	0x06b69a72	6.868773e-35
36	0x374192a0	1.1537835e-05
37	0xb9078a2a	-0.00012926073
38	0xba14f1bd	-0.0005681774
39	0xbb54f6a9	-0.0032495654
40	0x06b68cf2	6.866789e-35
41	0x06b6b710	6.872978e-35
42	0x86b6b54c	-6.872718e-35
43	0x06b6ad2e	6.8715256e-35
44	0x3b295b7b	0.002584188
45	0x3e21953b	0.15779583
46	0x3b895b36	0.0041917814
47	0xbe38ccf6	-0.18046936
48	0xbde0c283	-0.109746
49	0xbe5a12cb	-0.21296231
50	0x86b6ac32	-6.871381e-35
51	0xbc8149ed	-0.01578232
52	0x3d591abb	0.053004008
53	0xbd077329	-0.03306881
54	0x3d90d012	0.07070936
55	0x06b6cf30	6.8765226e-35
56	0x06b6c24c	6.8746285e-35
57	0x86b6d9f0	-6.878102e-35
58	0x06b6a272	6.8699483e-35
59	0x3dc0a1d1	0.09405864
60	0x3ea00d58	0.3126018
61	0x3e86e894	0.26349318
62	0x3e0046f0	0.1252706
63	0x3d8dacd6	0.069177315
64	0x3eb17004	0.34655774
65	0x86b6c1cc	-6.874555e-35
66	0x3c5da826	0.013528859
67	0x3eb44433	0.35208282
68	0x3e396136	0.1810349
69	0x3ec5a35c	0.38601196
70	0x86b6dbf0	-6.878396e-35
71	0x86b6c6ac	-6.8752713e-35
72	0x06b6acf2	6.871491e-35
73	0x86b6bcd0	-6.8738226e-35
74	0x3eb6ad50	0.35679102
75	0x3ca0cd18	0.019629046
76	0xbc0fe971	-0.008783684
77	0xbd7981fc	-0.06091498
78	0x3c23ef4e	0.010005785
79	0xbd02bdec	-0.031919405
80	0x06b6ad2e	6.8715256e-35
81	0xb71a60bf	-9.201641e-06
82	0x3d27ade1	0.04093731
83	0xbb8dd12b	-0.0043279133
84	0xbd59acfc	-0.053143486
85	0x06b6d790	6.877753e-35
86	0x06b6a1ae	6.869836e-35
87	0x06b6b72c	6.872994e-35
88	0x86b6ddd0	-6.8786715e-35
89	0x3dac83bd	0.084235646
90	0x86b6e270	-6.879351e-35
91	0x86b6ad42	-6.871537e-35
92	0x86b6bd4c	-6.873894e-35
93	0x86b695ce	-6.868091e-35
94	0x86b6bdec	-6.8739856e-35
95	0x86b68b92	-6.866587e-35
96	0x86b6ddd0	-6.8786715e-35
97	0x86b68652	-6.8658157e-35
98	0x86b6c1cc	-6.874555e-35
99	0x86b6a412	-6.870187e-35
100	0x86b68872	-6.866128e-35
101	0x86b6aa52	-6.8711054e-35
102	0x86b6b54c	-6.872718e-35
103	0x86b6d450	-6.8772756e-35
104	0x86b6d670	-6.877588e-35

layer3.bias f4 [7]
0	0xbe000b2a	-0.12504259
1	0x3dcc836c	0.09986004
2	0xb88da3c5	-6.7539084e-05
3	0x3e15912b	0.14606158
4	0x3e7c2528	0.24623549
5	0xbd06eed8	-0.032942623
6	0x86b68bb2	-6.8666055e-35

layer4.weight f4 [1, 7]
0	0x3c2aa625	0.0104155885
1	0xbe6729e2	-0.22574571
2	0x388ac560	6.617117e-05
3	0xbe32bd0b	-0.17454927
4	0x3ed53cd6	0.41647977
5	0x3a236335	0.00062327395
6	0x06b6c310	6.874741e-35
