weights/mape_unorm_eth_lstm.pth (torch_old, 22988 bytes, 11 tensors)

lstm.weight_ih_l0 f4 [92, 23]
00000000: 8fe8 b03d 7474 a93c 3c39 433c 2c49 2d3c
00000010: 5477 bf3d fb29 9f3d d320 45bc befd a9bb
00000020: 0f55 f1bb 5c04 58bc d6c7 4ebb 7aee 06bc
00000030: 4dbf e3bb 5ea1 a53c 589c 22bc c49f 6b3b
00000040: 56b3 d63b b3ff 06bc c26c 10bc 6688 383c
00000050: d967 65bc 8aa8 183e 26e7 f2bb fe68 343e
00000060: d86a 013e 2c79 0abd 0b63 f73c bd76 9cbd
00000070: e46e e1ba 0702 03bc d7c7 99be 47e7 42be
00000080: c0d4 03be 0dee 6b3d 5819 043d 3bac 2bbb
00000090: bbbb 143b 1e16 1dbe d3fe ddbd 968f 9ebd
000000a0: a06b 2cbe f34a f1bd 410c 283e ae5c 0c3e
000000b0: 645e 423e f4d2 79bd 6340 953d c170 3b3e
000000c0: ae39 d4bd 61e0 afbd 74da 283e 1106 7cba
000000d0: e4fa 203c 00a7 b33e 3e4e 74bc 5a82 6e3e
000000e0: b5af cfbd dd87 6e3e 6c82 8c3e 70bb ef3d
000000f0: cd97 823e fdd9 b0bd 4375 f13d 6711 753e
00000100: 7d04 c63d c15a 073d f2ca 5a3e 77be cf3c
00000110: 1df2 a43b 4811 aebd be50 9bbd b96c a8bd
00000120: 2a7d e23d f619 b43d f9b8 d93d 9e89 183c
00000130: 6019 5dba d9c9 d6b9 4be7 ecbb 52c0 4abb
00000140: ade2 0cbd e37c 753c 6301 493d 8cc2 87bd
00000150: 3344 cabd c3c6 823d 43bb d03c 6159 09bd
00000160: b11a 49bb 17cf 10bc 39e3 0a3e 4e11 6bbd
00000170: dfc4 0fbc 9415 11bc 29cc 0fbc 3dfd 1cbc
00000180: 3a58 14bc e828 d43d 829d b7bb c347 33bb
00000190: 7bd1 5dbb 2dd4 6fbb ed0a 25bc 2c92 bbbb
000001a0: 1968 4abb 432a b5bb 61d9 c2bb 18a1 0cbc
000001b0: 91bb e9bb 3d79 b1bb 2cb9 b1bb 957e b6bb
000001c0: 662d b3bb 4723 d4bb e524 a3bb 3397 c839
000001d0: db65 093a fa3f 1b3a 6135 863a f8cb 4a3a
000001e0: 2788 aa3d 2651 3f3b a27a 353b 8412 1d3b
000001f0: b227 483b 981a 5f3a 49de 4b3b 9816 3b3b
00000200: 3a6c 103b 1277 fd3a 45b1 1d3a 2f88 8c3a
00000210: 5e4a 513b ed3a 473b 1670 4e3b a493 453b
00000220: 5e1e 5c39 fd5e f139 bf00 e83d f2de 483d
00000230: 7ffa 7d3d 7d1d 6a3d 8c46 773d 7ef8 233e
00000240: 2218 9c3b a64a f539 2e8c c23a 1cb5 a23a
00000250: 6331 303c bc61 143b 2779 243a 113f 673c
00000260: 8574 c33c bc78 493c 48a5 5a3c ca5c b63b
00000270: bf0b 813b 9030 5b3b a24d d43b ad6b 65bc
00000280: 2fe5 183c 3bad 483d b381 403d 633a 563d
00000290: fceb 393d 4263 543d d31a c93d aa35 2f3d
000002a0: 469b 123d bc88 263d fcb7 043d 126e 5b3d
000002b0: 54e5 253d db2a 133d d636 4a3d 0718 513d
000002c0: abf1 503d 1456 413d c461 223d 7083 243d
000002d0: 8f58 223d bb47 243d 52a2 443d f61a 3b3d
000002e0: 20f3 b83d b79c d1bc 09fa 973d 21ee 703d
000002f0: d861 8a3d bd37 ae3d 5dfb 9f3c 9664 5f3b
00000300: e03d c03b 4439 c83b dc6a b6bc dbde a63b
00000310: c5b1 873b 0aa7 433c 3477 023d 5085 d73d
00000320: 5337 f33c 208d 793c 10af 1b3b 1d0c ea3a
00000330: 0039 9f3c 70e1 5bbd 54bd e33b 8d34 2d3e
00000340: 134e cf3d 3ce3 823d 7c50 873d a79c fd3d
00000350: ba53 be3d 78a9 013e 0406 ef3d 8325 553e
00000360: 87ee 393e 2df9 173e 6b78 cc3d e8e0 e73d
00000370: 57b8 bc3d 9f64 9d3d f44b 273e 6b3d d33d
00000380: 6ad5 173e bb85 183e 0df6 9d3d a6e2 473e
00000390: 323b 1e3d 30f5 133e 8e55 573d aed5 10be
000003a0: 18cf b0bd d601 efbd e448 07be a4ce a93c
000003b0: 2d77 033e bbf2 52bd 4081 e63d cd11 cd3d
000003c0: f2e3 743e 3ec3 283e cb07 fb3d 9098 033e
000003d0: b23e 86bc 9cb9 c5bd a98b 07be 80ce 833d
000003e0: 614a 333c 66b6 ef3d 4062 3b3d 200e bcbd
000003f0: 71da 813d 7bfb a0bd a69b aebd 126d bdbd
0.08638107 0.020685412 0.011915501 0.010576528 0.09348932 0.07771679 -0.012031752 -0.005187719
-0.007364876 -0.013184633 -0.0031552217 -0.008235568 -0.006950295 0.020218547 -0.009924971 0.0035953382
0.00655214 -0.008239674 -0.008814992 0.011262989 -0.01400181 0.14908043 -0.007412809 0.17618176
0.12638414 -0.033806965 0.030198595 -0.07639835 -0.0017199186 -0.007996089 -0.30035278 -0.19033538
-0.12874126 0.05760007 0.032250732 -0.0026195187 0.0022694904 -0.15340468 -0.108396195 -0.077422306
-0.1683793 -0.117818736 0.16410924 0.1370723 0.1898132 -0.060992196 0.072876714 0.18304731
-0.10362564 -0.08587719 0.16489583 -0.0009613941 0.009825442 0.35088348 -0.0149112325 0.23291913
-0.10140935 0.23294015 0.27443254 0.11705673 0.2550644 -0.08635328 0.11789944 0.2393242
0.09668825 0.033045534 0.2136648 0.025359375 0.005033745 -0.0849939 -0.0758376 -0.08223862
0.110590294 0.08794014 0.10630984 0.009310154 -0.0008434262 -0.0004096765 -0.0072297207 -0.0030937386
-0.034395862 0.014983389 0.049073588 -0.06628904 -0.09876289 0.06385567 0.025479918 -0.033532504
-0.0030686075 -0.008838437 0.13563241 -0.05738955 -0.008774965 -0.008855242 -0.008776703 -0.009581861
-0.009054238 0.10359365 -0.005603493 -0.0027356006 -0.0033846784 -0.0036594972 -0.010073406 -0.005724212
-0.00308848 -0.0055287196 -0.0059463237 -0.00858333 -0.0071329554 -0.005416064 -0.0054236855 -0.005569289
-0.0054680584 -0.006473932 -0.0049787634 0.00038259625 0.0005241313 0.0005922314 0.0010239297 0.0007736082
0.0832675 0.0029192655 0.0027691503 0.0023967335 0.0030541238 0.00085107377 0.0031107834 0.0028547402
0.0022037164 0.0019337854 0.000601549 0.0010721738 0.0031935195 0.0030400113 0.0031499914 0.0030147815
0.00020992148 0.00046037874 0.11328267 0.049040742 0.06200647 0.05715703 0.060370013 0.16012761
0.004763619 0.0004678566 0.0014842802 0.0012413594 0.010753962 0.0022641262 0.00062741566 0.014114157
0.023859272 0.012296852 0.01334507 0.0055652605 0.003938168 0.0033445694 0.006478981 -0.014002723
0.009331985 0.04899333 0.04699869 0.052301776 0.045391068 0.051852472 0.098195694 0.042775787
0.03579261 0.040657744 0.032402024 0.053571768 0.040501907 0.035929542 0.049368702 0.051048305
0.051011723 0.04720123 0.039644018 0.04016441 0.039635237 0.04010747 0.048006363 0.04568001
0.090307474 -0.025587423 0.07420737 0.058820847 0.067569435 0.08506725 0.019529039 0.0034087054
0.005866751 0.006110342 -0.022267751 0.0050924844 0.004141065 0.011941681 0.031851962 0.10523474
0.029689467 0.015231401 0.0023755468 0.0017856393 0.01943636 -0.05368179 0.00695006 0.16914578
0.10122313 0.06390998 0.06607148 0.12383395 0.09293313 0.12662303 0.11671069 0.20815091
0.18157397 0.14841147 0.099839054 0.11322194 0.092148475 0.076852076 0.16337568 0.10314449
0.14827505 0.14894764 0.07712946 0.19520053 0.03863067 0.14449 0.052571826 -0.14144012
-0.0863325 -0.11670272 -0.132114 0.020728417 0.1283843 -0.051501017 0.11255121 0.10013161
0.23915079 0.16480729 0.12257346 0.12851167 -0.016387317 -0.09654543 -0.1323687 0.06435871
0.010943026 0.117047116 0.045747995 -0.09182382 0.063404925 -0.07860466 -0.08525781 -0.09249319

lstm.weight_hh_l0 f4 [92, 23]
00000000: d765 693d 3dd6 b73c 3c44 853c 9144 dfbc
00000010: 2837 893c 5a22 5d3a 2183 403c 0c0d ea3c
00000020: dda9 313d eb9a d73c d402 323c ef54 c83d
00000030: 709b 07bd b9cf 493c 15cd 13bc 4b38 13bc
00000040: 3ff1 07bb 0f44 bbbb d1c8 61bc 7e7f 273d
00000050: ea18 1a3d 7a74 a8bc 88c4 833d 3ff2 5d3e
00000060: 1b75 60be 12b4 f73d 8cbc a3be 39ef 1e3e
00000070: 05b1 34be 8235 ed3b 976c 2dbe b46c 41be
00000080: 9bc0 acbd cb72 09bc 2fbf 07be 45a7 f1bb
00000090: d275 76bd 97cc 9cbc 8bd4 58be a07e a3bc
000000a0: 79c9 343e 3e95 6c3d d3c8 3f3e 7fed 31be
000000b0: f6b3 f1bd 4bbc 9e3c fd1d 253e 10be 99be
000000c0: 211a 04be 1c08 df3d cc58 4cbe 6f02 7f3e
000000d0: 0802 0c3c f3cc cfbb cdcd c0bd f357 9d3d
000000e0: 9e02 02bd 5abc 553e 4da3 f43d 1fc3 9f3d
000000f0: f529 873d 88fb 15be 0fc5 f8bb 49b6 bbbd
00000100: 9591 453e ab23 313e c743 4a3e 964f 22bd
00000110: 5037 18bc d9a4 87bd a8d5 b4bd eb8f 9cbd
00000120: 5681 dfbd ecd8 cebd 4f35 b63c 9270 bb3d
00000130: 5429 c4bd 5ec3 9d3a 06da 733c a243 31bd
00000140: 970b c2bd 5b83 46bd b7a0 213d 7f17 b23d
00000150: e6a5 f83c f3e6 033c 8ad6 eebd 2a30 d23d
00000160: b280 8dbb 15fb 4f3d be44 2bbd e773 b2bc
00000170: e517 20bc 93be 1fbc 7a18 1ebc cc31 1dbc
00000180: bfed 1ebc f755 1dbc 6b5d 1abc 8ab7 1cbc
00000190: 35a6 1ebc c9a1 1dbc 7aa0 1dbc 0649 20bc
000001a0: 789f 20bc 7b06 20bc 7c5c 1ebc e5f6 1dbc
000001b0: 2ab0 1dbc 8343 1ebc 0feb 1ebc 8808 1ebc
000001c0: fe26 21bc 6d30 1fbc 0013 1fbc 5811 abb9
000001d0: 8d65 3fbb 6203 33bb 75d6 56bb dd6d aeba
000001e0: d1aa b2ba cf7e 42bb 0fb9 55bb 2676 6aba
000001f0: d812 50bb 6cd1 53bb 6dec 9fba 373d 4939
00000200: ed70 3839 df81 55ba dada 3abb 99ab d9ba
00000210: b8ec acba 1103 aaba ac24 4dbb 9064 8c39
00000220: 800c aeba 26fd aaba b4b9 5f3d 7619 3fbc
00000230: c245 4c3b f3a6 74bd f62b 0ebb 66c8 06bb
00000240: cff9 aebd da83 eb3c bb6f 503b 1773 c6bc
00000250: f0a3 fe3c 7c51 11bb c91c 843d 8ce2 b53d
00000260: 8b35 503a 7279 32bb 253a 8dbb 1b98 04bb
00000270: 5eea b3ba 4316 99bb d939 c33d 74ed daba
00000280: 30e2 feba a15c 403d f314 1dbc 2e96 3f3b
00000290: f7bd 60bd f6a9 3a3d 3032 bb3b 968a f9bc
000002a0: 1de3 a7bc a9e2 3a3d da60 9bbc 5f2b 53bd
000002b0: d9b2 143d ede5 433c 2b2c 4f3c 2784 f53b
000002c0: efb8 84bc 1d60 5e3c 276b 193d 4ea0 193d
000002d0: bf88 74bc 05fe 4c3c 85d5 1f3d f2ad 1c3d
000002e0: 7299 c23d b330 0cbb 8a62 f33c cb69 1b3b
000002f0: 9914 273d cbb3 a63c afd1 65bb 1a21 433d
00000300: 6206 f13c 8253 e23d 6587 203d 8259 30bb
00000310: 4140 3c3d eb2a 863d 01b4 1d3d 7da7 9e3c
00000320: 381e 2c3d 8423 b839 01bb e13d 073a 7a3d
00000330: 8de9 423d 6452 e73d 52e3 b8bc c158 d83d
00000340: de9c 8bbd 7719 35bd fbd4 65be 65d9 353e
00000350: 844d cf3d 7b43 57bc aec5 483c 6f78 c73d
00000360: b117 d5bc 6b68 c9bd b88f 103e 4fd4 053e
00000370: 4368 f33d bbf8 e63d 06f1 333d 7333 da3d
00000380: f491 f83d a7e6 013e 5f2d ddbd 4f89 6a3d
00000390: 2eb7 013e f3bc 003e 880f ccbc 6912 82bd
000003a0: e6aa bd3d aadf 83be 62ba 493e 03a9 19be
000003b0: 0081 ab3b dd57 77be e351 63bd bfcf 8c3d
000003c0: 4c23 d6bc 4a37 083d aa6b 453d 771b 34be
000003d0: e2c6 c3bd 2b62 83bc a626 853c db51 1c3e
000003e0: 95f6 93bc 213c 21be 7365 ea3d 5fcc 13be
000003f0: 6851 433e d49f c0bd 48e9 b33d ac03 ba3d
0.056981888 0.022441024 0.016267888 -0.027254375 0.016749933 0.00084356 0.011750014 0.028570674
0.043374885 0.026318988 0.010864932 0.09781825 -0.03310722 0.012317591 -0.009021063 -0.008985589
-0.002074316 -0.0057149003 -0.0137807885 0.04089307 0.037621416 -0.020563353 0.0643397 0.21674441
-0.21919672 0.120948926 -0.31979787 0.15520944 -0.17645653 0.0072390446 -0.16935955 -0.18889123
-0.08435174 -0.008389185 -0.13256525 -0.0073746764 -0.060170956 -0.019140525 -0.21174829 -0.01995784
0.1765498 0.057759516 0.18728952 -0.17375754 -0.11801903 0.019376894 0.16124721 -0.3002782
-0.12900592 0.108902186 -0.19955748 0.24903272 0.008545406 -0.0063415705 -0.094142534 0.076827906
-0.031740777 0.20872632 0.1194521 0.07800888 0.065997995 -0.14646733 -0.0075918506 -0.091656275
0.19293816 0.17298763 0.19752418 -0.03962668 -0.009290531 -0.06623239 -0.08829814 -0.07644638
-0.10913341 -0.10099968 0.022242216 0.091523305 -0.09578195 0.0012036373 0.014883524 -0.04327739
-0.09474867 -0.048465114 0.03945991 0.08695888 0.030352544 0.008050668 -0.11662014 0.10263093
-0.00431832 0.05077656 -0.041813605 -0.021783782 -0.009771322 -0.009750026 -0.00964939 -0.009594392
-0.009700238 -0.009603015 -0.009421687 -0.0095652435 -0.0096831815 -0.009621092 -0.00962078 -0.009783035
-0.009803645 -0.00976717 -0.009665605 -0.009641384 -0.00962452 -0.009659651 -0.009699597 -0.009645589
-0.009835957 -0.009716135 -0.00970912 -0.00032628584 -0.0029204816 -0.0027315249 -0.0032781635 -0.0013307888
-0.001363123 -0.0029677635 -0.0032611524 -0.0008943997 -0.0031749513 -0.003232087 -0.0012201198 0.00019191658
0.00017589676 -0.00081446575 -0.0028511793 -0.0016606926 -0.0013193106 -0.0012970885 -0.0031302376 0.00026777806
-0.0013278872 -0.0013045415 0.05462046 -0.011663785 0.0031169509 -0.059729528 -0.0021693683 -0.0020566224
-0.08543741 0.028749395 0.0031804878 -0.024224801 0.03108403 -0.0022173813 0.06450803 0.08881101
0.0007942549 -0.0027233032 -0.00430991 -0.0020232263 -0.0013726463 -0.0046718433 0.09532518 -0.0016702847
-0.0019446071 0.046963338 -0.009587514 0.0029233801 -0.054868665 0.045572244 0.00571277 -0.03046159
-0.020494038 0.045626316 -0.01896708 -0.051555034 0.036303375 0.011956674 0.012644808 0.0074925604
-0.016201464 0.01357272 0.037455704 0.037506394 -0.014925181 0.012511735 0.039021987 0.038251825
0.095019236 -0.0021391332 0.029710073 0.002371418 0.040791128 0.020349404 -0.0035067608 0.04763899
0.029421989 0.11051084 0.039191622 -0.002690882 0.045959715 0.06551155 0.038501743 0.019366974
0.042021006 0.00035121676 0.11021996 0.061090495 0.047586013 0.11295012 -0.022569332 0.105638035
-0.068170294 -0.04421374 -0.22444527 0.1775871 0.10122207 -0.013138647 0.012254162 0.09739768
-0.026012274 -0.09834369 0.14117324 0.1306927 0.11885121 0.1127791 0.04393103 0.106543444
0.12137213 0.12685643 -0.107996695 0.057259854 0.12667534 0.12572078 -0.02490975 -0.06351168
0.09261112 -0.2575658 0.19700006 -0.15005879 0.005233884 -0.24154611 -0.055498015 0.06875562
-0.026139878 0.033255853 0.04819838 -0.17588602 -0.09559418 -0.016038021 0.01625378 0.152656
-0.018061915 -0.15745594 0.11445131 -0.1443343 0.19074023 -0.09405485 0.08784729 0.090827316

lstm.bias_ih_l0 f4 [92]
00000000: 9df6 d63d f961 0f3e f52a cebd cedd acbc
00000010: 3196 21bc 5192 c639 5130 cc3d e2db 483d
00000020: 59d9 273d 7acc 1b3e 9c60 143e d1c1 cdbd
00000030: 1caa 303d 700e 033d a4c7 aa3c dae8 cf3d
00000040: 3592 cf3d 6a0b c43c 5b27 1d3d c4ce 99ba
00000050: 903f 213e 8ebe 7f3d 7d68 28bb 7181 f33a
00000060: ed47 933e b96c e63d ae19 37bd b58a 1cbc
00000070: 6370 713d a562 e6bd fffd a83d 7e85 0a3e
00000080: 10d3 7fbd 3cd5 203e b37f 793e 377a 5d3d
00000090: dc6a b73d 9121 963d 31a9 14be fc1c 3dbe
000000a0: 8fc0 b3bd 05ea 38bb 1fee b63b 09d3 e23d
000000b0: 17c4 c8bb 81e5 5bbc 8a59 3fbb e207 df3c
000000c0: 1b9a b8bd c7b0 543b 1c49 94bc 9f70 b8bb
000000d0: 056a 863d 10c1 4f3b 16bd debb cb5e 7cbd
000000e0: 0221 803b cc0b 8b3c a77e 813c 4230 ab3c
000000f0: 73e9 38bc 4572 5aba c736 dcbb 4401 d9bd
00000100: 13c5 59bb 1f0a 02be c8ea 643b 1279 b43d
00000110: 848e 1abb 7c5d fcbd 2174 ec3b 1610 453c
00000120: 94e5 ba3b d2a7 5bbe 8eca b63d eb8a 0f3b
00000130: 9d6f 8b3e cef2 89be d772 1b3e c254 b03d
00000140: a120 3dbe 7c7e 173e 6dd5 543e 96d5 9c3d
00000150: 85d2 f9ba f52d d23d 757d 013c 6ffc 56be
00000160: a349 413b b713 003e 8c70 55be ee38 a0bd
0.104962565 0.14002217 -0.10066787 -0.021101858 -0.009862469 0.00037874517 0.09970153 0.04903782
0.040978763 0.1521472 0.14489979 -0.10046733 0.04313098 0.03199619 0.02084715 0.10151835
0.10135309 0.023931224 0.03836761 -0.0011734595 0.15746903 0.062437586 -0.0025697045 0.0018578005
0.28765813 0.11251206 -0.044702224 -0.009554555 0.05894507 -0.11249284 0.08251571 0.13527486
-0.062457144 0.15706342 0.2436512 0.05407163 0.08955929 0.07330621 -0.14517666 -0.18468088
-0.08776962 -0.0028215658 0.0055825855 0.11075408 -0.0061268914 -0.013421417 -0.0029197657 0.027225439
-0.09013768 0.0032454 -0.018101268 -0.00562866 0.0656319 0.0031700768 -0.006797443 -0.06161384
0.003910185 0.016973399 0.015807463 0.020897035 -0.011286127 -0.00083330675 -0.006720397 -0.105959445
-0.0033229038 -0.12699173 0.003492998 0.08812155 -0.002358348 -0.12322518 0.007215992 0.012027761
0.0057036374 -0.21450737 0.08925353 0.002190287 0.27233592 -0.26943058 0.15180527 0.08609916
-0.18469478 0.14794344 0.2078454 0.07657926 -0.0019059932 0.10262672 0.007903446 -0.20994733
0.0029493354 0.1250752 -0.20843714 -0.078233585

lstm.bias_hh_l0 f4 [92]
00000000: d7a4 043d b3bd 07be 4e8d 183e b822 c83b
00000010: 4495 21bc 9a5c c639 353f df3c b699 493d
00000020: 1a76 a4bc ed59 5b3e b49b 2cbd bff1 9abd
00000030: a42a 153d 16ad 9b3d d12f 6f3c fc5a 13be
00000040: 1dc0 d73d d8e9 f73d f376 8abb 5ed1 99ba
00000050: cad9 1e3e 77f0 353c c26c 28bb dde0 b639
00000060: 397a 343e 0711 f73d 26b8 11bc b58a 1cbc
00000070: efcd 703d 8753 e9bd 4ef1 a83d b87a 893d
00000080: 2365 13be e0be 153e fcc7 853e 3b7a 5d3d
00000090: b32a c83d b521 963d f1b0 193e 3c56 e4bd
000000a0: dfb6 95bd 06ea 38bb dcbc b53b 7079 e53d
000000b0: 18c4 c8bb 22a1 30bc 8a59 3fbb ecf4 de3c
000000c0: cccf 56bd 0404 be3b 7218 82bc 2e73 b8bb
000000d0: 055a 48be d5c7 4f3b 16bd debb b69d 7cbd
000000e0: 0e21 803b 70e8 a13b d57e 813c 09a6 aa3c
000000f0: b9cb 1fbc 874f 3bba 2d8c 0abc de91 cfbd
00000100: 13c5 59bb 3f1c 06be c9ea 643b 0cd4 df3c
00000110: eb1c 1cbb a0ff afbc f316 023c b07c 3a3b
00000120: 71fc f43b 12ec 0ebe 9b4d f73d 9505 153b
00000130: 59d1 5f3e 2c75 3fbd ce58 113e a5f8 41bd
00000140: cf4b 15be 6922 103e 005f 2b3e a8a4 f83d
00000150: 1065 503e 38ff 4bbd 21f2 92be c168 58be
00000160: 64ca 373b 51d7 603e aeef 103d 2a76 a2be
0.032383766 -0.13255958 0.14897653 0.0061076544 -0.009862248 0.00037834496 0.02725182 0.049218856
-0.020075846 0.21421023 -0.042140678 -0.07565641 0.03641762 0.07601373 0.014598803 -0.14390177
0.105346896 0.12105149 -0.0042256056 -0.001173537 0.15512767 0.011104695 -0.002569959 0.0003488128
0.17624749 0.120637946 -0.008894002 -0.009554555 0.058790144 -0.11392885 0.0824915 0.0671286
-0.1439405 0.14623594 0.26129138 0.054071646 0.09773769 0.07330648 0.15008904 -0.111492604
-0.073102705 -0.002821566 0.0055461954 0.11204803 -0.006126892 -0.010780605 -0.0029197657 0.027216397
-0.052444264 0.0057988185 -0.015880797 -0.005628965 -0.1956559 0.0031704803 -0.006797443 -0.061673842
0.0039101904 0.004941039 0.015807549 0.020831125 -0.009753161 -0.00071453344 -0.008456272 -0.10135244
-0.0033229038 -0.13096713 0.0034929982 0.027322792 -0.0023820947 -0.021484196 0.007940042 0.0028455667
0.0074763824 -0.13957241 0.12075349 0.0022738923 0.21857204 -0.046742603 0.14194033 -0.047356267
-0.145797 0.14075626 0.16735458 0.12140781 0.20351052 -0.049803942 -0.28700355 -0.2113371
0.0028044218 0.21957137 0.035384826 -0.31730777

layer1.weight f4 [20, 23]
00000000: 4e91 b686 d285 b686 ae9a b606 d29f b606
00000010: ae94 b686 ce92 b686 32aa b606 f285 b606
00000020: 329b b686 328d b686 ccb3 b686 52aa b686
00000030: 10c6 b686 d0c9 b686 2cca b686 70e2 b686
00000040: 4cb5 b606 2cb7 b606 928b b606 10b5 b686
00000050: ccc1 b606 d0c3 b686 ccd2 b686 9df0 923d
00000060: 131e a0bc f0ad 893c f0b7 b686 e415 31bc
00000070: 88d5 b606 9782 fc3d 6e8d b686 e0c6 a73d
00000080: d515 a3bc 129f b606 24cc 19be 9693 263d
00000090: 9b79 243d ab50 273d 3341 9cbc 0ad5 45bb
000000a0: 57d2 ad3d 82d9 bf3d 501a 2ebd d5c0 2a3d
000000b0: 674a e0bc 7439 35be 9202 7d3d 0dfc d13d
000000c0: e567 cf3d 70b5 b606 765c a03d 50c9 b606
000000d0: f9da 733d 328a b606 6148 833d 7e7f 9f3d
000000e0: 8cba b686 8357 823d 39a4 9cbc 7b5b ddbc
000000f0: 2397 36bd 098f b73d cdf7 9d3d 7700 9f3d
00000100: 2abe be3d d462 783d 09df 02bd 3779 aa3d
00000110: 9b7a 9c3d 6c86 ca3d 13ca 06be 14a7 a1bd
00000120: 8e93 b686 efbb 83bc acc4 b606 ccb1 4abd
00000130: 30d6 b606 8731 c53d b68f 96bd 70b7 b606
00000140: e5cb c23d 055a 1d3e d937 533e cfd8 0a3e
00000150: 4f93 d9bd 6490 b6bd c7fd 063b c394 47bc
00000160: ab91 edbc 7313 493e d58f 253c ce3f 793c
00000170: 94ab e43e a941 a43e 5fa5 013f 90d9 b686
00000180: 9ceb f93e 4e92 b686 179b fb3e 10b7 b686
00000190: 15be d63e f763 013f 10c6 b606 be31 d43e
000001a0: d498 14be 9b95 2cbe 8ac8 e4bd b61a 0f3f
000001b0: d765 f23e 0331 f53e 9345 fd3e 41fd f63e
000001c0: 1e4c 49be e434 e73e bb84 f13e c81a f23e
000001d0: 66f3 a33e 019e 2e3f 0cc3 b606 270d 073f
000001e0: 90c4 b686 deb5 e43e cccf b686 88ec 133f
000001f0: e4f4 123f 52aa b686 0761 1e3f 9a82 14be
00000200: e570 17be 690e c6bd 351f 063f 0fbf 2a3f
00000210: 1f05 013f 7df6 293f 51a2 393f 300b 37be
00000220: 296c 123f a088 ca3e 1f3b 473f 6ecd a33e
00000230: 8427 2c3f 10b5 b686 a382 133f 30b7 b606
00000240: 1815 203f 329a b606 e929 483f 7bf4 c83e
00000250: 72a5 b686 2c09 1f3f 495e 14be 1ae8 13be
00000260: d87a 82bd ad52 053f ea7e a73e cfa9 033f
00000270: c791 563f c087 f03e 65c1 b2be d9cd e03e
00000280: 6631 213f 50dc b686 4e92 b606 f0db b686
00000290: 2cbb b606 329f b686 30e1 b686 eea9 b606
000002a0: 728a b606 50ca b686 72a2 b606 ae9a b606
000002b0: 92a8 b686 50cb b686 1285 b686 8e9c b686
000002c0: 32af b686 0cc3 b606 52aa b686 a0cf b686
000002d0: 4ea2 b686 f0d9 b686 50d7 b686 32ac b686
000002e0: 9ecd 203c 8faf 15bd 10ca 07bd 0cd0 b606
000002f0: 8cf3 e03a 70e2 b606 0e39 9f3c 0cd0 b686
00000300: 770e 003c 5673 f93b acc1 b606 ea38 853b
00000310: a207 b83c 75d9 c53c 4d73 333d 7f1d 6fbc
00000320: b5aa d8bb 5c9c 3bba ebae 7dbc 78a7 683c
00000330: 0102 ee3c b713 46bb 785f 0d3b a672 363f
00000340: fee8 a33e 9615 da3e 2e9a b686 7d14 073f
00000350: 30b7 b606 aabe 273f d0c9 b606 f4b6 283f
00000360: d562 3a3f f0df b686 a468 b53e 7f7f 14be
00000370: dfe5 03be 5500 aabd c5d0 053f 41d0 c13e
00000380: 6312 cd3e 553f 373f d7b1 073f 703b 2bbe
00000390: 8246 3f3f 8ff5 2d3f a0e1 b686 32a7 b606
000003a0: ae8d b606 9298 b606 aea9 b606 4cbd b606
000003b0: 10bf b686 4cd0 b686 8cbf b606 50be b686
000003c0: 10c3 b686 729a b686 12a2 b686 4cc9 b606
000003d0: acc9 b606 aea1 b686 ae9a b606 f0b6 b686
000003e0: f29c b686 52a8 b686 2e9a b686 90d9 b606
000003f0: 30e1 b686 cea2 b686 7288 b606 4cbd b686
-6.8674297e-35 -6.865742e-35 6.868807e-35 6.8695626e-35 -6.8679256e-35 -6.86765e-35 6.871087e-35 6.8657606e-35
-6.868883e-35 -6.866826e-35 -6.872498e-35 -6.8711054e-35 -6.875182e-35 -6.875733e-35 -6.8757856e-35 -6.879351e-35
6.872718e-35 6.872994e-35 6.866587e-35 -6.872684e-35 6.874555e-35 -6.874851e-35 -6.877053e-35 0.071747996
-0.01954559 0.016806573 -6.873106e-35 -0.010808442 6.8774547e-35 0.123295955 -6.8668603e-35 0.08192229
-0.019907871 6.8694524e-35 -0.1501928 0.040668093 0.040155035 0.040848415 -0.019074058 -0.0030186796
0.08487385 0.09367658 -0.042505562 0.041687805 -0.027379228 -0.17697698 0.06177003 0.10253153
0.10127238 6.872739e-35 0.078301355 6.8756593e-35 0.059535 6.866385e-35 0.064102896 0.07787989
-6.8734897e-35 0.06364348 -0.019121276 -0.02702116 -0.04457773 0.08962829 0.0771328 0.077637605
0.09313615 0.060641125 -0.031950984 0.08323901 0.07640573 0.0988892 -0.13163023 -0.07893196
-6.8677603e-35 -0.016080825 6.8749774e-35 -0.049485967 6.877551e-35 0.09628587 -0.073516294 6.873033e-35
0.09511546 0.15366371 0.20626773 0.13559268 -0.106238 -0.08914259 0.002059804 -0.012181464
-0.029000124 0.19636326 0.010105093 0.015212966 0.44662154 0.32081345 0.5064296 -6.878047e-35
0.48812568 -6.8675766e-35 0.49141762 -6.872978e-35 0.41941896 0.5054316 6.875182e-35 0.414442
-0.14511424 -0.16853945 -0.11171062 0.5590013 0.47343323 0.47888955 0.49467143 0.48240092
-0.19657943 0.4515754 0.47171578 0.47286057 0.32021636 0.68209845 6.8747387e-35 0.52754444
-6.8749614e-35 0.44670004 -6.876612e-35 0.57782793 0.57404923 -6.8711054e-35 0.618668 -0.14502946
-0.1478916 -0.09670717 0.5239137 0.6669778 0.5039844 0.66391736 0.725133 -0.17875361
0.5719629 0.39557362 0.77824587 0.31992668 0.67247796 -6.872684e-35 0.5762121 6.872996e-35
0.62532187 6.868736e-35 0.7818895 0.39249024 -6.870389e-35 0.6212337 -0.14489092 -0.14444008
-0.06371087 0.5207928 0.32714015 0.5143098 0.8381619 0.4697857 -0.34913173 0.4390705
0.62966 -6.878451e-35 6.8675766e-35 -6.878396e-35 6.8735815e-35 -6.869471e-35 -6.8791674e-35 6.871048e-35
6.866422e-35 -6.875806e-35 6.8699483e-35 6.868807e-35 -6.870848e-35 -6.875953e-35 -6.865632e-35 -6.869083e-35
-6.871822e-35 6.8747387e-35 -6.8711054e-35 -6.876587e-35 -6.8699276e-35 -6.878102e-35 -6.8777164e-35 -6.871381e-35
0.009814648 -0.03654438 -0.033151686 6.876649e-35 0.0017162426 6.879351e-35 0.019436385 -6.876649e-35
0.007815949 0.007612626 6.8745366e-35 0.0040656226 0.022464577 0.024151543 0.04381113 -0.014594435
-0.0066121467 -0.0007156783 -0.015483598 0.014200084 0.02905369 -0.0030224153 0.0021571796 0.7126869
0.32013696 0.42594594 -6.868734e-35 0.5276564 6.872996e-35 0.65525305 6.875733e-35 0.65904164
0.72807056 -6.878984e-35 0.35431397 -0.14501761 -0.12880658 -0.083008446 0.5227168 0.37854198
0.4005309 0.7158101 0.5300574 -0.16721892 0.7471696 0.6795282 -6.879232e-35 6.870646e-35
6.866897e-35 6.8684973e-35 6.8710113e-35 6.873894e-35 -6.874153e-35 -6.8766856e-35 6.8742244e-35 -6.874043e-35
-6.874741e-35 -6.868773e-35 -6.869893e-35 6.875657e-35 6.875712e-35 -6.869836e-35 6.868807e-35 -6.8729593e-35
-6.86914e-35 -6.8708115e-35 -6.868734e-35 6.878047e-35 -6.8791674e-35 -6.870001e-35 6.866128e-35 -6.873894e-35

layer1.bias f4 [20]
00000000: 8eae b686 4c71 4ebd 4cc0 7b3d 6f41 cb3d
00000010: fc48 d53e e383 b73e 542e 2a3f 90d8 b686
00000020: 05a8 263c f884 293f cccf b686 cea2 b686
00000030: 502d db3e 248b e83e b361 bf3d 3289 b686
00000040: fd15 2d3f 6106 093c 69ca 193f 5941 423f
-6.8717276e-35 -0.050401017 0.061462685 0.0992459 0.41657245 0.3584281 0.6647694 -6.8779e-35
0.010171895 0.6621852 -6.876612e-35 -6.870001e-35 0.42808008 0.45418656 0.093448065 -6.866238e-35
0.67611676 0.008363337 0.6007448 0.7588096

layer2.weight f4 [15, 20]
00000000: 30e3 b686 33d4 cdbd 075d a13d b1f0 8ebe
00000010: d2f5 f43e 269d bb3e d312 4a3f ccd2 b686
00000020: f006 2dbd 49f9 0d3f 90ca b686 70d9 b686
00000030: 25a6 fc3e f439 583f 4fbf 7fbe 50ca b686
00000040: 8e57 1f3f e2c6 c93c 609c 423f 10f0 4b3f
00000050: ce90 b606 e917 02bd 4973 a13d 6981 8fbe
00000060: 6002 ee3e 10c5 053f dde8 ef3e 90ba b686
00000070: 5a3a 2dbd 6ecf f03e 50ce b686 6286 b686
00000080: c5bb fa3e 3050 f43e 793e 80be eea4 b686
00000090: 6d8e ee3e 7fc4 c93c 1e72 f43e 031c f43e
000000a0: 0e9c b606 f231 a3bd 2b61 a13d 5f09 8fbe
000000b0: 1c48 083f c732 433f 5d51 4c3f 8ccb b686
000000c0: 5f10 2dbd f24b 2a3f d0dd b686 10cc b686
000000d0: 6d9b ff3e 778e 523f 8fc6 7fbe 10bf b686
000000e0: 0bde 2b3f c9c5 c93c 651e 063f d214 3d3f
000000f0: 4ea5 b606 cf3b d23c 5265 a13d 0823 8fbe
00000100: a430 f93e c09e 3e3f f5be 513f 8e8f b686
00000110: f619 2dbd 05fa 163f 92ab b686 70d9 b686
00000120: 8a36 f73e d8bd 2f3f 4a2f 80be 50de b686
00000130: 7e36 253f 70c5 c93c d792 113f 13fa 463f
00000140: 0cd0 b686 ae1f 05bd 5b66 a13d ba29 8fbe
00000150: 5562 f93e 0bef 373f faa6 383f 6cc4 b686
00000160: 991c 2dbd 8c0e 2f3f 12a4 b606 8e97 b686
00000170: e8c2 fa3e f738 493f 71f9 7fbe b288 b686
00000180: a51b 0b3f 51c5 c93c a095 2a3f 580b f53e
00000190: 70b5 b686 726c 4cbd bd64 a13d b31f 8fbe
000001a0: 7417 f93e bc63 0a3f 726c 113f d295 b686
000001b0: 0e19 2dbd 9465 fa3e 3289 b606 10c3 b686
000001c0: 73fd 0d3f 0475 3c3f c2ac 7ebe 70c2 b686
000001d0: 8467 0e3f 61c5 c93c 91e8 543f 4d43 2b3f
000001e0: 90d9 b606 68dc b50c 75a5 109a ca0c 7b1b
000001f0: 7b61 229e 5738 689e 5c88 649e 4cba b686
00000200: ae8a b606 7421 549e d0cc b606 7288 b686
00000210: 1210 2b9e cf2a 9e9e 92d6 521b f0df b606
00000220: b64b 949e ee9a b686 f901 809e ffc0 5a9e
00000230: 50d3 b606 ae9a b686 9286 b606 32a9 b606
00000240: ae8d b686 acc1 b686 7288 b686 ecbd b606
00000250: a0e1 b686 70bd b686 f0d7 b686 4cbd b686
00000260: 5286 b606 f285 b606 f0e1 b686 d0cc b606
00000270: 70b8 b686 2cb5 b686 4e92 b686 2e9a b606
00000280: 50be b686 f3b3 b0bd 4263 a13d 0016 8fbe
00000290: bfbf 023f e7a7 cc3e 6583 223f 32a8 b686
000002a0: 6c15 2dbd b4e1 4d3f cea2 b686 d2ac b686
000002b0: cca4 e93e 254f e53e bf10 80be 8cb4 b686
000002c0: bff5 3f3f 52c5 c93c a0a8 2d3f 9e77 443f
000002d0: 9286 b686 f0df b686 32a5 b606 ce95 b686
000002e0: ccb0 b606 72aa b606 4cbd b606 32a7 b606
000002f0: 30e1 b606 30db b686 d0de b606 50d9 b686
00000300: 90d7 b686 50dd b686 328b b606 3290 b686
00000310: 92ab b606 4ea1 b686 929b b686 32a8 b686
00000320: b288 b606 4ea1 b686 f0db b606 a0cf b686
00000330: 0cb0 b686 329c b686 f294 b686 4cd0 b606
00000340: 12a4 b606 42aa b686 50be b606 50ca b686
00000350: 6cce b606 50d4 b606 b296 b606 50cc b686
00000360: eea9 b686 92a4 b686 90ba b686 f0df b606
00000370: ccb0 b606 9298 b686 f0c1 b686 328a b686
00000380: 3289 b606 8e9f b686 70b8 b686 52aa b686
00000390: 5286 b606 f294 b686 a0cf b606 d0c9 b606
000003a0: d0dd b606 b288 b686 cccf b686 42aa b606
000003b0: f0d9 b606 aea1 b686 ae8a b686 2cb7 b686
000003c0: d0c3 b686 75bc 4cbd fc5e a13d 2efc 8ebe
000003d0: af87 023f 242d 343f d259 da3e 9298 b686
000003e0: 1c0b 2dbd 910c f03e aea9 b686 ccc4 b686
000003f0: e3f9 fb3e a8c4 153f 5c30 80be 42ad b686
-6.8794613e-35 -0.100502394 0.07879072 -0.27918008 0.47843796 0.36643332 0.78934973 -6.877053e-35
-0.042242944 0.55458504 -6.875843e-35 -6.8780287e-35 0.49345508 0.8446343 -0.24975322 -6.875806e-35
0.6224297 0.024630968 0.7601986 0.7966318 6.867356e-35 -0.031761084 0.07883317 -0.2802842
0.46486187 0.5225382 0.46857348 -6.873492e-35 -0.042291977 0.47033256 -6.876394e-35 -6.865825e-35
0.48971382 0.47717428 -0.25047663 -6.8703133e-35 0.46593037 0.02462983 0.47743315 0.4767762
6.869009e-35 -0.07968511 0.078798614 -0.27936837 0.5323503 0.76249355 0.7981165 -6.8759876e-35
-0.04225194 0.66522133 -6.8786715e-35 -6.8760634e-35 0.49923268 0.82248634 -0.24978088 -6.874153e-35
0.67135686 0.024630444 0.5239013 0.73859894 6.8703684e-35 0.025663285 0.078806534 -0.27956414
0.48669922 0.74460983 0.81932 -6.8671726e-35 -0.042261086 0.5897525 -6.871289e-35 -6.8780287e-35
0.48283798 0.68649054 -0.2503608 -6.878745e-35 0.64536273 0.024630278 0.56864685 0.7772533
-6.876649e-35 -0.032500915 0.07880851 -0.27961522 0.48707834 0.71849126 0.72129786 -6.8749407e-35
-0.0422636 0.6838157 6.870187e-35 -6.868348e-35 0.48976827 0.78602546 -0.24997498 -6.8661647e-35
0.5433906 0.02463022 0.6663456 0.47860217 -6.872739e-35 -0.04990811 0.078805424 -0.27953872
0.48650706 0.5405843 0.568061 -6.868093e-35 -0.042260222 0.48905623 6.866238e-35 -6.874741e-35
0.5546486 0.7361605 -0.2487059 -6.874649e-35 0.556267 0.02463025 0.8316737 0.6689957
6.878047e-35 2.8020118e-31 -2.9912157e-23 2.0766366e-22 -8.596367e-21 -1.22936285e-20 -1.2098418e-20 -6.873453e-35
6.866456e-35 -1.12301045e-20 6.8761736e-35 -6.866128e-35 -9.055988e-21 -1.6746606e-20 1.7440124e-22 6.878984e-35
-1.5701423e-20 -6.868844e-35 -1.3553343e-20 -1.15807346e-20 6.8771287e-35 -6.868807e-35 6.8658524e-35 6.87094e-35
-6.866897e-35 -6.8745366e-35 -6.866128e-35 6.8739856e-35 -6.879232e-35 -6.8739144e-35 -6.877808e-35 -6.873894e-35
6.8658157e-35 6.8657606e-35 -6.8792776e-35 6.8761736e-35 -6.87318e-35 -6.8727e-35 -6.8675766e-35 6.868734e-35
-6.874043e-35 -0.086280726 0.0788026 -0.27946472 0.5107383 0.3997185 0.6348174 -6.870793e-35
-0.042256758 0.8042252 -6.870001e-35 -6.871473e-35 0.45633543 0.44786945 -0.25012776 -6.872608e-35
0.74984354 0.024630222 0.67835426 0.7674502 -6.8658524e-35 -6.878984e-35 6.8703524e-35 -6.868091e-35
6.872057e-35 6.871124e-35 6.873894e-35 6.870646e-35 6.8791674e-35 -6.878286e-35 6.8788185e-35 -6.8780103e-35
-6.877753e-35 -6.878598e-35 6.866532e-35 -6.8672667e-35 6.871289e-35 -6.8697807e-35 -6.868938e-35 -6.870793e-35
6.8661647e-35 -6.8697807e-35 6.878396e-35 -6.876587e-35 -6.871947e-35 -6.86903e-35 -6.8679646e-35 6.8766856e-35
6.870187e-35 -6.871096e-35 6.874043e-35 -6.875806e-35 6.87641e-35 6.8772756e-35 6.868222e-35 -6.8761e-35
-6.871048e-35 -6.8702605e-35 -6.873492e-35 6.878984e-35 6.872057e-35 -6.8684973e-35 -6.8745757e-35 -6.866385e-35
6.866238e-35 -6.8695236e-35 -6.87318e-35 -6.8711054e-35 6.8658157e-35 -6.8679646e-35 6.876587e-35 6.875733e-35
6.8786715e-35 -6.8661647e-35 -6.876612e-35 6.871096e-35 6.878102e-35 -6.869836e-35 -6.866456e-35 -6.872994e-35
-6.874851e-35 -0.049984414 0.07879445 -0.27926773 0.50988287 0.7038138 0.42646652 -6.8684973e-35
-0.042246923 0.46884587 -6.8710113e-35 -6.874996e-35 0.49214086 0.585032 -0.25036895 -6.871537e-35

layer2.bias f4 [15]
00000000: 8799 333f 9553 d43e f56e b73e 2965 fd3e
00000010: b700 243f ba75 3e3f b16a 691b 0ccf b686
00000020: d6b5 303f f0d9 b686 30d7 b606 4cba b686
00000030: b63f 2d3f 2ccd b686 d60d 393d
0.7015614 0.41470018 0.3582684 0.49491242 0.6406359 0.74398386 1.9307782e-22 -6.876502e-35
0.6902746 -6.878102e-35 6.877698e-35 -6.873453e-35 0.6767534 -6.8762264e-35 0.04517921

layer3.weight f4 [7, 15]
00000000: af07 553f 0b27 f53e 60d9 093f 4a61 4e3f
00000010: b71c 0c3f 03cd 383f 446c 001f 3289 b606
00000020: f8d3 f03e 30b7 b606 a0e1 b686 f0db b686
00000030: 7b2c 603f 3299 b686 8e94 50be ec2c 3cbb
00000040: ea2d 70bb 3ce4 6cbb b7e4 86bb 65fb 4cbb
00000050: bffe 44bb 6d3f 5219 d2aa b606 dfb4 5abb
00000060: 90e2 b686 ce90 b606 8caf b606 719f 7dbb
00000070: f29c b606 805b b23d 05ab 243f 6049 fc3e
00000080: 38b9 463f d420 e23e 383f 0d3f 4783 143f
00000090: 1adb 161f 50bd b686 4ce2 613f ce8b b606
000000a0: 2cbb b606 6cbc b606 fb6c 3f3f 12a0 b686
000000b0: 6331 72be 6a3c 523f a702 f53e 14f3 223f
000000c0: f7ab 123f d247 013f 2dd3 333f 5c9e 121f
000000d0: 32a5 b606 3a85 373f 4cba b606 50c9 b606
000000e0: ccb0 b686 fd53 533f 50df b686 c748 6bbe
000000f0: 50cb b686 2eae b686 2cb7 b686 50d4 b686
00000100: 70bd b606 eea9 b686 6cbc b606 9296 b606
00000110: 50ce b686 72a2 b606 f294 b686 2e9a b686
00000120: 12ab b606 8cb4 b606 f0df b606 75d1 593f
00000130: 4e8b ee3e bfb3 623f 8a26 323f 2c75 4c3f
00000140: 1314 e43e 739b f51e f29c b606 8ce2 183f
00000150: 9298 b606 50cc b606 b291 b686 5ef6 113f
00000160: d0c3 b686 7855 56be 2ee3 583f d4e9 f43e
00000170: c503 343f 53f4 2d3f 35d8 323f cffe 3a3f
00000180: db52 211f d0c9 b606 7ee4 203f 7288 b686
00000190: 50d9 b606 f0d9 b606 d7fb 3a3f acc9 b686
000001a0: 2cd2 97be
0.8321485 0.4788135 0.5384731 0.806172 0.54731315 0.72187823 2.719461e-20 6.866238e-35
0.4703672 6.872996e-35 -6.879232e-35 -6.878396e-35 0.8756787 -6.868589e-35 -0.20369169 -0.00287133
-0.003664846 -0.003614678 -0.0041166204 -0.0031277773 -0.0030059067 1.0869554e-23 6.871179e-35 -0.0033371968
-6.8793695e-35 6.867356e-35 6.8718734e-35 -0.003869977 6.86914e-35 0.087088585 0.64323455 0.4927473
0.7762637 0.4416567 0.5517459 0.58012813 3.1944972e-20 -6.873896e-35 0.88235927 6.8666216e-35
6.8735815e-35 6.873765e-35 0.74775666 -6.8695993e-35 -0.23651652 0.82123435 0.47853586 0.6365216
0.5729365 0.50500214 0.70244104 3.1047694e-20 6.8703524e-35 0.7168766 6.873453e-35 6.8756593e-35
-6.872057e-35 0.8255003 -6.878892e-35 -0.22976981 -6.875953e-35 -6.8716725e-35 -6.872994e-35 -6.8772756e-35
6.8739144e-35 -6.871048e-35 6.873765e-35 6.8682034e-35 -6.876394e-35 6.8699483e-35 -6.8679646e-35 -6.868734e-35
6.8712156e-35 6.872608e-35 6.878984e-35 0.8508523 0.46590656 0.8855552 0.69590056 0.7986629
0.44546565 2.6004676e-20 6.86914e-35 0.59720683 6.8684973e-35 6.8761e-35 -6.867487e-35 0.5701655
-6.874851e-35 -0.20931041 0.8472165 0.47834647 0.7031825 0.67950934 0.69861156 0.7304506
3.4161613e-20 6.875733e-35 0.6284865 -6.866128e-35 6.8780103e-35 6.878102e-35 0.7304053 -6.875712e-35
-0.29652536

layer3.bias f4 [7]
00000000: 46cc 483f 18b9 913d ad0b 0d3f 0481 063f
00000010: aea1 b606 e046 4a3f c34c fb3e
0.78436697 0.07115382 0.5509594 0.5254061 6.869836e-35 0.79014397 0.49082002

layer4.weight f4 [1, 7]
00000000: 6796 663f 43ef 45bd 2560 783f f71f 753f
00000010: 4e91 b686 21e4 613f e11b 803f
0.90073246 -0.04832388 0.97021705 0.957519 -6.8674297e-35 0.8823872 1.0008508
